training/models/best_model.pth (torch, 24825 bytes, 6 tensors)

shared_layers.0.weight f4 [64, 3]
00000000: 948c 023f f73b a9be 2e71 8c3c 7d71 c1be
00000010: d207 94be 8ca2 053f 635b b6bd a7bc 50bd
00000020: e7ee 6e3e 1a2a 593d 526a 1f3f 1479 7b3e
00000030: c741 c43e 7cad e3bb 9935 ed3e 9032 2a3f
00000040: 71b5 3a3e 779d c83e 0a02 b23e cc1a 373e
00000050: e49c f63e fcb0 07bd 4757 c43b 9fbe aabe
00000060: 80c1 47be ec7d ddbe 8d25 aabe 0d69 d83e
00000070: 5490 d9be 314b 98be 655a 313f 2cce db3e
00000080: a207 d0be fa86 c73e fe82 87be f6c9 d9be
00000090: e70c 7fbe cee8 3cbd ef6e 813e 3ca8 a03e
000000a0: f004 b5be bdf4 193e 7d1d cfbe c56e 78be
000000b0: a80f 10bf 4390 e1bb c467 ea3c 37f5 dcbe
000000c0: f55d b6be a9fb 71bd b7e9 083f 5286 063f
000000d0: 131f 413e 3954 dbbe c32f 023f e690 e03e
000000e0: 7e9c 263e 3017 fabe 216b e33d e56c 7e3e
000000f0: 43fa c83e 49a5 1e3f 8614 a43e e8d3 babe
00000100: ee1b 3abd d935 073f 8ae5 163f 3e66 1abe
00000110: 1c47 f63e c5f6 92be 265d f73e c569 c9be
00000120: 601d babe 78fb c73e 6156 a73e ce5f 4b3e
00000130: 5193 e8bd a159 74be 84b5 4dbe e470 ef3e
00000140: 3e75 f2be fddc a23d 4eaf bbbe 0057 ca3c
00000150: 13d0 dbbe 4868 783e 5ecd 263e 1422 f7be
00000160: 2cb1 b9be 43c2 e4bd 34d4 a2be c2a2 363f
00000170: b2c1 103f b36a 79be 56c3 10be e3e0 58bd
00000180: 4b7d e2be 9858 373f ff24 973e c30b 533e
00000190: f7e1 2b3f 5ac7 9d3e c4c7 d83e 40a7 003f
000001a0: cbde b03e d3d5 3d3f 0aa5 123e 4abb c53d
000001b0: ee74 4abe 479a b03d 3fa9 d7be e35d bb3d
000001c0: 0f95 343f b750 0e3f e66f 973e b5f6 f1be
000001d0: b8b5 c4be d7e0 633e a1fe 10bf a351 46be
000001e0: fd88 2abe d12f 68be d805 03bf 519a 81be
000001f0: f793 f2be effd 563e 4a27 f9be d58e e0bd
00000200: 4d89 aa3e ad6a 423e fccf 90be 2399 c43e
00000210: 4845 babe 6715 b63e 3829 113f d83f 0cbe
00000220: 49db 12bf 1181 263e 4c38 f8be 430d b2bd
00000230: 7bc6 953d cf4e 1b3e 2b8c 093f 0863 e4be
00000240: 56b5 93bd 5385 a3bd e938 ca3d 9a46 c1be
00000250: 1d66 f43d e9be 093e 10b1 a1be 8b6e c8be
00000260: 8e87 023e b353 cdbe 3934 b93e 358e e43e
00000270: 1b1a a0be 45fc 833d 5acf 74be 51f1 b93e
00000280: 6d06 713e 4fd9 9f3e 357e 143f 1f27 133f
00000290: 4cd9 18be e786 dd3e 53a7 f13d a6f5 0a3f
000002a0: 46f0 0abf be32 703e 88a0 8bbe 3bd5 d8bd
000002b0: 72f7 12bf 2c80 f1be b39e 003e cd4b 263f
000002c0: b553 72be d4ca 2e3f c887 4abe fb71 5ebe
000002d0: 8d21 453f 68c2 043f 6d8b bfbd 11d5 233f
000002e0: 8f0a 0c3f fb30 9fbe ecb4 eabd cd35 103f
000002f0: 2120 09bf 3ab3 213e 40de cdbc ff45 af3e
0.50995755 -0.33053562 0.017143812 -0.37781897 -0.28912216 0.5220115 -0.089041494 -0.050961163
0.23333322 0.053018667 0.62271607 0.24557906 0.38331434 -0.006948171 0.46329954 0.664834
0.18233277 0.39182636 0.3476718 0.17881316 0.48166573 -0.03312777 0.0059918496 -0.33348557
-0.19507408 -0.43260133 -0.33231774 0.42267647 -0.42492926 -0.29744866 0.69278556 0.42930734
-0.40630823 0.38970166 -0.26467127 -0.42536896 -0.24907266 -0.046120457 0.25279948 0.31378353
-0.3535533 0.15034766 -0.40452185 -0.24261005 -0.5627389 -0.0068836524 0.028613932 -0.43155834
-0.3561856 -0.059077892 0.5348162 0.52548707 0.1885951 -0.42837694 0.5085413 0.4386055
0.16270635 -0.48845816 0.111044176 0.24846227 0.39253435 0.61970955 0.32046908 -0.36489797
-0.045436792 0.5281654 0.58944 -0.15078065 0.48101127 -0.28703895 0.48313254 -0.39338508
-0.36350536 0.39059043 0.3268309 0.19860765 -0.113562234 -0.23862316 -0.20088774 0.46765816
-0.47355074 0.079523064 -0.36657184 0.024699688 -0.42932186 0.2425853 0.16289279 -0.48268187
-0.36267984 -0.11169865 -0.31802523 0.713421 0.56545556 -0.24357109 -0.14137015 -0.052948844
-0.44236216 0.7161956 0.29520413 0.20609955 0.6714167 0.30816156 0.4233991 0.50255203
0.34544978 0.74154395 0.1432077 0.09654863 -0.19771168 0.08623176 -0.42121312 0.09148767
0.70539945 0.5559191 0.2957756 -0.47258535 -0.3841989 0.22253738 -0.5663853 -0.1936708
-0.1665382 -0.2267449 -0.5118079 -0.25313047 -0.47378513 0.20995305 -0.48662788 -0.10964743
0.33307877 0.18986006 -0.2828368 0.38398084 -0.36380982 0.35563204 0.5670352 -0.1369623
-0.5736585 0.16260172 -0.4848045 -0.08693936 0.07313248 0.15166782 0.53729504 -0.44606805
-0.072123215 -0.07984414 0.09874136 -0.37749177 0.11933539 0.13451733 -0.315804 -0.39146838
0.12747023 -0.4010292 0.36172655 0.44639745 -0.31269917 0.06444601 -0.23907223 0.36316922
0.23537607 0.3122048 0.58005077 0.5748157 -0.14926642 0.43266985 0.11799493 0.5428108
-0.5427288 0.23456857 -0.27270913 -0.105875455 -0.5740882 -0.471681 0.12560539 0.6495941
-0.23664744 0.6827824 -0.19778359 -0.21723168 0.7700432 0.5185914 -0.09352765 0.6399699
0.5470361 -0.31092057 -0.11460289 0.56332093 -0.5356465 0.15791026 -0.025130391 0.3423309

shared_layers.0.bias f4 [64]
00000000: 1591 643e 0b41 9bbe 6011 4cbe 1d43 303f
00000010: e2b9 223f 42d3 90be ec2e 01bf 6504 c33e
00000020: ee82 2dbe d128 a0be 5b70 f53e a47e 073f
00000030: d8eb b7be 8244 0c3f a12e 2f3f f7d4 c2be
00000040: c547 d3be 0546 80be c124 0a3f 6ac0 193f
00000050: 623e 563d ad9e 313f 1d90 b03e c539 07bf
00000060: 4346 493e 3b79 92be dbb2 8a3e e6fc 0dbf
00000070: 4e52 5fbe 571a af3d 7d09 9a3e 3db3 ecbe
00000080: ff96 203f 168c ecbc bf23 9cbe 0463 b03e
00000090: 32b8 01bf 88eb 7a3e 038e 0d3f 6136 a6be
000000a0: a0de 0cbf 2f88 663e 2cf9 213f 09b7 f7bd
000000b0: b6ea e6be 7019 313d 7f3b be3c b081 b73e
000000c0: 353a 2f3d 91d7 94bd 6026 bebe 1481 143f
000000d0: 1395 c0be 964d c4bd c6b4 b7be 441e a1be
000000e0: 5019 80be 3d93 e03c 6d1a cc3e 76e3 fb3e
000000f0: 597b e0be 13c8 18bd c63a 813e d64f f83e
0.2232097 -0.3032306 -0.19928503 0.68852407 0.63564885 -0.28286177 -0.5046222 0.3808929
-0.16944477 -0.3128114 0.47937283 0.52927613 -0.35922122 0.54792035 0.68430525 -0.38053104
-0.41265693 -0.2505342 0.5396233 0.60059226 0.052305587 0.69382745 0.3448495 -0.52822524
0.19655709 -0.28608117 0.2708958 -0.5546402 -0.2180874 0.08549946 0.30085364 -0.46230498
0.627304 -0.028875392 -0.30496022 0.34450543 -0.50671685 0.2450391 0.5529482 -0.32463363
-0.550272 0.22512887 0.6327083 -0.12095458 -0.45100945 0.04323715 0.02322173 0.3584113
0.04278012 -0.072676785 -0.37138653 0.5800946 -0.37613735 -0.09585111 -0.35880107 -0.31468403
-0.25019312 0.027413959 0.3986391 0.49196976 -0.43844107 -0.03730018 0.25240153 0.4849841

shared_layers.2.weight f4 [32, 64]
00000000: 3245 9cbd a066 243c 8086 c6bc ec13 f13d
00000010: 602f b0bc 584a dabd 6e71 b33d b828 b43d
00000020: 8095 b2bc d0b4 d13d 7444 9cbd e85b 963d
00000030: 6890 fcbc 249b 85bd d06d d2bd 6072 483c
00000040: 3cbc 5f3d a0c3 5fbd 20a8 3ebc b811 8c3d
00000050: 80fb 833b c05e 493d 583c 6bbd aa60 a2bd
00000060: 24dd d3bd 8485 37bd 607d 693c c0f2 ac3b
00000070: 541d f8bd e4eb 2e3d 4024 0cbc 804c 6ebc
00000080: 8081 5dbb b063 403c 30f1 a93d 824a b53d
00000090: 46b4 b33d 909a 0cbc 68c7 b3bd 8402 cc3d
000000a0: 0693 833d e0a2 85bc 0a15 a83d 2628 82bd
000000b0: 0ea6 85bd 4e76 c9bd 18db dabc 403f 8ebd
000000c0: 4c6f c63d 246a 7e3d a838 32bd 7c99 3ebd
000000d0: c4ab 79bd ec8d 93bd f84d b03c b0df cb3c
000000e0: 206e 8e3d 20eb 5dbd 6a5f fcbd dc80 adbd
000000f0: 22bd a63d e475 94bd c0e6 d23d 5440 223d
00000100: d200 acbd 0894 96bc 70fa 04bc b2d1 a63c
00000110: 99dc c1bc 02d0 b3bd 78d6 b43c 9e91 383d
00000120: d45f 33bd 40b3 09bd 2e19 10be c54a f1bd
00000130: b445 303d eca8 43bd 1f04 d73d c019 cfbc
00000140: e026 2ebd ac79 88bd 6744 e3bd 7697 7bbd
00000150: 6779 043b 9232 a6bd 2663 023c f807 a7bd
00000160: 600a acbc 0096 b239 5983 6f3d 00e9 ec3b
00000170: d038 e3bc 5446 92bd 3ca8 38bd 8028 83bb
00000180: fc25 313c 7588 c0bb 3e2b cbbd 53be 94bd
00000190: 8ca8 e0bd bf49 c73d 14d2 dbbd 60da 3c3d
000001a0: 504f 9abc 4402 213d 8bc6 da3d a0cf 873d
000001b0: 500a 8ebc b424 0e3d 0245 dbbd d4a1 963d
000001c0: cf0d 863d 4022 eb3d 0042 41bb cca7 d53d
000001d0: 36cf 973d b6bc e03c c17a febb 06c0 9bbd
000001e0: d41c 97bd 6e89 d1bd 6ee2 ab3c 5866 b63d
000001f0: f9b7 b8bc 97a2 853c b713 123d 5547 c8bd
00000200: e0eb 3ebc c252 86bd 9a0c b83d 0024 efbc
00000210: a03e f63c d8a1 663d e076 bcbd 0439 fc3d
00000220: 40b7 cdbc 0069 0b3a 101c 65bc aa4b f0bd
00000230: e825 35bd 20ad 9a3d 0c16 1dbd 3286 acbd
00000240: 4a8d d5bd 90fd 873d d85a 8fbd 00f3 043d
00000250: 0064 df3a a0ad 843b cc85 65bd 6a43 cb3d
00000260: 6277 b8bd 3662 f23d 768b 8cbd dca0 8abd
00000270: 6429 1fbd 20df 843c 647d 553d 70af 9c3d
00000280: d8d4 43bd 58bf f7bc f446 e73d 600d 77bc
00000290: 84a7 fdbd 58d0 b13c feed c8bd e440 51bd
000002a0: 3091 783d 9471 073d b820 18bd 163c cbbd
000002b0: 18a7 8c3d 606b 873d 00bb daba 8a6a 8bbd
000002c0: 6823 19bd 6015 cf3b e0cf adbd c0ed 213d
000002d0: f4cb 2bbd 00d4 ebb9 4ea9 b93d 589a 1d3d
000002e0: 328b fcbd cc05 dabd 1841 ee3c c033 523b
000002f0: 1652 b03d 0080 a6b8 dccc 54bd c4b1 273d
00000300: 1c78 89be 60c0 a6bc 6a27 b0bd dd73 143e
00000310: 89b2 a53d 4db4 c4be 18cb f43c 356e 1b3d
00000320: e0d8 c23c 3884 ffbd 3d01 0abe 4f67 07be
00000330: 20ec b93b 1b6a f23a b112 113f d428 a0bd
00000340: 08be 0abd 6f37 86be e297 aabc fc62 183f
00000350: 3a50 b2bc 878a dd3e 9293 95bd f8d7 f5bc
00000360: 2b9d 213f 1868 c03d a9c0 a93e c849 5abd
00000370: 7cb8 39bd a89e edbd 5b79 c83e 7852 d93c
00000380: 98a3 993e be18 17bd 1b4a aabe 79e7 97bd
00000390: 6845 61bd 4d9a b43d 9f1e c93b 2097 253c
000003a0: b01e 1ebc 8883 55bd b076 323f 9c87 49bd
000003b0: 14bc c1bd 866b 92bd b029 92bc fc8d be3d
000003c0: 1644 ce3d bc2a ec3d 8640 8b3d 63be c33e
000003d0: 4054 d33d 3803 3abe ba9f 1fbe 6e74 63be
000003e0: 680d 18bd b01d 063d 913a d43d 8714 033d
000003f0: ac50 cebe d303 5abe eebb 7d3e 0d47 f8bc
-0.076303855 0.010034233 -0.024234056 0.11771378 -0.021506965 -0.10658711 0.08761869 0.08796829
-0.021799803 0.10239565 -0.07630244 0.073417485 -0.030830577 -0.06523731 -0.10274851 0.0122343
0.054622874 -0.054629922 -0.011636764 0.06839317 0.004027784 0.049162626 -0.057430595 -0.079285935
-0.103449136 -0.044805065 0.014251083 0.0052779615 -0.12114969 0.04270543 -0.008553565 -0.014544606
-0.0033799112 0.011742517 0.08297956 0.08852102 0.08774619 -0.008581772 -0.08778268 0.09961417
0.06424527 -0.016313016 0.08207138 -0.06355314 -0.06525813 -0.09837018 -0.0267158 -0.06945658
0.09689197 0.062112942 -0.043511063 -0.046533093 -0.060954824 -0.07204804 0.021521553 0.024886936
0.069545984 -0.05417931 -0.12322886 -0.084718436 0.08141543 -0.07249048 0.10297918 0.03961213
-0.08398594 -0.018381134 -0.00811635 0.020363662 -0.02366476 -0.08779909 0.022074923 0.045060746
-0.04379256 -0.03361821 -0.14072105 -0.11781839 0.043035224 -0.04776852 0.10498833 -0.025280833
-0.042517543 -0.06663832 -0.11097031 -0.06142374 0.0020213963 -0.08115114 0.007958209 -0.08155817
-0.021001041 0.00034062564 0.058474872 0.007229924 -0.027737051 -0.0714232 -0.045082316 -0.0040026307
0.010812279 -0.005875642 -0.09920357 -0.07262864 -0.10969648 0.09730863 -0.107334286 0.046106696
-0.018836647 0.0393088 0.106824 0.06631398 -0.017338902 0.03470297 -0.107065216 0.07355085
0.065456025 0.11481142 -0.0029488802 0.10432395 0.07412569 0.027433734 -0.0077660982 -0.07604985
-0.073785454 -0.10231291 0.020981994 0.08906239 -0.022548662 0.01631288 0.035663333 -0.097792305
-0.011652917 -0.065587536 0.089867786 -0.02919197 0.030059159 0.05630669 -0.09202361 0.12315562
-0.025111794 0.00053180754 -0.013983741 -0.11733182 -0.044225603 0.07552552 -0.038351104 -0.08424033
-0.104273394 0.0664016 -0.06999749 0.032458305 0.0017043352 0.004049018 -0.0560358 0.099249676
-0.090071455 0.118351385 -0.068625376 -0.06768963 -0.038857833 0.016219676 0.052121535 0.076506495
-0.047810405 -0.030242607 0.1129283 -0.015078872 -0.12385467 0.021705791 -0.098110184 -0.051087275
0.060685337 0.0330673 -0.037140578 -0.0992357 0.06867808 0.06612277 -0.001668781 -0.0680743
-0.03738728 0.006319687 -0.08486915 0.039533377 -0.04194255 -0.00044980645 0.090654954 0.03847727
-0.12331237 -0.10645637 0.029083773 0.0032074302 0.08609407 -7.939339e-05 -0.05195318 0.040941015
-0.2684945 -0.020355403 -0.08601268 0.14497323 0.080906935 -0.3841881 0.029881999 0.0379469
0.023785055 -0.124763906 -0.13477035 -0.13223003 0.0056739002 0.0018494757 0.56669146 -0.07820287
-0.033872634 -0.26214167 -0.020824376 0.5952604 -0.02176677 0.4326975 -0.073035374 -0.030010208
0.63130444 0.09394854 0.331548 -0.05329302 -0.045341954 -0.11602527 0.39155087 0.026528582
0.30007625 -0.03688883 -0.33259663 -0.07417197 -0.05499783 0.08818493 0.0061376835 0.010106832
-0.009650871 -0.05212739 0.6971235 -0.049201593 -0.09459701 -0.07149415 -0.017842144 0.09304425
0.1007158 0.115315884 0.06799416 0.3823119 0.10318804 -0.1816529 -0.15588275 -0.22212383
-0.03712216 0.032743156 0.10362733 0.032002 -0.40295923 -0.21290521 0.2477872 -0.030307317

shared_layers.2.bias f4 [32]
00000000: 0459 083d e5f7 193d 90b8 e33c 7d48 f63d
00000010: 69fc d93c bad9 053e 0551 b33d a437 063e
00000020: d805 d53d 1cda b03d 5ad4 613e e4c0 443e
00000030: 4c79 35bd 54e0 d4bd fe09 a3bd 8fdf 463e
00000040: 2cf4 0d3d 7c51 9c3d 3054 773c d062 afbc
00000050: 34fd c83d b003 c53d 838a a83c 37e7 c33d
00000060: 267e f2bd 6455 98bc 023f 483e 4495 70bd
00000070: 922e a33d c290 34bd 51c3 ef3d 0241 b1bd
0.033288017 0.037589926 0.027797967 0.12025545 0.026609616 0.13071337 0.087556876 0.13107163
0.10401505 0.08635351 0.22053662 0.19214207 -0.04430513 -0.1039435 -0.0796089 0.19421218
0.03465669 0.076327294 0.015095755 -0.021409422 0.0981392 0.09619844 0.02057386 0.09565585
-0.11840467 -0.018595405 0.19555286 -0.0587361 0.07967867 -0.044083364 0.117071755 -0.086549774

shared_layers.4.weight f4 [8, 32]
00000000: ac41 b7bd 0d0c 27be 51b6 113e bf4b 48bf
00000010: 3450 cbbb a2c5 8abd 5ab8 babc 114d 613e
00000020: 1fb9 c1bd 27d7 f13c 6b6f a43d 41d6 033e
00000030: ba80 0ebe b6af a5bd 7217 14bc 1da7 2c3b
00000040: 858a 97bd 72cd 92bd 7efe 293e 848e 7a3d
00000050: ee54 223c 43a7 e6bc 631b ffbd 1fdd 113e
00000060: 7d98 e2bd 05ef 07be 20e1 f13d 5fec 203e
00000070: 16f8 d23d 7f51 143d 5993 4d3e 16b1 1c3d
00000080: 25e4 2dbe 77aa 073e 4276 22be c8d9 3cbf
00000090: 08ee 0cbe fd79 21bd 2a5f 8dbd b8c6 873d
000000a0: c69e 773d 7ace 1e3e 8546 063e 39a7 e13d
000000b0: 12c0 2bbe a120 003e 3d63 10be c199 f63d
000000c0: 34cd 2bbd 49e5 edbd a96e 61bd b8ec 153e
000000d0: 64e2 13be 1a9a d13d 4820 79be 1c38 3bbe
000000e0: 4fd6 873d 85be 3abe f189 f23c 94bb babd
000000f0: 9738 af3d 59a2 26be d475 39bd da81 ff3b
00000100: 8afa 2cbd 90f9 e8bd 2635 f3bc 9fac 88be
00000110: 38db 18bd c4ee 88be b032 8fbe 7983 e5bd
00000120: b3c8 ef3d 8f84 ca3c cad2 9bbb 135f 24be
00000130: 0ea1 1c3e 6e61 343e b104 263e c39b acbe
00000140: 77ec f5bd 137d 29bd 5d69 d9bd 0881 b43c
00000150: dee4 123e 74b0 1d3e 74a1 4abe 789c 46be
00000160: a35a 0a3d 3a29 f4bd fee7 89be f3bd abbd
00000170: 0fbf 193e 6cf6 833c 7c14 7fbe 9b41 5b3c
00000180: 415f c3bc 6580 96bd 51f1 bcbd 49ed 453f
00000190: 63ff cdbd c4a6 543e 0444 c83d ff08 db3c
000001a0: 0193 e5bb bd9d 7cbd 1ea3 153d ffc1 debd
000001b0: 3072 223d 47e1 46bd a9e6 1e3d bc84 983c
000001c0: e202 f2bd 751a 273e 68af 23be 30e2 ce3d
000001d0: 1cbd b03c 99ee 883c 6214 8a3e 7581 c83d
000001e0: 15c5 c3bd 228a 84bd c77e 3fbc aeac bbbc
000001f0: 84f2 113e b418 293d f583 753e b02a 253c
00000200: fe47 ca3c d74c 03be f1e2 fe3d bb21 313d
00000210: fdeb edba 454c 2fbe 24ee 2cbe cbd5 7f3c
00000220: 8b0d 293d bb81 eb3d 59a3 e6bd 1222 88be
00000230: 11f3 983c 166b 2ebe f5ac 01bd 64b0 9bbe
00000240: 3943 323e 4d39 4fbe df3b a8be 1e40 1dbc
00000250: 828a d239 b5f5 83bd 45c6 23be 55db 6fbd
00000260: 3ab8 2abe 4ef8 583d edb2 8bbe b215 cd3b
00000270: d090 6ebc 2c49 1c3e b3f9 3fbe edb4 29bd
00000280: fc36 8cbd 62bc 393d 3007 2a3e a98d 0dbe
00000290: 00ee cebd 3c13 cebd 20fe 5cbc d80a a9be
000002a0: 4d64 b9bc d651 1b3e d5ed 64be fcd3 0bbe
000002b0: 6bce 9ebd f3e6 d23d 3f76 c03d 3bb0 87be
000002c0: 7e8c df3d f6e9 abbe b3ec 93bd 4a97 b5bd
000002d0: 2e38 5d3a 3cef 50bc 6bce b2bd f4f8 84be
000002e0: d6e0 223d 311c 163e c526 2bbe c0e2 3abd
000002f0: ef0d e13d af60 1bbe c192 86be fd1e b3bd
00000300: 7a46 fdbd 6088 84bd 2bad 473d 6c42 b93e
00000310: 6e17 f9bd b950 febd 0d75 203e 9b53 f7bd
00000320: 3cfd 74bd 27b8 303d 5692 f6bd 6373 ebbd
00000330: bade 61bd 0db0 2c3d 9965 a7bd e933 943d
00000340: d979 c9bd 9b80 7dbd 63fb 92bc a12a d4bd
00000350: 9269 0ebe f7e5 9ebd 968d 19bc e4cf 07bd
00000360: d2ec e1bd f710 b73d ae87 803d ab56 fdbd
00000370: 3478 0c3d 11e9 31bd 2e24 36be b04a 1d3e
00000380: 056c 18be 0a22 f63c 23ee c43d 4acf 89bd
00000390: 5b4c a93d d8bd 6abe 00c1 8cbe 7bf4 43be
000003a0: 208c 053e fd80 b13c bed2 a2be 4558 77be
000003b0: 9208 a7bd c788 d73d 1fc9 393d d7c1 b0be
000003c0: aa11 85bd ff84 83be 2af9 a0be e635 7cbd
000003d0: 88a5 56bd 573b fb3d 4459 88be 2f22 cebb
000003e0: 5db5 8cbd ff80 553d d5de 6ebe f21f 063e
000003f0: eeb4 df3d 4715 063e a986 8cbe 3f16 c9bd
-0.08948073 -0.16313191 0.14229704 -0.7824058 -0.0062046293 -0.06775977 -0.022792984 0.22002055
-0.09459137 0.029521538 0.08029064 0.128747 -0.13916293 -0.08090155 -0.009038793 0.0026344724
-0.073994674 -0.07168092 0.16600987 0.06117107 0.009907944 -0.028155928 -0.124563955 0.14244507
-0.11064241 -0.13274772 0.11810517 0.15715168 0.10301225 0.036210533 0.2007574 0.03825482
-0.16981561 0.13248621 -0.15865424 -0.7376981 -0.13762677 -0.039422978 -0.06902917 0.066296995
0.060454153 0.15508452 0.13112839 0.11018223 -0.16772488 0.12512447 -0.14100356 0.12041045
-0.041943744 -0.11615998 -0.055037174 0.14641082 -0.1444183 0.10234471 -0.2432872 -0.18283123
0.06632673 -0.1823674 0.029606791 -0.09117809 0.085557155 -0.16272868 -0.045278385 0.007797462
-0.04223112 -0.11375725 -0.02968843 -0.266942 -0.03731844 -0.26744664 -0.2796836 -0.11206717
0.11708202 0.024721412 -0.0047553526 -0.16051893 0.15295812 0.17615291 0.16212727 -0.33712587
-0.12007993 -0.041379046 -0.106157996 0.022034183 0.14345118 0.15399343 -0.19788152 -0.19395626
0.033777844 -0.11921926 -0.26934808 -0.08385839 0.1501429 0.016108714 -0.24910158 0.013382341
-0.023849132 -0.07348708 -0.09225715 0.77315193 -0.10058477 0.20766741 0.09778598 0.026737688
-0.0070060496 -0.06167387 0.036532514 -0.108768456 0.03965968 -0.048554685 0.038794193 0.01861798
-0.11816956 0.16318686 -0.15984881 0.101017356 0.02157455 0.016715335 0.26968676 0.09790317
-0.09559075 -0.06471659 -0.011687941 -0.022909489 0.14252669 0.041283324 0.23976119 0.010080978
0.024692532 -0.12822281 0.124456294 0.04324506 -0.0018151995 -0.17118938 -0.16887718 0.015614937
0.04127268 0.114993535 -0.11261625 -0.26588494 0.01867059 -0.17033038 -0.031659085 -0.30408013
0.17408456 -0.20236702 -0.32858178 -0.009597806 0.00040157518 -0.06443349 -0.15993603 -0.05855878
-0.1667184 0.052971177 -0.27284947 0.00625869 -0.014560893 0.15262288 -0.18747596 -0.04143231
-0.06846425 0.04534567 0.16604304 -0.1382357 -0.10103989 -0.100622624 -0.0134883225 -0.33016086
-0.022630835 0.15167937 -0.2235635 -0.13655084 -0.07754215 0.10297956 0.09397554 -0.2650164
0.10915469 -0.33576936 -0.07222881 -0.08866747 0.00084388524 -0.01275235 -0.08730777 -0.25971186
0.0397652 0.14659192 -0.16714008 -0.045626402 0.10988986 -0.151736 -0.2628384 -0.08746145
-0.12366958 -0.06471324 0.04874913 0.36183488 -0.12162672 -0.124177404 0.15669651 -0.12076493
-0.059811816 0.04314437 -0.1203963 -0.11496618 -0.05514405 0.042160083 -0.08173675 0.072364636
-0.09837694 -0.061890226 -0.017942136 -0.10359693 -0.1390746 -0.07758706 -0.009372136 -0.033157244
-0.11031498 0.08938783 0.06275879 -0.12370046 0.034294322 -0.04343516 -0.17787239 0.15360522
-0.14884956 0.030045528 0.096157335 -0.067289904 0.08266517 -0.22923982 -0.27490997 -0.1913623
0.13041735 0.021667952 -0.3180141 -0.24154766 -0.081559315 0.10524135 0.04535782 -0.34522888
-0.0649751 -0.25687405 -0.31440097 -0.06157484 -0.052403957 0.122671776 -0.26630604 -0.006290696
-0.0687053 0.052124973 -0.23327191 0.13098124 0.109231815 0.13094054 -0.27446488 -0.09818696

shared_layers.4.bias f4 [8]
00000000: 25da dabd 9585 78bd 7434 b0bb 6aab cb3d
00000010: b65b 91bb d637 50be 64f2 4cbe f689 6c3b
-0.10686139 -0.06067427 -0.0053773466 0.09944804 -0.0044359816 -0.203338 -0.2001434 0.0036092973
