training/models/best_model.pth (torch, 16057 bytes, 6 tensors)

shared_layers.0.weight f4 [64, 3]
-0.48651195 0.3366174 0.083701804 -0.015807327 0.24106371 -0.31890926 -0.1717361 0.31077713
0.3451338 -0.27204344 0.2811361 0.25711814 -0.40431508 -0.059006937 -0.28199983 0.18380243
0.656008 -0.22648615 0.12474568 0.46058097 -0.2531242 -0.48539346 0.6301586 0.36876482
0.5349049 0.23303458 0.37933725 0.37050843 -0.00858889 0.48224694 0.12172739 0.23825084
0.2455019 0.39141822 0.093881 0.352145 -0.012504976 -0.3931815 0.003770537 0.55182314
-0.13091159 -0.3710424 -0.49685842 0.08121458 0.18639831 0.23886737 -0.4115377 -0.42097357
-0.5286139 0.24403064 -0.2748937 -0.4470907 0.47981164 -0.3919202 -0.2538422 -0.3885129
0.023437113 -0.32552588 -0.38112065 0.291337 -0.055579495 -0.08716373 -0.30668843 0.20003012
-0.45663086 0.25433755 0.19377406 0.47249874 0.29168564 0.55199325 -0.446831 0.08404081
-0.15614508 0.38664111 0.39768445 -0.38947123 -0.057784528 0.05620972 -0.29085872 -0.41551933
-0.38393733 0.539483 0.6704275 -0.2220715 0.3268738 0.67992085 -0.3759685 0.13275827
-0.10796718 -0.5227468 0.36181074 0.21670352 -0.08885697 0.019131428 -0.35929313 0.33907646
0.42375344 -0.3311276 -0.4813002 0.23401414 0.38892856 -0.547736 0.006559209 -0.43729556
-0.5139559 -0.024646485 -0.35010728 -0.5714229 0.056579765 0.65006095 0.5340953 0.6825424
-0.4163779 -0.16850059 0.2245065 -0.36565995 -0.45827365 0.36564988 0.15336522 -0.012294411
0.52865744 0.35110033 -0.19716676 0.3052138 0.3892787 -0.16512199 -0.25890118 0.1280043
-0.4938828 -0.10196934 -0.19046092 0.053235985 -0.14158131 0.39510566 0.39775318 -0.5693799
0.46175465 0.4695128 0.40969345 0.23440878 -0.12015513 0.39635393 0.37700278 -0.49396876
0.4343858 0.4485306 0.016394196 0.058873504 0.33229396 -0.12816316 -0.28094202 0.11339884
-0.112327434 0.7234777 -0.15050673 0.35534567 0.021129576 0.5282182 -0.54806894 -0.34402588
0.16966313 0.32255858 0.54921246 -0.3538755 0.2858766 0.5163775 -0.18522012 -0.547406
0.593652 0.5183242 0.33870834 0.65172225 0.67680025 -0.55264837 0.43823168 0.3855292
0.05755573 -0.27197248 -0.38372386 0.57640946 0.31748813 -0.067839764 0.05685364 0.57332474
0.069180205 0.01572308 0.44712564 0.27183685 0.3878053 -0.43911886 0.5158094 0.42800888
00000000: 1818 f9be 1e59 ac3e da6b ab3d 5e7e 81bc
00000010: 68d9 763e 1348 a3be 97db 2fbe 2e1e 9f3e
00000020: 61b5 b03e 4749 8bbe 12f1 8f3e fda4 833e
00000030: 6302 cfbe 42b1 71bd 4862 90be b436 3c3e
00000040: 24f0 273f fceb 67be aa7a ff3d 45d1 eb3e
00000050: 7f99 81be 7e85 f8be 1352 213f bece bc3e
00000060: 87ef 083f 9ea0 6e3e 7e38 c23e 48b3 bd3e
00000070: 6ab8 0cbc 12e9 f63e 364c f93d 07f8 733e
00000080: da64 7b3e f867 c83e af44 c03d 594c b43e
00000090: ace1 4cbc 164f c9be 1d1b 773b 4844 0d3f
000000a0: b00d 06be 45f9 bdbe 3a64 febe d453 a63d
000000b0: 33df 3e3e a699 743e 12b5 d2be d989 d7be
000000c0: 3e53 07bf 2be3 793e debe 8cbe 12e9 e4be
000000d0: dfa9 f53e c4a9 c8be 9bf7 81be 2aeb c6be
000000e0: 30ff bf3c 54ab a6be 3f22 c3be 202a 953e
000000f0: 53a7 63bd e682 b2bd 4406 9dbe b2d4 4c3e
00000100: 85cb e9be 8838 823e b56c 463e 5beb f13e
00000110: d257 953e 6e4f 0d3f 08c7 e4be 971d ac3d
00000120: 7fe4 1fbe d3f5 c53e 4c9d cb3e c668 c7be
00000130: 78af 6cbd 2a3c 663d 6feb 94be f3be d4be
00000140: 6f93 c4be 8f1b 0a3f 23a1 2b3f b666 63be
00000150: 015c a73e 4b0f 2e3f f17e c0be c9f1 073e
00000160: e61d ddbd bcd2 05bf 423f b93e 87e7 5d3e
00000170: a5fa b5bd 83b9 9c3c 45f5 b7be 6e9b ad3e
00000180: 36f6 d83e 8f89 a9be fb6c f6be 67a1 6f3e
00000190: a521 c73e 6d38 0cbf a2ee d63b 34e5 dfbe
000001a0: 9d92 03bf 6de7 c9bc 4341 b3be c548 12bf
000001b0: 2fc0 673d 656a 263f 78ba 083f 19bb 2e3f
000001c0: 7c2f d5be 6b8b 2cbe 08e5 653e c837 bbbe
000001d0: d8a2 eabe 7636 bb3e c60b 1d3e 7f6e 49bc
000001e0: 1856 073f 6cc3 b33e 15e6 49be fc44 9c3e
000001f0: 8a4f c73e bd15 29be b28e 84be 8f13 033e
00000200: 35de fcbe 4dd5 d0bd 3008 43be fa0d 5a3d
00000210: b1fa 10be 4a4b ca3e 4ea6 cb3e e2c2 11bf
00000220: 1b6b ec3e fb63 f03e 57c3 d13e db08 703e
00000230: e513 f6bd e7ee ca3e 8206 c13e 79e9 fcbe
00000240: d167 de3e cea5 e53e 1f4d 863c 5825 713d
00000250: 6f22 aa3e 343d 03be a2d7 8fbe a73d e83d
00000260: ed0b e6bd d635 393f 701e 1abe deef b53e
00000270: ef17 ad3c 4f39 073f 3f4e 0cbf 2924 b0be
00000280: 2cbc 2d3e 6626 a53e 3099 0c3f 2b2f b5be
00000290: 6b5e 923e 5131 043f 58aa 3dbe cd22 0cbf
000002a0: 94f9 173f e5b0 043f 2e6b ad3e 45d7 263f
000002b0: c842 2d3f 5d7a 0dbf e75f e03e 1564 c53e
000002c0: 8fbf 6b3d fa3f 8bbe 7477 c4be 928f 133f
000002d0: ce8d a23e 93ef 8abd 5ddf 683d 69c5 123f
000002e0: 5aae 8d3d b0cd 803c a7ed e43e 332e 8b3e
000002f0: 6b8e c63e 30d4 e0be 160c 043f fb23 db3e

shared_layers.0.bias f4 [64]
-0.2842603 0.501788 -0.22984955 0.6163258 -0.23683988 0.12448005 0.08813213 0.7160782
0.22175112 0.20735422 0.27298948 -0.14141211 -0.3742688 0.303741 0.52145976 0.47796878
-0.15987788 -0.5657322 0.56999516 -0.26693445 0.0035126477 0.6314194 -0.12659489 0.19262326
0.04940218 0.47986 0.7396283 0.66305405 -0.16807863 0.23103881 -0.046370883 -0.30477604
0.5343376 -0.07098228 0.0065091043 -0.25587338 -0.060187414 0.31619176 0.41200197 0.5866042
0.006057838 0.41264176 0.39423195 0.0062495633 -0.30780965 -0.31837642 0.17173995 0.102460064
0.015106887 0.3210043 -0.46160647 -0.2509118 0.3291176 0.2678916 0.5836664 -0.4913772
-0.5515151 -0.14765078 -0.05860461 0.1559114 0.16882922 -0.25621572 -0.16845644 0.22368386
00000000: 918a 91be 2e75 003f ae5d 6bbe 87c7 1d3f
00000010: 2786 72be 65ef fe3d 9e7e b43d e750 373f
00000020: ba12 633e aa54 543e 47c5 8b3e 56ce 10be
00000030: 29a0 bfbe f183 9b3e 637e 053f 53b8 f43e
00000040: 07b7 23be d3d3 10bf 34eb 113f a2ab 88be
00000050: 7334 663b b4a4 213f 17a2 01be 083f 453e
00000060: f159 4a3d 36b0 f53e 4858 3d3f e9bd 293f
00000070: ce1c 2cbe 7095 6c3e 65ef 3dbd 9b0b 9cbe
00000080: 59ca 083f 285f 91bd 534a d53b d601 83be
00000090: 1487 76bd e3e3 a13e ecf1 d23e b12b 163f
000000a0: d480 c63b c845 d33e c5d8 c93e 23c9 cc3b
000000b0: 3a99 9dbe 3c02 a3be 99dc 2f3e 95d6 d13d
000000c0: e082 773c ad5a a43e af57 ecbe 8377 80be
000000d0: 1a82 a83e 1629 893e 296b 153f cb95 fbbe
000000e0: 1830 0dbf c431 17be 630b 70bd 3da7 1f3e
000000f0: 91e1 2c3e b52e 83be d87f 2cbe 620d 653e

shared_layers.2.weight f4 [32, 64]
-0.071460426 -0.14073794 -0.00954479 0.0644197 0.016067713 0.00067158614 0.056416225 0.07878255
0.0802288 -0.023295276 -0.06841715 -0.0819018 0.006989613 -0.053605456 -0.09736389 0.03632008
0.020055369 0.112060726 -0.09059213 -0.057485 -0.063580096 -0.14177342 -0.1444936 0.028996658
0.1078135 -0.008851866 0.08950198 0.033485856 0.010212435 0.055154707 0.009961506 -0.08010231
-0.14688332 -0.03484758 -0.106547 0.019676045 -0.1054043 0.05359383 0.07706754 0.04626751
0.077509716 -0.08596115 -0.013210343 0.055986404 0.09056474 0.052742347 0.009681099 0.07540305
-0.037336484 -0.02628378 -0.078651965 0.07323079 -0.041836396 0.041749828 -0.090960726 0.08211671
-0.05997052 -0.08944381 0.029080408 0.09380151 -0.008793611 -0.07664431 0.0586931 -0.023784619
-0.04918088 0.05220513 -0.029337004 0.09302707 0.021123901 0.010350227 0.093463436 -0.03547418
-0.08755085 0.06878029 -0.06630725 0.085365 0.07455823 -0.0071107745 -0.075422674 0.091392264
-0.12236661 0.077775165 0.097943634 0.06919891 0.10419276 -0.042893946 0.092926994 -0.07356052
0.04766357 -0.08961001 0.09501481 -0.10845615 0.11704135 0.0019116849 0.08524205 -0.05642739
0.058725476 0.04944475 0.084439084 -0.044125542 0.039707065 -0.036606744 -0.05874154 -0.09898956
-0.06895006 0.014421716 -0.06970087 -0.093964085 0.052281722 0.013375387 -0.048602343 -0.08987287
0.002121076 0.110771865 0.05941932 -0.06397334 -0.12386665 -0.12491526 -0.124495715 0.08310163
-0.07257046 0.014646143 -0.037620544 0.03240314 0.052247524 0.027947605 0.028768092 0.0925387
-0.08565712 0.22693218 0.107281744 0.0955671 -0.009458497 0.0875427 0.22642727 0.1890597
0.17749348 -0.00040889878 0.016083866 0.07918818 -0.018362492 0.18871081 0.33998194 0.07281401
-0.034404114 0.121350095 0.2641334 -0.043825343 -0.09810561 0.097394325 0.25056714 0.15677804
0.3703199 0.3382163 0.29589012 0.14134268 0.19723561 0.19783217 0.19062096 -0.05394189
0.020022128 0.21133995 -0.06314573 -0.026659474 0.2524127 0.15581098 0.08606679 -0.027343633
0.15435492 0.19789453 0.2328342 -0.045582905 -0.102466345 0.040458202 0.18748946 -0.024103982
0.0892565 0.12867045 0.04633899 0.15973115 0.22140986 0.11994567 0.0635352 -0.03680381
0.02221133 0.124633506 0.026534235 0.055482045 0.08602126 0.13254866 0.001983078 0.18751456
0.049975097 -0.0009878725 0.0889671 -0.026282102 -0.07340357 0.08353418 0.07599832 0.08946723
-0.020176098 -0.027469784 -0.051918447 -0.115946144 0.10132684 0.054493964 -0.0931084 0.02859734
0.097530276 0.08670843 0.12225938 0.013875172 -0.056360736 0.058861256 -0.09223357 0.11944184
-0.050654158 0.0030548722 -0.0070326626 -0.052316397 -0.09983282 -0.0843057 -0.06344615 0.040773496
0.0921054 0.10102974 -0.0220308 0.08599511 -0.12496227 -0.10119438 0.020761415 -0.0682659
-0.004598394 0.084167674 -0.091473565 -0.0022954196 0.06483957 0.0042943954 0.06919044 -0.048458517
-0.021871507 0.040018946 -0.06235449 0.01631023 0.10230416 0.063007 -0.09910667 -0.10567756
9.685755e-06 -0.052445486 -0.10634844 -0.09961994 0.10216206 -0.008669451 0.037292212 -0.083589196
00000000: d859 92bd 9b1d 10be c061 1cbc 7aee 833d
00000010: 70a0 833c 620d 303a b314 673d bf58 a13d
00000020: ff4e a43d bcd5 bebc 4a1e 8cbd 22bc a7bd
00000030: 2009 e53b 6591 5bbd b866 c7bd 5dc4 143d
00000040: 284b a43c 1880 e53d 5e88 b9bd 6475 6bbd
00000050: 4836 82bd 0d2d 11be 21f6 13be 668a ed3c
00000060: 53cd dc3d 6b07 11bc d04c b73d 7728 093d
00000070: 0f52 273c e7e9 613d 9635 233c ae0c a4bd
00000080: 9568 16be 56bc 0ebd 5035 dabd a82f a13c
00000090: 36de d7bd 3485 5b3d 96d5 9d3d 0083 3d3d
000000a0: 6abd 9e3d 660c b0bd 3270 58bc 0052 653d
000000b0: 027a b93d 5c08 583d 799d 1e3c ea6c 9a3d
000000c0: 24ee 18bd 1551 d7bc 4814 a1bd 06fa 953d
000000d0: a45c 2bbd de01 2b3d 9e49 babd ce2c a83d
000000e0: a6a3 75bd 512e b7bd 093a ee3c 021b c03d
000000f0: 1413 10bc b1f7 9cbd 2d68 703d f6d7 c2bc
00000100: e471 49bd 0cd5 553d 2854 f0bc fa84 be3d
00000110: 080c ad3c 0094 293c c269 bf3d 604d 11bd
00000120: dc4d b3bd aedc 8c3d 18cc 87bd d8d3 ae3d
00000130: fcb1 983d 8001 e9bb 3477 9abd de2b bb3d
00000140: 589b fabd 9648 9f3d ac96 c83d 28b8 8d3d
00000150: 0463 d53d 90b1 2fbd 8250 be3d e6a6 96bd
00000160: e03a 433d 7485 b7bd 2097 c23d 421e debd
00000170: 60b3 ef3d 8091 fa3a 6293 ae3d 6820 67bd
00000180: 208a 703d 9486 4a3d 66ee ac3d fcbc 34bd
00000190: e0a3 223d f4f0 15bd f89a 70bd 0abb cabd
000001a0: b035 8dbd 1049 6c3c 54bf 8ebd 3e70 c0bd
000001b0: 5c25 563d 7024 5b3c 4013 47bd 440f b8bd
000001c0: c001 0b3b 5cdc e23d ac61 733d 7404 83bd
000001d0: ccad fdbd 92d3 ffbd 9cf7 febd 3031 aa3d
000001e0: d29f 94bd 60f6 6f3c 0018 1abd 28b9 043d
000001f0: 8001 563d 60f2 e43c 10ab eb3c ee84 bd3d
00000200: 006d afbd e960 683e 88b6 db3d afb8 c33d
00000210: d0f7 1abc 9649 b33d 8ddc 673e de98 413e
00000220: dac0 353e 7761 d6b9 50c2 833c 6a2d a23d
00000230: f06c 96bc 683d 413e 1d12 ae3e 831f 953d
00000240: 54eb 0cbd 6686 f83d 7e3c 873e 3482 33bd
00000250: 98eb c8bd ad76 c73d 564a 803e 6c8a 203e
00000260: 929a bd3e b02a ad3e e97e 973e 23bc 103e
00000270: 22f8 493e 8494 4a3e 2432 433e 2cf2 5cbd
00000280: 7205 a43c 8069 583e 8c52 81bd f864 dabc
00000290: 3d3c 813e ea8c 1f3e c943 b03d c1ff dfbc
000002a0: 370f 1e3e dda4 4a3e 176c 6e3e 24b5 3abd
000002b0: e0d9 d1bd 80b7 253d 3dfd 3f3e b775 c5bc
000002c0: 1dcc b63d 30c2 033e f4cd 3d3d 9090 233e
000002d0: 44b9 623e 13a6 f53d be1e 823d 98bf 16bd
000002e0: 89f4 b53c da3f ff3d 535e d93c 2441 633d
000002f0: ea2b b03d d6ba 073e 87f6 013b d103 403e
00000300: b0b2 4c3d 807b 81ba 6234 b63d 904d d7bc
00000310: 9c54 96bd f813 ab3d 02a5 9b3d 983a b73d
00000320: 5848 a5bc 5008 e1bc 70a8 54bd 2c75 edbd
00000330: 7284 cf3d 1035 5f3d 9eaf bebd f844 ea3c
00000340: f4bd c73d 3094 b13d 2063 fa3d b054 633c
00000350: 84da 66bd 8018 713d f4e4 bcbd ec9d f43d
00000360: bc7a 4fbd 4034 483b 4072 e6bb b849 56bd
00000370: 2675 ccbd 78a8 acbd 0ef0 81bd 1c02 273d
00000380: c2a1 bc3d aee8 ce3d f079 b4bc 341e b03d
00000390: 38ec ffbd 003f cfbd d813 aa3c fece 8bbd
000003a0: 20ae 96bb 1a60 ac3d 7e56 bbbd c06e 16bb
000003b0: 9cca 843d 00b8 8c3b b8b3 8d3d 707c 46bd
000003c0: e02b b3bc e8ea 233d 6c67 7fbd 089d 853c
000003d0: d884 d13d d009 813d 70f8 cabd 7a6d d8bd
000003e0: 0080 2237 14d1 56bd 36cd d9bd 8a05 ccbd
000003f0: 583a d13d 500a 0ebc b8bf 183d d030 abbd

shared_layers.2.bias f4 [32]
0.031748537 0.06909074 0.09890668 -0.06637128 0.015134134 0.10024551 -0.004924865 -0.120673425
-0.11757246 -0.07475893 -0.10279854 0.107496805 0.0043287245 0.16097589 0.061494805 0.10302223
0.031402227 -0.112786844 0.16629282 0.043558497 -0.044534564 0.21113598 0.068127856 0.08234505
-0.0860268 0.13088119 0.16524757 0.010550514 -0.06600125 -0.09123569 0.18436256 -0.013341773
00000000: c10a 023d 727f 8d3d 968f ca3d aaed 87bd
00000010: 29f5 773c 854d cd3d c360 a1bb a123 f7bd
00000020: d4c9 f0bd 361b 99bd 0a88 d2bd 4927 dc3d
00000030: f9d7 8d3b ddd6 243e fae1 7b3d 52fd d23d
00000040: 9f9f 003d cafc e6bd aa48 2a3e 656a 323d
00000050: e069 36bd 0834 583e 9e86 8b3d 86a4 a83d
00000060: d22e b0bd b805 063e a936 293e 10dc 2c3c
00000070: aa2b 87bd c7d9 babd 8ac9 3c3e 7497 5abc

shared_layers.4.weight f4 [8, 32]
0.014045704 0.08058614 0.07856785 -0.0010729744 0.20278975 0.19255789 -0.35791487 -0.13748056
0.031048825 -0.005678466 -0.038059257 0.20730172 -0.09256536 0.01931195 0.030837934 0.13974382
0.25779086 0.075415485 -0.30277064 0.19708177 0.03393401 0.043588348 0.26513198 -0.3953445
0.0094650015 0.029369863 0.0078111286 0.036948033 0.15362188 -0.114277355 -0.11514349 0.028164085
-0.05239496 0.009102644 0.14105141 -0.068419024 0.032087386 -0.14977798 -0.13664342 -0.075617656
-0.12150139 0.11338905 0.13666146 -0.10935383 -0.17478095 0.1671049 -0.145001 0.14205511
-0.08066513 -0.025257194 -0.12581828 -0.030121932 0.12567863 0.08501137 0.022687253 -0.6218009
-0.1169587 0.03180231 0.09720067 0.104015134 -0.17619662 0.12366468 -0.09580829 0.03584277
-0.18410741 0.13190845 -0.27061036 0.07722521 -0.24548604 0.026086003 -0.40749174 -0.11582067
0.075047456 0.08454603 -0.072914995 0.033816908 0.12690267 -0.20020571 -0.15487888 -0.10603214
-0.17110062 -0.17511132 -0.059346117 -0.22578022 0.08653487 -0.083499804 0.044800125 -0.37138268
-0.037927803 -0.24434368 -0.19782685 -0.037019495 -0.08198396 -0.041732747 -0.16076519 0.15706867
-0.001026903 0.027199954 0.13160577 0.119380966 0.18655342 -0.051250145 0.38548583 -0.037286352
-0.022372242 -0.111413 0.123741165 0.221226 0.083654255 0.14479913 0.049527258 -0.009441037
-0.105846904 -0.04622799 0.387386 0.036761288 0.1070845 0.16358934 -0.16550957 0.6334516
-0.15154022 0.08679343 0.19775043 -0.048823476 -0.0772435 -0.07522447 0.055270858 -0.038336396
0.07694437 0.103181995 -0.2539127 0.073835 -0.06238749 -0.039314453 -0.4697914 -0.042561576
-0.10770197 0.1314662 0.124095745 -0.11570281 0.0535603 -0.27009776 0.07397285 -0.13053073
-0.03491181 -0.016672555 -0.2503879 0.0007485179 0.097981155 -0.19513471 -0.13023847 -0.26068902
0.06082515 0.04035912 -0.026473602 0.11750059 0.14800538 0.06949359 -0.26773927 -0.020395784
0.06634219 0.045086466 -0.13773921 -0.094549455 -0.07318754 -0.2630069 -0.41939563 0.13338463
-0.027279906 -0.08141898 -0.07466225 -0.09822302 0.07057279 0.025870973 0.064937785 -0.07233473
-0.27642766 0.11901012 -0.355964 -0.07841556 -0.15531065 -0.080437884 -0.03617131 -0.5154071
0.032690972 -0.23354834 -0.055300564 0.11390367 -0.06738145 0.15543276 -0.2273116 0.060720142
0.018091213 0.056879383 -0.010951351 0.16856265 -0.16516617 0.07741085 0.26667312 0.110040456
0.022409838 0.10532916 0.045185067 -0.01369621 -0.15166253 -0.118522204 0.10416086 0.15904976
-0.15592483 0.12311076 0.13207853 0.11211429 -0.059551854 -0.16595975 -0.16126183 -0.044993017
-0.02094555 0.14984363 -0.15649904 0.091129616 -0.0787014 0.06431845 -0.070763916 0.053212274
-0.023068268 0.05741785 -0.26889572 0.11482196 -0.022465585 -0.2464592 -0.21798405 0.029263614
0.014693508 -0.16375174 0.1455988 0.009092356 0.027938863 -0.22538856 0.03546116 -0.23197566
0.025515487 0.058366366 -0.15170282 -0.16119826 0.0760551 -0.32262772 -0.2703461 -0.4594363
-0.12543245 -0.2846966 -0.25703666 0.07195481 0.051459763 -0.047455292 -0.17336285 0.1559399
00000000: f41f 663c 590a a53d 2ee8 a03d 0ca3 8cba
00000010: 1ea8 4f3e e52d 453e 9e40 b7be b4c7 0cbe
00000020: 1b5a fe3c 6d12 babb 06e4 1bbd e746 543e
00000030: e892 bdbd 1834 9e3c d69f fc3c 0119 0f3e
00000040: 2afd 833e 6f73 9a3d c104 9bbe cecf 493e
00000050: 63fe 0a3d b289 323d 61bf 873e 986a cabe
00000060: 1813 1b3c 1199 f03c 7ff4 ff3b d256 173d
00000070: 0e4f 1d3e 3f0a eabd 5ad0 ebbd 5eb8 e63c
00000080: 199c 56bd 4223 153c c86f 103e 461f 8cbd
00000090: 106e 033d 665f 19be 41ec 0bbe 6edd 9abd
000000a0: b9d5 f8bd 8538 e83d fbf0 0b3e e7f4 dfbd
000000b0: c7f9 32be 8c1d 2b3e 247b 14be e576 113e
000000c0: c233 a5bd 2de8 cebc 82d6 00be 45c2 f6bc
000000d0: e6b1 003e 711a ae3d 9eda b93c 582e 1fbf
000000e0: 0b88 efbd 2443 023d 2511 c73d e305 d53d
000000f0: e36c 34be e843 fd3d 2337 c4bd decf 123d
00000100: a786 3cbe 0213 073e 718d 8abe 4028 9e3d
00000110: b160 7bbe 50b2 d53c c2a2 d0be 6333 edbd
00000120: 7bb2 993d 7826 ad3d 7554 95bd 9983 0a3d
00000130: c6f2 013e ba02 4dbe 9298 1ebe 6127 d9bd
00000140: 0035 2fbe 6250 33be ea14 73bd ee32 67be
00000150: 3239 b13d f201 abbd 5680 373d df25 bebe
00000160: 2f5a 1bbd 3b35 7abe 1f93 4abe c1a1 17bd
00000170: 35e7 a7bd f5ef 2abd a19f 24be 9cd6 203e
00000180: 2699 86ba 70d2 de3c aac3 063e 027e f43d
00000190: dc07 3f3e aceb 51bd 665e c53e 93b9 18bd
000001a0: fe45 b7bc 802c e4bd 026c fd3d 1289 623e
000001b0: ec52 ab3d 3946 143e 18dd 4a3d 94ae 1abc
000001c0: 43c6 d8bd 9059 3dbd 7557 c63e 0193 163d
000001d0: 1e4f db3d f783 273e 577b 29be e229 223f
000001e0: 5c2d 1bbe c1c0 b13d 177f 4a3e 20fb 47bd
000001f0: d731 9ebd 490f 9abd b263 623d a006 1dbd
00000200: 0395 9d3d 1551 d33d d800 82be ce36 973d
00000210: 068a 7fbd 3108 21bd 8088 f0be 0c55 2ebd
00000220: da92 dcbd 139f 063e e925 fe3d 98f5 ecbd
00000230: 0c62 5b3d 414a 8abe 147f 973d d9a9 05be
00000240: b0ff 0ebd e294 88bc d832 80be 3038 443a
00000250: 58aa c83d 65d1 47be 3c5d 05be 0879 85be
00000260: cb23 793d 9b4f 253d 2bdf d8bc 26a4 f03d
00000270: b98e 173e a852 8e3d 1f15 89be 0f15 a7bc
00000280: 6ade 873d 96ac 383d 820b 0dbe 25a3 c1bd
00000290: 59e3 95bd d7a8 86be 06bb d6be fb95 083e
000002a0: 1c7a dfbc ffbe a6bd 86e8 98bd 2729 c9bd
000002b0: 7888 903d 5def d33c 1afe 843d 3b24 94bd
000002c0: ed87 8dbe 94bb f33d ea40 b6be 5698 a0bd
000002d0: c109 1fbe 9ebc a4bd 5e28 14bd b8f1 03bf
000002e0: f8e6 053d 4c27 6fbe d882 62bd 5446 e93d
000002f0: 49ff 89bd c429 1f3e 5fc4 68be afb5 783d
00000300: 0634 943c 5bfa 683d 4c6d 33bc b09b 2c3e
00000310: 5221 29be 9489 9e3d 6189 883e e45c e13d
00000320: d694 b73c d1b6 d73d fa13 393d 1266 60bc
00000330: 6c4d 1bbe c5bb f2bd 4a52 d53d f1dd 223e
00000340: c2aa 1fbe 7e21 fc3d 983f 073e 2d9c e53d
00000350: a5ec 73bd 5af1 29be d221 25be 994a 38bd
00000360: 0196 abbc 9c70 193e 4941 20be 2aa2 ba3d
00000370: 332e a1bd 64b9 833d acec 90bd 1df5 593d
00000380: aaf9 bcbc fb2e 6b3d b3ac 89be c727 eb3d
00000390: bf09 b8bc cd5f 7cbe 3637 5fbe 3fba ef3c
000003a0: 0abd 703c 89ae 27be da17 153e 1bf8 143c
000003b0: 0be0 e43c 42cc 66be b93f 113d 078b 6dbe
000003c0: db05 d13c 9211 6f3d fc57 1bbe 2811 25be
000003d0: c7c2 9b3d 762f a5be ce6a 8abe 3c3b ebbe
000003e0: 5d71 00be c1c3 91be 4f9a 83be 0b5d 933d
000003f0: 79c7 523d 7b60 42bd 0886 31be b6ae 1f3e

shared_layers.4.bias f4 [8]
-0.070710674 -0.11501211 -0.17572322 -0.057033706 0.060268566 0.08792709 -0.07368769 -0.10551453
00000000: c2d0 90bd 788b ebbd caf0 33be 2d9c 69bd
00000010: 2cdc 763d 1e13 b43d 92e9 96bd 0018 d8bd
