training/models/C1_controller_acc0.95_lat0.015_succ20_small5_large8_carb7_cap105_rate0.001598_best_model.pth (torch, 16545 bytes, 6 tensors)

shared_layers.0.weight f4 [64, 3]
00000000: 0b71 553d dd18 ee3e d5fa 303f 7bcd 093f
00000010: 91e8 a13e 087f b6be 8b20 5f3e fa86 f2be
00000020: 534b e2be 2c2d 2bbd a116 03bf a9d4 acbd
00000030: 856c 173f 2f57 84be f987 5e3e cae1 2d3f
00000040: c8c3 1e3f d08d 67bd 3d12 de3c 6c18 c2be
00000050: 9bdb 783e 036b ad3e cc74 08bf 5442 8b3e
00000060: 63f8 093f 0e09 ce3e 54da bebe e12a 0c3d
00000070: d3f9 14be e53c 94bd be97 473f 5bf8 903d
00000080: 202d 22bc 3fec cabb 4f96 4a3e 3a10 6e3d
00000090: 3d29 08bf af86 7dbe 3f94 743e db95 053f
000000a0: 1f05 823e ed1b 4b3e de0c 4a3f 3bc2 833e
000000b0: 1be8 103e ab27 00bf fcd5 a5bd 6162 ef3d
000000c0: 958a a5be ac40 11bf 66bc 0ebf 83b5 0ebf
000000d0: 26b0 043e f272 bdbe 6d58 213f 35e6 59bd
000000e0: 663a 8d3e 0939 fb3e 62f1 033f 25a8 f03e
000000f0: 3464 023f ad04 453e 46f9 02bd 280e f3bd
00000100: 72b4 dfbe 7a43 d8be 923b 1b3f 016c ac3e
00000110: ebaa 9f3e e4a9 f9be 61af d53e b294 e53e
00000120: c150 193f 669f c8be 4c2c fdbd dfa0 703e
00000130: f5ff 3e3e 2929 1f3e 2ab5 843e ee8f fe3e
00000140: 0c66 393f dddc bebe 043c d4bd 1076 433e
00000150: 8938 58bf f017 143f 509f a03e be0d 44be
00000160: 9340 053f b12f 92be 58e7 6c3f 9637 2c3e
00000170: aaf9 0cbe a1a8 9abf f426 55be 0dd8 2dbf
00000180: 2a3f 02bf 136a ddbe 74b2 2ebe 0d68 95bf
00000190: 6487 133e 4945 c93e 37be 2ebe ac81 eabe
000001a0: e869 ed3e f6ce 9cbf 2391 9b3d b7e4 33bf
000001b0: 4d2b fbbe c89c a73e 50f3 873e 55e0 15be
000001c0: d85b 26be e681 fcbe 26fa 16be bbe3 303f
000001d0: 1ad1 bd3e 8a48 f93d 58ee a73e 3ee9 ef3e
000001e0: c1b1 9a3e 2dd4 a5be 5d90 09be b116 8ebe
000001f0: 6c5a c4bc b85d 053f 9dbf 073f bfc2 063f
00000200: 7479 8c3e a8b0 6a3e b0b9 5f3e 8f89 b73d
00000210: 7b86 a2bd 0d8e 113f c0b0 1fbe aa37 343f
00000220: 81ed d43e 4b54 76be 59f1 4b3f b007 ba3e
00000230: b830 8d3e 8c1f 3a3f b46a 7c3e 2867 c03d
00000240: 3696 213f bb32 9c3c 1000 51be ae5e cf3d
00000250: 2c0a 0b3f cfe9 dbbe 2920 72be 54a2 a03e
00000260: aa1b 283e 19b8 653f ff5e 183f 16ca 353f
00000270: 1cb1 ad3e 77c2 bfbe b930 82be cf40 ae3e
00000280: ac2b 263e e9b5 ce3b 2c26 633f e802 883e
00000290: c171 b2be 4bfa 153e 679b 903e aa0f 6e3e
000002a0: 4999 7abe 56dc acbe 8f71 4b3e 69cb 0ebf
000002b0: 2397 7abe d0e9 b4bd 2877 83bf a614 fabd
000002c0: ea10 223e 4ef5 9e3d 6559 c6be 0821 d33e
000002d0: 2a54 f93d 0f20 193f aadc 77be e856 2b3e
000002e0: caf0 7c3e f4b3 fd3e 8245 a4be c6ab a73e
000002f0: d708 103f 23b6 d3be 057a 003f 3c68 8a3e
0.05210976 0.46503344 0.6913274 0.53829163 0.31622747 -0.35643792 0.21789758 -0.47368604
-0.44198093 -0.041791126 -0.51206404 -0.08438999 0.5914996 -0.25847766 0.21731557 0.6792265
0.6201749 -0.056531727 0.027108306 -0.37909257 0.24302523 0.33870706 -0.5330322 0.27199042
0.53894633 0.40241283 -0.37275946 0.03422058 -0.14548425 -0.07238177 0.77965915 0.0707862
-0.009898454 -0.0061927135 0.197839 0.058120944 -0.53187925 -0.24758409 0.23884676 0.52181786
0.25394532 0.19834872 0.78925884 0.25734124 0.14151041 -0.5006053 -0.08097455 0.11688686
-0.32332292 -0.56739306 -0.55756223 -0.55745715 0.1295782 -0.3700176 0.6302555 -0.05319806
0.27583617 0.49066952 0.51540196 0.47003284 0.5093415 0.19240065 -0.031976007 -0.118679345
-0.43692356 -0.4223898 0.6063777 0.3367615 0.31185088 -0.4876243 0.41735366 0.44840008
0.59888846 -0.3918411 -0.123619646 0.23498867 0.18652327 0.15543045 0.25919467 0.49719185
0.72421336 -0.3727788 -0.103630096 0.19088006 -0.84461266 0.57849026 0.31371546 -0.19145867
0.5205166 -0.2855201 0.925405 0.1681808 -0.13767114 -1.2082711 -0.2081564 -0.6790779
-0.5087763 -0.4324499 -0.17060262 -1.1672379 0.14407116 0.39310673 -0.17064749 -0.45802057
0.46369863 -1.225066 0.07596042 -0.70270866 -0.49056473 0.32736802 0.2655282 -0.14636357
-0.16245973 -0.49317855 -0.14743862 0.6909749 0.37073594 0.12172039 0.3279903 0.46857637
0.3021374 -0.3238844 -0.13433976 -0.27751687 -0.023968898 0.5209613 0.53026754 0.5264091
0.2743641 0.22918952 0.21848178 0.08961784 -0.07935806 0.5685738 -0.15594769 0.70397437
0.4158745 -0.24055593 0.7966514 0.3633399 0.27576232 0.72704387 0.24650079 0.093946755
0.6311983 0.019067159 -0.2041018 0.101254806 0.54312396 -0.4295182 -0.2364508 0.31373847
0.16416803 0.89734036 0.5951995 0.71011484 0.33924186 -0.37453052 -0.25427797 0.3403382
0.16227597 0.0063083065 0.8873012 0.26564717 -0.34852412 0.1464626 0.28243563 0.23248163
-0.24472536 -0.33761853 0.19867538 -0.5577913 -0.24471717 -0.08833659 -1.0270739 -0.122109696
0.15826765 0.07761632 -0.38740078 0.41236138 0.12174256 0.5981454 -0.2420527 0.16732371
0.24701229 0.49551356 -0.3208428 0.3274824 0.5626349 -0.41349897 0.5018619 0.2703265

shared_layers.0.bias f4 [64]
00000000: 2798 143f bb73 d33d 4320 e9be 4786 f9be
00000010: 75da 3b3e 2e43 81be 1ba9 5dbe ff18 db3e
00000020: 9329 8a3e 67c2 203f 631a af3e a7a4 a6be
00000030: 1592 f4be 7a9d 7d3e bb5f d6bd 0e42 b93c
00000040: 2bd7 95be eea0 43be 7156 f03d 9996 0d3f
00000050: e8d5 1d3f a9b8 acbe 960c 0cbe 7699 a8be
00000060: 7bfe 8a3e c49b d5be 86d9 b3bd ab0d dbbe
00000070: 0ab4 7e3e d0db f9be d4b4 8cbd 1916 033f
00000080: 078e e3bd 4f91 b03e e277 253e 2fa1 ed3e
00000090: 0564 8fbe 61ae 7b3d e50f ce3e 4c0a 323f
000000a0: 6270 d4be 9600 a6bd f615 803e d30a d5be
000000b0: 7dd9 1f3f 4d6e 22be fa68 17be 6558 163f
000000c0: 7663 2d3f 7f76 253f 0979 f23e 11a8 76be
000000d0: 6646 61bd f212 b43e 23a9 ddbd 0ccb 2a3f
000000e0: a00e fdbe ab87 11bf c77f 273f ae4d f03c
000000f0: ff97 8c3e f2f8 133f 1477 02bf 1391 fd3e
0.58044666 0.10324808 -0.45532426 -0.48735258 0.18345053 -0.25246567 -0.2164654 0.42792508
0.26984844 0.62796634 0.3419982 -0.32547495 -0.47767702 0.24767104 -0.10467478 0.022614505
-0.29265723 -0.19104359 0.117352374 0.5530792 0.6165452 -0.33734635 -0.13676676 -0.3292958
0.27147278 -0.41720402 -0.08781724 -0.42783865 0.24873367 -0.48800516 -0.06870428 0.51205593
-0.11111074 0.34485862 0.16159013 0.46412036 -0.28005996 0.061445598 0.40246502 0.6954696
-0.4149199 -0.081055805 0.25016755 -0.4160982 0.62441236 -0.15862389 -0.14786139 0.5872863
0.6772989 0.64633936 0.47357967 -0.2408755 -0.054998778 0.35170704 -0.10823276 0.66716075
-0.4942522 -0.5684764 0.6542935 0.029333916 0.27459714 0.57801735 -0.5096295 0.49524745

shared_layers.2.weight f4 [32, 64]
00000000: 1609 cd3d 4742 4d3d 50d3 6f3c f49e babd
00000010: 3b91 9dbd 5cb8 48bd 94ce b1bd 474d 6a3d
00000020: 96ce d7bd bdd0 b3bd feda 19bd 405f de3b
00000030: 262c cfbd 2e55 0c3c ba68 9dbd e11e fc3d
00000040: b0f6 19bc aa5a a4bd c06b e7bd 6341 4ebd
00000050: 9776 8cbd a0c7 75bc b8fb d7bd 3acc cbbd
00000060: c9a6 4f3d 807d 753c 0aaf 96bd 3ee7 febd
00000070: 1675 a0bd f058 7dbd bb06 1d3d 4b94 c8bd
00000080: 62db bc3d a978 933d 9c90 fd3d 4c06 033e
00000090: 1c2a 46bd 5595 9ebd a0a0 5dbd e075 fdbd
000000a0: 445a bfbd 2434 c63d 966b 3a3d fa27 d8bd
000000b0: fd41 313d e7c5 7cbd d65c b63d 2871 46bd
000000c0: dcac 63bd d074 2f3d 17ec c2bd b245 57bd
000000d0: ff23 37bd 093c ae3d 9a13 c93d 10e6 4d3d
000000e0: f6bf 85bd 8c57 583d 4ded c1bd d0b4 f1bd
000000f0: 02dc dcbd 471c c23d 1cda d63d 6712 973b
00000100: cfdf 5abd 053d 213d c0f4 6c3b c8f4 d9bd
00000110: d320 6cbd 890a a03d b870 843d dfb4 d23b
00000120: acab 713d 1464 bcbd daf2 15be 3cc7 bc3d
00000130: 085c bd3d 1552 893d 4f06 babd 256c 10bd
00000140: 34b9 43bd 8846 f63d 7b53 4a3c 7d94 9e3c
00000150: 48e9 a0bc de74 fc3d 36f4 c73d d00d 57bd
00000160: 5f6a d63c e047 59bc 570d 88bc d411 153d
00000170: 359e ec3c f414 90bd 8a94 12be 9bc7 bfbd
00000180: d8ca 4a3d 357d 7c3c 9abc f23d d81f 153e
00000190: 6a65 fbbd 84b3 47bd ea6b a7bd c7f2 12bd
000001a0: 982b 5ebd 20e5 28bc e419 bf3d 805f e4ba
000001b0: 9c3e 373d b48e ebbd dcac 8c3d fb43 d6bd
000001c0: ac95 5d3d baea bc3d 97df 0bbd 85ae e2bd
000001d0: 3762 c93d 099e 453c 5eb8 103c b9fe 14be
000001e0: 16dd d5bd b8b5 393d d437 b43d a05d bdbd
000001f0: 7dd3 46bc 6491 18bb 00ac bcba a784 89bc
00000200: a2ee adbd 10dd b93c 9c75 aebd 8ca3 42bd
00000210: 148b b83d 6ec9 babd bcc5 17bd 30c6 9cbc
00000220: 70c0 32bc e0d7 fdbc 1ed1 e1bd 6cee 793d
00000230: 80c5 de3b 328e c9bd 1cf8 6b3d 388b ba3c
00000240: 60ec 5f3d 3aeb b4bd 0ccf a2bd 0858 fa3c
00000250: d0da d13c 4079 e2bb 301f 6cbd 6ce5 9bbd
00000260: aeed af3d 76ae 913d b886 9bbd 2000 a6bd
00000270: 52f9 c9bd e853 20bd dca4 34bd 2479 a83d
00000280: 0056 f1bb 7ca7 733d 4a48 df3d 7838 41bd
00000290: 2efe fc3d 98b8 ffbd 321a e8bd 20b3 fdbb
000002a0: a067 5e3d 687c b3bc febb d83d 5ee6 b83d
000002b0: a81b edbd a8f4 e03d c21c ebbd a094 de3c
000002c0: dc24 afbd e450 c0bd 2005 963b 56f8 86bd
000002d0: 8423 1a3d 4ee4 9c3d 74f1 99bd aedc 86bd
000002e0: 20a2 c33d c494 d5bd e0ef ea3b 0e3d bbbd
000002f0: d24e c83d 9446 813d 982c 0cbd 7250 f5bd
00000300: 0317 16be d604 ff3c 509c 7abd a0c3 d03b
00000310: 17ef 5f3d e226 c1bd 3c3d d83d 1e86 a3bd
00000320: 4961 913d 1480 bcbd db19 3d3a 92e4 febd
00000330: 6c33 583d d906 243d a68e 09bd f540 963b
00000340: b055 d4bd a014 1c3c fcd2 15be abf4 aa3d
00000350: cc18 a33c 8094 753b 5894 c5bd 20e4 2d3d
00000360: 1e21 f5bd d4ca 01bd 895b 823c 14c8 bd3d
00000370: cf23 98bd dea2 b0bd 18a0 0abe 6619 8dbd
00000380: 76fb a63d 4bcd 92bd 1a64 bc3d c274 cebd
00000390: 4862 8d3c c661 2a3d aab5 883d 2ab1 743d
000003a0: e8de 9c3c a802 a93d 77d1 f03c ccb6 fa3d
000003b0: 22f2 83bd f832 b5bd 4be3 c2bd 3090 ebbd
000003c0: a23c 0c3d cbf3 853c 436a 873b 76c9 0f3c
000003d0: 6927 90bd e285 04be b6a6 bb3d ba3b 5c3d
000003e0: b851 aabc f863 09bd a3ec 69bd 248e 133d
000003f0: 93fd 22bd fdd9 9abd 1286 f03d 852a ad3d
0.10011499 0.050112035 0.014637783 -0.09112349 -0.07693716 -0.049003944 -0.0868198 0.057202604
-0.1053745 -0.08780048 -0.037562363 0.006786257 -0.101158425 0.00856523 -0.07685991 0.12310577
-0.009397194 -0.08025105 -0.112998486 -0.050355326 -0.06858557 -0.015001208 -0.105460584 -0.099510625
0.050696168 0.014983535 -0.07357605 -0.1244645 -0.07834832 -0.061852396 0.038336497 -0.0979391
0.092215315 0.072007485 0.12381098 0.12795371 -0.048380002 -0.077433266 -0.054108262 -0.123759985
-0.09343389 0.09677914 0.04551276 -0.105545 0.043275822 -0.061712172 0.08904426 -0.048447758
-0.055584773 0.04283601 -0.09517687 -0.0525567 -0.044712063 0.085075445 0.09818192 0.050268233
-0.06530754 0.052817866 -0.0946909 -0.11802065 -0.10784151 0.0947805 0.1049082 0.004610348
-0.053436097 0.039364833 0.0036156625 -0.106423914 -0.05764849 0.078145094 0.06466812 0.006430253
0.05900161 -0.09198776 -0.14643422 0.092176884 0.09246069 0.06705109 -0.090832345 -0.035259385
-0.047784045 0.120251715 0.012349005 0.019357914 -0.019642487 0.12326978 0.097633764 -0.052503407
0.026173769 -0.013261765 -0.016607923 0.036393955 0.028884033 -0.070352465 -0.14314476 -0.093642436
0.049509853 0.015410711 0.11852379 0.14562929 -0.122752026 -0.048755184 -0.0817488 -0.03587606
-0.054240793 -0.010308534 0.0933111 -0.0017423481 0.044737443 -0.11501828 0.06868908 -0.10462185
0.054097816 0.09224458 -0.03414878 -0.11068443 0.09833186 0.012061604 0.008833019 -0.14550294
-0.104425594 0.045339316 0.08799711 -0.09246373 -0.012135384 -0.002328002 -0.0014394522 -0.016786886
-0.08492781 0.022688419 -0.08518526 -0.04751925 0.09010902 -0.09120451 -0.03705381 -0.019137472
-0.0109101385 -0.030986726 -0.11026214 0.061018392 0.006798446 -0.09841575 0.057609662 0.022771463
0.054668784 -0.088339284 -0.07949647 0.030559555 0.025617033 -0.006911427 -0.05764693 -0.07612118
0.08590256 0.07113354 -0.07594055 -0.081054926 -0.09862007 -0.03914252 -0.044102535 0.08226231
-0.0073649883 0.059485897 0.1090246 -0.047172993 0.123531684 -0.1248638 -0.11333121 -0.0077423006
0.054298043 -0.021909907 0.10582732 0.09028314 -0.11577541 0.109841645 -0.114800945 0.02717048
-0.08551952 -0.09390429 0.0045782477 -0.06590335 0.037631527 0.07660733 -0.07516757 -0.0658506
0.09552407 -0.104287654 0.0071697086 -0.09142505 0.09780659 0.0631229 -0.034222215 -0.11978234
-0.14657216 0.031130236 -0.061184227 0.0063709766 0.054671373 -0.094312444 0.105585545 -0.07984565
0.07098634 -0.092041165 0.00072136306 -0.1244594 0.052783415 0.040045593 -0.033583306 0.00458538
-0.10367906 0.009526402 -0.14631265 0.08347448 0.019909285 0.0037472546 -0.09647435 0.042453885
-0.11969207 -0.031687573 0.015912788 0.092666775 -0.07428705 -0.086248145 -0.13537633 -0.0688961
0.08153431 -0.07168063 0.0919878 -0.100808635 0.017258778 0.04159715 0.06675275 0.05973927
0.019149259 0.0825246 0.029396756 0.12241897 -0.064426675 -0.08847612 -0.09516009 -0.11502111
0.03423751 0.016351601 0.0041325404 0.008776059 -0.07038767 -0.12941697 0.09162657 0.053767897
-0.02079092 -0.033542603 -0.05711044 0.036024228 -0.03979261 -0.07561109 0.11744322 0.084553756

shared_layers.2.bias f4 [32]
00000000: 09cb cb3d 9425 cb3c 989f 93bd c5d1 d9bc
00000010: 7687 1a3d c5c7 72bd 4069 483d 1246 9bbd
00000020: 0baf 1d3e 2fb7 8e3c 710a 81bd 07da a5bd
00000030: 3569 0b3e 0e0b 39bd ee2d b2bd da20 083e
00000040: b0b1 63bd b091 c4bc 5007 5c3d 05a4 573e
00000050: a2ad 30bc 0448 833d 1a86 3a3e b1b6 8cbd
00000060: 6157 353e e35e 563e 8454 de3d d92b 803d
00000070: cc0b 333d 7418 833d bf9d 193e e6e5 953e
0.09950835 0.024798192 -0.072081745 -0.026589284 0.037726842 -0.059272546 0.0489285 -0.07581724
0.15398805 0.017421333 -0.0630082 -0.08098226 0.13614352 -0.04517656 -0.08700167 0.13293782
-0.055589378 -0.02399525 0.05371791 0.21058662 -0.010783585 0.0641022 0.18215218 -0.06870783
0.17709114 0.20934634 0.10855964 0.06258363 0.043712422 0.064011484 0.15001582 0.2927696

shared_layers.4.weight f4 [8, 32]
00000000: 43fb ff3d 34f3 8b3d 2286 5a3c 2adf a1bc
00000010: 3696 8fbb 2a49 1b3e ace0 5a3b 3bc7 74ba
00000020: 2697 053e 4224 d1bd 65fc 3abe 5979 2fbd
00000030: fe32 16be 16f7 01be 11d7 e4bd 1f43 efbd
00000040: 5cf0 16bd b2d1 1d3d 476d 25be ed7b 0a3e
00000050: 410f 07bd bd02 fcbc 4621 033e 410b d13d
00000060: 4554 15bd 4d4e cf3c 3dbd 75be ed73 463e
00000070: 5258 7abe 11f6 993d 370b f63c 1fc9 623e
00000080: a183 f2bd 0f97 b03c 63af bb3d ffb7 ffbd
00000090: 532e a93d 7f4c e7bd 34cd c7bd 8d5b 643d
000000a0: 4185 623d 0be8 d0bd 168d 83bd 457b 073e
000000b0: 924d 94be a626 7bbe 5401 083e d482 16be
000000c0: 6e92 2f3e 2ee3 afbd 8559 c5bd 05a2 9a3a
000000d0: 857a 85be b969 c8bc ad4e 24be f2f8 42be
000000e0: 8741 05be 3ad5 60be 816a 90be 41a3 28be
000000f0: 56ce 263d a4e0 97be b702 29be aeb2 4fbe
00000100: e094 53bc 85a8 fc3c 4385 c53d 9613 c33d
00000110: 0cdc 4dbd 2cb2 203e 30e9 02be 1644 123d
00000120: c0d1 84be 779e fbbc 2cfb f3bd f204 ab3d
00000130: c739 f5bd 868e 1ebe aa4b e93d c3c4 94be
00000140: 0246 6fbc e3c6 053e fa61 0c3e eedd 49be
00000150: 9f95 88be 9a75 873d bb0d 713d ba25 1ebe
00000160: 86b7 93be 856e d4bd 010f 21bc 4a92 c0bd
00000170: d292 1fbe d4f2 9cbe 2fa2 a23c df1a 82be
00000180: 51f2 0f3e 1677 24bd f213 323e 4784 4ebd
00000190: 9367 fa3c d3f5 913d f9ef 693d cf4f fdbc
000001a0: 72e8 25be 97c9 333e c313 89bd 6c63 de3d
000001b0: 8a47 81be 04bb 49bd 718b 1fbe a191 a0bc
000001c0: 3500 03be 3274 813d 5256 20be 2f4b 8fbe
000001d0: c8ef aabe b151 27be d291 cc3c 77d4 92bc
000001e0: 3a41 63be 8f31 32bd 6604 74bd e857 65be
000001f0: 807d 1abe 36a3 fcbd 78c3 88be 48e5 6bbe
00000200: 29ce 243e db8f 91bd 2180 8b3d ab3c 1a3e
00000210: 9bab b63d 7ff3 ac3d b9ac 22bd 9798 1e3e
00000220: 6ce1 0a3c 87f5 293e cc4f 22be a753 863c
00000230: 96dd dd3c 04d3 9dbe 120e 473d 4d93 9ebe
00000240: 85d6 253e 01f0 c43c 1366 26be 790b 0fbd
00000250: 106a d5bd e288 bfbd 955b 83be 5e18 503c
00000260: 6de2 8bbe ffaa 8fbe 807f 0ebe 66ad 53be
00000270: d265 97bd 8cac 9fbd d9ef 28be ddcd 83be
00000280: 009b 0ebe 9a22 2ebd f343 a83d 771a 84bd
00000290: 65c1 12bd 4d90 003e 8f65 983e 893c e2bc
000002a0: 83fc a43e 5655 f0bd 25fd c63e e8ad 783a
000002b0: 945e 1c3d 49ba a83d 1320 4cbd c8c0 0e3e
000002c0: 4bdf 2fbe 5ae8 103e 9bad 263e e332 92bc
000002d0: 74e4 6a3d ecdf 9c3e a432 8e3e af89 f3bd
000002e0: 6888 9d3d 411b 5abe aeb6 c23e df07 e93d
000002f0: ff87 743e 9338 c83c f38e 9d3e 4ec9 58be
00000300: 4cf0 603c e2ac 1b3e d630 ca3c 1db1 0abe
00000310: 110d 96bc 5d64 d23d 970b 4dbe e093 12be
00000320: c56c 32be cef3 b1bd dcef cbbe 5e9d 5ebd
00000330: 4e07 2e3d 2427 fe3c 8fd8 afbd 0607 e1bc
00000340: 82ef 703d 510b 3dbd 76cc f7bd d891 ae3d
00000350: d0a3 923d b441 1ebe b473 083d d8e8 43be
00000360: 33a6 57be 7058 443e 205e 45be 1191 8f3e
00000370: be3f a3be 4a55 6d3e fbdc e2bd 0d1f 183e
00000380: ab21 dfbd 0cd0 733d 5b3c d9bd 87b6 fb3c
00000390: d330 723d b45c 983d e03a 7bbe fbb5 af3d
000003a0: 58cb 69be cd58 0b3e 363b 8ebc 288b 0e3e
000003b0: bd3b a8be 3fa5 a0be c55a 00be 431a 28be
000003c0: df4a 0fbe 1d31 e7bd d5b7 513d 1bc3 a6be
000003d0: fd74 35be 554e 32be ce82 85be c9f8 ec3d
000003e0: c589 80be 6919 a6be 859c 88bd dc60 78bd
000003f0: 49c4 74be d6d1 f8bd 124c 31bd ec01 8ebe
0.12499096 0.06833497 0.013337644 -0.019759733 -0.00438192 0.15164629 0.0033398075 -0.0009337549
0.1304594 -0.10211994 -0.18260343 -0.042840336 -0.1466789 -0.12691912 -0.11173833 -0.11682724
-0.03685032 0.03853006 -0.16154967 0.13523836 -0.03297353 -0.030763024 0.12805662 0.10207225
-0.03645732 0.025305891 -0.2399797 0.1938016 -0.24447754 0.075176366 0.030034645 0.22147034
-0.118415125 0.021556405 0.09164312 -0.12486266 0.08260789 -0.11293887 -0.09755936 0.055751372
0.055302862 -0.10200509 -0.064233944 0.13230617 -0.2896543 -0.24526462 0.13281757 -0.14698344
0.17145702 -0.08588253 -0.09636215 0.0011797553 -0.26070037 -0.024464475 -0.16045637 -0.19040278
-0.13013278 -0.2195634 -0.28206256 -0.16468526 0.04072412 -0.29663575 -0.16504942 -0.20283005
-0.012913913 0.030842075 0.09644558 0.0952522 -0.05025868 0.15692967 -0.12784266 0.035709463
-0.25941277 -0.03071521 -0.119131416 0.083505526 -0.11973911 -0.15484056 0.11391385 -0.29056367
-0.0146040935 0.1306415 0.1370925 -0.19713566 -0.26676652 0.066142276 0.058850985 -0.15444079
-0.28850955 -0.103726424 -0.009830237 -0.094029024 -0.15583351 -0.30654013 0.019852726 -0.25411126
0.1405728 -0.04015263 0.17390421 -0.05041912 0.030566966 0.071269654 0.05711362 -0.030921845
-0.16201952 0.17557369 -0.066932224 0.10858807 -0.25249892 -0.049250618 -0.15580536 -0.019600691
-0.12793048 0.063209906 -0.15657929 -0.27987048 -0.33386064 -0.16339757 0.024971876 -0.017923577
-0.2219285 -0.043504294 -0.059574507 -0.22396815 -0.15086937 -0.123358175 -0.2671163 -0.23036683
0.16094269 -0.071075164 0.06811548 0.15062205 0.0891945 0.08444881 -0.039715502 0.15487896
0.008476596 0.16597567 -0.15850753 0.01639731 0.0270832 -0.30825055 0.048597403 -0.30971757
0.16195114 0.024040224 -0.16249876 -0.03492305 -0.104206204 -0.0935228 -0.2565581 0.012701122
-0.27321187 -0.28060147 -0.13915825 -0.20671615 -0.073924676 -0.077965826 -0.16497745 -0.25743
-0.13926315 -0.042513467 0.08216085 -0.0645036 -0.035828967 0.12555046 0.29764983 -0.027616756
0.322239 -0.117350265 0.3886501 0.0009486363 0.038176134 0.08238656 -0.049835276 0.13940728
-0.17175023 0.14151135 0.16277163 -0.01784653 0.057346776 0.3063959 0.2777301 -0.118914954
0.07692033 -0.21299459 0.3803 0.113784544 0.23880003 0.02444104 0.30773124 -0.21170542
0.013729166 0.15202668 0.02468149 -0.13544126 -0.018316777 0.10273049 -0.20023952 -0.14314222
-0.17424305 -0.0868908 -0.39831436 -0.054349296 0.042487435 0.031024523 -0.08586227 -0.02746917
0.058822162 -0.04615337 -0.12099545 0.08523911 0.07160151 -0.15454751 0.033313468 -0.19131792
-0.21059494 0.19174361 -0.19274187 0.28040364 -0.3188457 0.23177066 -0.11077305 0.14855595
-0.108950935 0.05952458 -0.10607215 0.030726684 0.059128594 0.07439557 -0.24534178 0.08579632
-0.22831476 0.13608094 -0.017362218 0.13920271 -0.32858077 -0.31376073 -0.12534626 -0.16416268
-0.13993405 -0.112886645 0.051200707 -0.3257073 -0.17720409 -0.17412694 -0.2607636 0.115708895
-0.2510511 -0.3244126 -0.06670479 -0.060639247 -0.23903002 -0.12149398 -0.043285437 -0.2773584

shared_layers.4.bias f4 [8]
00000000: 1872 88bd 7ba4 fdbd 9355 37bd 50c7 e73c
00000010: 58d9 4dbe dfa6 9a3d e755 463e c568 bebd
-0.06662387 -0.12384888 -0.044759344 0.028293282 -0.20102441 0.075513594 0.19368707 -0.09297327
