training/models/C2_controller_acc0.95_lat0.015_succ20_small5_large8_carb7_cap610_rate0.000269_best_model.pth (torch, 16545 bytes, 6 tensors)

shared_layers.0.weight f4 [64, 3]
0	0x3f0b3816	0.54382455
1	0x3ee0ca40	0.43904305
2	0xbe39f311	-0.18159129
3	0xbeba4ab3	-0.36385116
4	0x3f0b356a	0.5437838
5	0xbe17b02e	-0.14813301
6	0xbd7b0994	-0.06128843
7	0x3dfafdac	0.12255415
8	0xbddec295	-0.10876957
9	0xbe5dbde8	-0.21654475
10	0xbf0aba72	-0.5419074
11	0xbe502a5e	-0.20328662
12	0x3f25498d	0.64565355
13	0xbda8d454	-0.082436234
14	0x3f0db189	0.5534902
15	0x3e051336	0.1299561
16	0xbee07f64	-0.4384719
17	0x3dc28bb7	0.09499305
18	0xbe26527d	-0.16242404
19	0x3a98ea6b	0.0011666542
20	0x3f024e53	0.50900763
21	0xbe2d9c27	-0.16954099
22	0xbc84c023	-0.0162049
23	0x3f0b8a76	0.5450815
24	0xbf095537	-0.5364565
25	0x3ef72b8d	0.48275414
26	0x3ebda1b4	0.37037432
27	0x3eefde5f	0.46849343
28	0x3e9927f3	0.2991329
29	0x3dd67281	0.10471059
30	0x3d51e0dd	0.051239837
31	0xbeb67786	-0.35638064
32	0xbe12ed81	-0.14348413
33	0x3ea1afdf	0.31579491
34	0xbb1b04bf	-0.0023653952
35	0x3caea0cf	0.021316914
36	0xbe0dc060	-0.13842916
37	0x3f0a35af	0.53988165
38	0x3ee6295f	0.4495344
39	0xbedbf9f3	-0.42964134
40	0xbe4886aa	-0.1958262
41	0x3e24c1f6	0.16089615
42	0xbed29892	-0.41132027
43	0xbe5a8e7d	-0.21343417
44	0x3ed9a7ad	0.4251074
45	0xbec67b81	-0.387661
46	0xbe727675	-0.23678
47	0x3ca3a68e	0.01997688
48	0xbec711f8	-0.38880897
49	0x3efaf1f4	0.4901272
50	0x3e5e65eb	0.21718566
51	0x3cbcd0a4	0.023048706
52	0x3eb357b6	0.35027856
53	0xbea854c7	-0.3287718
54	0xbe05d528	-0.13069594
55	0x3ead7c0c	0.33883703
56	0xbe08056b	-0.13283317
57	0xbd1cf613	-0.038320612
58	0x3f2c4824	0.6729758
59	0xbf03ca74	-0.51480794
60	0xbee75485	-0.4518167
61	0xbeebb851	-0.4603906
62	0xbe902864	-0.28155816
63	0xbd612c2a	-0.05497376
64	0x3d555aff	0.052088734
65	0x3e34fa31	0.17673565
66	0xbe27f3ef	-0.16401647
67	0x3f08f678	0.5350108
68	0x3f119655	0.56870013
69	0x3e9f3f47	0.31102964
70	0xbe5424cf	-0.20717166
71	0x3e164d40	0.14677906
72	0x3dc96987	0.09834581
73	0x3e2d65eb	0.1693341
74	0x3e592a28	0.21207488
75	0xbed29344	-0.4112798
76	0x3df23332	0.11826171
77	0x3f0b6dbc	0.54464316
78	0x3f192cfc	0.59834266
79	0x3f03b61f	0.5144977
80	0x3d5e220b	0.054231685
81	0xbd034b91	-0.032054488
82	0x3f225999	0.63417965
83	0xbdcd934b	-0.100378595
84	0xbe98afd2	-0.2982164
85	0x3eb163bf	0.34646413
86	0xbe2335fe	-0.15938565
87	0x3f26dd48	0.651814
88	0xbe97cc04	-0.2964784
89	0xbecbecad	-0.39829007
90	0x3e7700ef	0.2412145
91	0xbf08b02c	-0.53393817
92	0x3e816f02	0.25280005
93	0xbecb1e62	-0.39671618
94	0xbe93238a	-0.28738052
95	0xbf034501	-0.51277167
96	0x3db3bd3d	0.08776329
97	0xbe306bca	-0.17228618
98	0xbe8274f4	-0.25479853
99	0x3e8a8f0f	0.2706227
100	0x3de4d99d	0.11174319
101	0x3e82014f	0.25391623
102	0x3f218ec4	0.6310847
103	0x3e66fffc	0.22558588
104	0x3eb6e717	0.35723183
105	0xbdd075f2	-0.10178746
106	0x3f110a52	0.5665637
107	0x3eecb0d7	0.46228668
108	0xbc67c727	-0.014146603
109	0xbe4b0d35	-0.19829257
110	0x3eed7eca	0.46385795
111	0x3eae208f	0.34009215
112	0x3ed8146e	0.42203087
113	0x3e73db5c	0.23814148
114	0xbf00b6c2	-0.50278866
115	0xbe812ca3	-0.25229368
116	0x3d27324b	0.040819447
117	0x3f0130b1	0.5046492
118	0x3db93a41	0.09044314
119	0xbe6b0c20	-0.22953844
120	0x3edee279	0.4353216
121	0xb9b7c715	-0.00035052808
122	0x3ebc9528	0.36832547
123	0x3e5f103f	0.21783541
124	0xbe92b50b	-0.2865375
125	0x3e5a8169	0.21338429
126	0xbc0e5166	-0.008686399
127	0x3eddd332	0.43325192
128	0x3e4abd1a	0.19798699
129	0xbe122a17	-0.14273869
130	0xbe3a5bce	-0.18199083
131	0xbec02b22	-0.37532908
132	0x3f32617a	0.6967999
133	0x3eed9d7b	0.4640921
134	0xbef59ee0	-0.47972775
135	0x3e8e7478	0.27823234
136	0x3ea3a33a	0.3196047
137	0x3d3483e0	0.04407108
138	0xbeb87600	-0.36027527
139	0xbe6e8e65	-0.23296507
140	0x3eb9b2e0	0.36269283
141	0x3e15a7b8	0.14614761
142	0x3e591e65	0.21203001
143	0x3f0ced4d	0.5504959
144	0xbebf3a6c	-0.3734926
145	0x3e40b293	0.1881812
146	0x3d42c205	0.047548313
147	0x3ec116fd	0.3771285
148	0xbdffb586	-0.12485795
149	0xbedab383	-0.42715082
150	0x3e4469af	0.1918094
151	0xbe05f562	-0.13081887
152	0xbf03996e	-0.5140599
153	0x3eb37174	0.35047495
154	0x3e13c151	0.14429213
155	0x3cec079b	0.02881222
156	0xbed1e6a3	-0.40996274
157	0xbebb84df	-0.3662481
158	0x3dcc12d6	0.0996453
159	0xbe399913	-0.181248
160	0x3e38e217	0.18054996
161	0xbeee78ca	-0.4657653
162	0xbecba9a0	-0.3977785
163	0x3e8b4d78	0.2720754
164	0xbe2fb2bf	-0.1715803
165	0x3ec57ff0	0.3857417
166	0xbd0f1822	-0.034935124
167	0x3c47f08c	0.012203347
168	0x3e0aaf49	0.13543428
169	0x3d759148	0.059953004
170	0x3d39ecf6	0.045392
171	0x3f0a2afe	0.5397185
172	0xbdcbe828	-0.0995639
173	0x3eb68d8f	0.35654876
174	0x3ee229e2	0.4417258
175	0x3ea624df	0.32450005
176	0xbecb1f52	-0.39672333
177	0xbe992c14	-0.2991644
178	0xbebfda06	-0.37471026
179	0x3ee129b6	0.43977135
180	0x3f1bd339	0.60869175
181	0x3e8937ac	0.26800287
182	0xbe830d80	-0.25596237
183	0xbe717932	-0.23581389
184	0x3f0b86a7	0.5450234
185	0xbe0a4f8e	-0.1350691
186	0xbec0ec03	-0.37680063
187	0xbe5c27a7	-0.21499501
188	0x3cda68c4	0.026661284
189	0xbf0cfd1c	-0.55073714
190	0x3ebd4dc3	0.3697339
191	0x3eba227e	0.3635444

shared_layers.0.bias f4 [64]
0	0xbe7f30a1	-0.24920894
1	0xbf0493b4	-0.5178788
2	0xbda2ba75	-0.0794572
3	0x3db9cfd1	0.09072841
4	0x3f037304	0.51347375
5	0x3f281d2c	0.6566951
6	0x3ed0a1c5	0.4074842
7	0xbe992532	-0.2991119
8	0x3d8d98b8	0.069138944
9	0x3ee0aee3	0.43883428
10	0xbe8ee5b7	-0.27909634
11	0xbebe0f7b	-0.37121186
12	0xbeedb264	-0.46425164
13	0x3e962935	0.29328313
14	0x3eca81a0	0.3955202
15	0x3e244255	0.16040929
16	0xbe0491c0	-0.12946224
17	0x3f03df4a	0.5151259
18	0xbe2867bc	-0.16445822
19	0x3e291604	0.16512305
20	0xbda75932	-0.081713095
21	0xbed54865	-0.41656795
22	0x3ef90513	0.48636684
23	0x3ed6f341	0.41982463
24	0xbe5f000d	-0.21777363
25	0xbec70740	-0.3887272
26	0x3f0f55bd	0.559902
27	0x3c2e095f	0.010622351
28	0xbf12d7b8	-0.5736041
29	0xbdef4711	-0.11683477
30	0xbef846fc	-0.48491657
31	0xbd6551ea	-0.055986322
32	0x3ea3b35c	0.31972778
33	0x3f1b17bf	0.6058311
34	0xbebc4147	-0.36768553
35	0x3ee4659d	0.44608775
36	0x3d0514dd	0.0324906
37	0x3ef24ed7	0.47325775
38	0x3ea37a3e	0.319292
39	0xbe4f7cf6	-0.20262513
40	0x3e232a8d	0.159342
41	0xbdd91f7b	-0.106017075
42	0xbf12169f	-0.5706577
43	0xbeba0f58	-0.3633983
44	0xbe72b92a	-0.23703447
45	0x3f10707d	0.56421643
46	0x3e971edf	0.2951574
47	0xbeeb6888	-0.4597819
48	0xbecdac0d	-0.40170327
49	0xbf10b07c	-0.56519294
50	0x3f1643d4	0.5869725
51	0x3ec3027d	0.38087836
52	0xbe2f1fea	-0.17102018
53	0xbd49fb7d	-0.049312104
54	0x3ef2557d	0.47330847
55	0x3ee53780	0.44768906
56	0x3ef91755	0.48650613
57	0xbde08172	-0.1096219
58	0x3e9f7a1e	0.31147856
59	0x3e80d16b	0.25159773
60	0xbe211bf2	-0.15733317
61	0x3e4380b6	0.19092068
62	0xbcb71063	-0.022346681
63	0xbeab3c89	-0.33444622

shared_layers.2.weight f4 [32, 64]
0	0xbd8f42a1	-0.0699513
1	0xbc8c9080	-0.017158747
2	0x3d8b9b44	0.06816724
3	0xbde9b14a	-0.11410768
4	0xbda24389	-0.079230376
5	0xbd8aa222	-0.06769206
6	0xbdcfc2b1	-0.10144556
7	0xbd1d6020	-0.03842175
8	0xbd351018	-0.0442048
9	0x3d936e37	0.07198756
10	0xbd85591a	-0.065111354
11	0xbd5a276c	-0.053260252
12	0xbdd583ec	-0.10425553
13	0x3d4704d8	0.048588604
14	0x3ce61e69	0.028090673
15	0x3d047b7c	0.032344326
16	0xbd169720	-0.036765218
17	0x3d7ab531	0.061207954
18	0xbc428840	-0.011873305
19	0xbbbbe73c	-0.0057343524
20	0xbdc12c08	-0.094322264
21	0x3b175000	0.0023088455
22	0x3d78db1f	0.060755845
23	0xbc27d4bc	-0.010243591
24	0xbd08cc6c	-0.033398077
25	0xbdc4ecb6	-0.096154615
26	0x3dcaffc6	0.09912066
27	0x3d352920	0.044228673
28	0xbdca73c8	-0.09885365
29	0xbd2d62a6	-0.042330407
30	0xbdce5958	-0.10075635
31	0x3da44e84	0.08022788
32	0xbc050109	-0.008117923
33	0x3bd1a6b0	0.0063980445
34	0x3d9e4680	0.077282906
35	0x3de4c86e	0.111710414
36	0xbd970c64	-0.0737541
37	0xbdd2aa61	-0.102864034
38	0x3dfa458c	0.12220296
39	0x3c798ebd	0.015231785
40	0x3cc2bfec	0.023773156
41	0xbdd1f611	-0.102520116
42	0x3dcfd65a	0.10148306
43	0xbdceea40	-0.101032734
44	0xbde17ec7	-0.11010509
45	0xbd2724d9	-0.040806625
46	0xbd7a1d0c	-0.061062858
47	0x3d7b9c48	0.06142834
48	0xbbced6c0	-0.0063122213
49	0x3df201c8	0.11816746
50	0xbddb83e5	-0.10718516
51	0xbd4b58af	-0.049645122
52	0xbd0cf12c	-0.034409687
53	0x3d945d58	0.072443664
54	0x3dc91d35	0.09820024
55	0x3db92c5b	0.09041663
56	0xbda0d1e2	-0.07852532
57	0x3c98c9aa	0.018650848
58	0x3d3e29b1	0.04642648
59	0x3dfdf51e	0.12400268
60	0xbd60a35d	-0.054843295
61	0xbc95717b	-0.018242588
62	0xbd717250	-0.058946908
63	0xbdb23770	-0.0870198
64	0x36ed2036	7.0669003e-06
65	0xbc2be2b0	-0.010491058
66	0xbd2762d4	-0.040865734
67	0x3b836a00	0.004010439
68	0x3d372fa9	0.044723187
69	0xbafcc280	-0.001928404
70	0x3dad9391	0.08475412
71	0xbd777e2c	-0.06042306
72	0xbde9cc1c	-0.11415884
73	0x3d15bcec	0.036557123
74	0x3dc7a452	0.097481385
75	0x3c370aa0	0.011171967
76	0xbd4a17b8	-0.049339026
77	0x3ca82f08	0.020530239
78	0xbd6ccdf8	-0.057813615
79	0xbd5bb4f0	-0.053639352
80	0xbd96ec74	-0.073693186
81	0xbd3686b5	-0.04456206
82	0xbdbe9570	-0.09305847
83	0x3d9a26eb	0.07526954
84	0xbd556054	-0.05209382
85	0xbd1672e0	-0.036730647
86	0xbb22f4f0	-0.0024865232
87	0xbdc8302d	-0.09774814
88	0x3cd7c810	0.026340514
89	0x3cf52190	0.02992323
90	0xbd7d3cd0	-0.061825573
91	0xbcb2b9fb	-0.021817198
92	0xbb279480	-0.002557069
93	0x3d5dd9d8	0.05416283
94	0x3df32d4c	0.11873874
95	0xbde1f592	-0.11033167
96	0xbd83d3fb	-0.064369164
97	0x3d258ee1	0.040419463
98	0xbdbd19a9	-0.0923341
99	0x3d2f9a96	0.042872034
100	0x3dde3cc4	0.10851434
101	0x3d5c823c	0.05383514
102	0xbda98da8	-0.08278972
103	0xbdf3eabc	-0.119100064
104	0x3d98d9b7	0.07463401
105	0xbde7b09a	-0.11312981
106	0x3d5594ec	0.052143976
107	0xbd536ac4	-0.05161549
108	0xbe015493	-0.12629919
109	0x3cb7c56e	0.022433009
110	0x3db31b64	0.08745459
111	0xbdac1da6	-0.084040925
112	0x3ce871b8	0.028374538
113	0x3d5a4c28	0.053295285
114	0x3da2bd08	0.07946211
115	0xbc537d13	-0.012908238
116	0xbdb59adc	-0.08867428
117	0x3d4fe82c	0.050758526
118	0xbd767d23	-0.060177933
119	0xbdf1d8b4	-0.11808911
120	0x3d10882e	0.03528612
121	0x3c0cdb06	0.008597141
122	0x3d0a8dc1	0.033826593
123	0x3dc8e8d2	0.09810032
124	0xbddadefb	-0.106870614
125	0xbd34c41f	-0.04413235
126	0xbdc043b2	-0.09387912
127	0xbcded4f8	-0.02720116
128	0xbdecafda	-0.115569785
129	0xbd8408c2	-0.06446983
130	0x3d7006ac	0.058600113
131	0x3da09bfc	0.07842252
132	0x3d810b0a	0.06300934
133	0xbd0796b8	-0.03310272
134	0x3c925d28	0.017866686
135	0x3d8a49d4	0.06752363
136	0xbdb9f570	-0.090800166
137	0x3dfc99a2	0.12333991
138	0x3c5d8c80	0.013522267
139	0x3dda38ac	0.106553406
140	0x3dad7300	0.084692
141	0xbdb15a32	-0.086597815
142	0xbb8b5ee0	-0.0042532533
143	0xbdc49744	-0.09599164
144	0xbd7fbd20	-0.062436223
145	0xbd4247ec	-0.04743187
146	0xbda2cadc	-0.079488486
147	0xbcc962e8	-0.024583295
148	0xbd6fbfb4	-0.05853243
149	0xbd98897a	-0.074480966
150	0xbd4a59a0	-0.04940188
151	0x3d52ce90	0.051466525
152	0xbde2834e	-0.11060201
153	0xbdf96ed2	-0.121793404
154	0xbda1eb58	-0.079062164
155	0xbd5dc4cc	-0.05414276
156	0x3c586730	0.013208196
157	0xbde6af5a	-0.112639144
158	0x3d886fe4	0.066619664
159	0xba07b700	-0.00051771104
160	0x3de0a5da	0.10969134
161	0xbd685fe8	-0.05673209
162	0x3cc42420	0.023943007
163	0x3de55216	0.11197297
164	0xbd7e5e90	-0.0621019
165	0x3cf48ec0	0.029853225
166	0x3d432dd4	0.047651127
167	0x3def8e7c	0.116970986
168	0x3cf34770	0.02969715
169	0xbd9968d0	-0.074906945
170	0x38f45800	0.00011651218
171	0xbde63bd4	-0.1124188
172	0xbd1d2ba4	-0.038371697
173	0xbd70a320	-0.058749318
174	0xbd60b7a0	-0.05486262
175	0x3cb38b80	0.021917105
176	0x3dd1dfa4	0.10247734
177	0x3c6feba0	0.01464358
178	0x3d0b9174	0.03407426
179	0xbda6f3c2	-0.08151962
180	0xbbec7a60	-0.0072167367
181	0x3d25ea38	0.04050657
182	0xbd14c6f0	-0.036322534
183	0xbbec8d80	-0.0072190166
184	0xbd8fa9a8	-0.07014781
185	0x3d03fe88	0.03222516
186	0x3cda6be8	0.026662782
187	0x3b9e53c0	0.004831761
188	0xbcd584e0	-0.026064336
189	0x3d94c7b4	0.07264653
190	0xbddfd24e	-0.10928784
191	0x3dd9023a	0.10596128
192	0x3d86c26c	0.06580052
193	0xbbefa120	-0.007312909
194	0xbd64ae9c	-0.055830583
195	0x3dfdb66e	0.12388311
196	0xbdb9a3fe	-0.09064482
197	0xbdef1c92	-0.11675371
198	0xbce04368	-0.027375892
199	0xbcfea9a8	-0.031086758
200	0x3d27e0a0	0.040985703
201	0x3cc58e88	0.024115816
202	0x3d77c1e4	0.060487643
203	0xbce3acb8	-0.02779232
204	0xbca69600	-0.020335197
205	0xbd889f72	-0.06671037
206	0x3d91e644	0.07123998
207	0x3b502540	0.0031760484
208	0x3da0b8ac	0.07847723
209	0x3cf69c78	0.030103907
210	0x3df631e8	0.120212376
211	0xbdb03cb2	-0.08605327
212	0xbcec55e0	-0.028849542
213	0x3da3074c	0.07960376
214	0xbdcc18d2	-0.099656716
215	0xbcd2bc38	-0.025724515
216	0xbdd78f78	-0.10525411
217	0x3de50398	0.11182326
218	0xbde7fd92	-0.113276616
219	0xbd571f7c	-0.05252026
220	0x3c8f1200	0.017464638
221	0xbc42bb60	-0.011885494
222	0x3b873460	0.0041261166
223	0x3d1c6158	0.03817877
224	0xbd3d66b4	-0.046240523
225	0x3d9e3a88	0.07726008
226	0xbd85330e	-0.065038785
227	0xbd39b548	-0.0453389
228	0x3c8d9f18	0.017287776
229	0xbd909898	-0.07060355
230	0xbd7cc2d4	-0.06170924
231	0x3dc67988	0.09691149
232	0x3a484000	0.0007638931
233	0x3db76eee	0.08956705
234	0xbce3daa8	-0.027814224
235	0x3d931050	0.07180846
236	0x3bec27e0	0.007206902
237	0xbdf0f37a	-0.117651895
238	0xbbd3c7c0	-0.006463021
239	0x3c5a1550	0.013310745
240	0xbd84962c	-0.064739555
241	0x3d868d32	0.065698996
242	0xbd854d40	-0.06508875
243	0xbcd043f8	-0.025423035
244	0x3de4f4fc	0.111795396
245	0x3d9aaab2	0.07552089
246	0xbdaea8c2	-0.08528282
247	0xbdb128c0	-0.086503506
248	0x3adf4b00	0.0017035902
249	0xbca03970	-0.019558638
250	0x3d89c5fc	0.06727216
251	0x3d137934	0.03600426
252	0x3df15cce	0.11785279
253	0x3cba1f98	0.022720143
254	0xb98cae00	-0.0002683252
255	0xbd6bf1a8	-0.05760351

shared_layers.2.bias f4 [32]
0	0xbdbdf93b	-0.092760526
1	0xbdd687aa	-0.104750946
2	0xbdf51ca4	-0.119683534
3	0x3d162de4	0.03666486
4	0x3db38808	0.0876618
5	0x3c964db6	0.018347602
6	0xbdfafe3c	-0.122555226
7	0x3dd9c436	0.106331274
8	0xbd95bde8	-0.07311612
9	0xbddfeaee	-0.10933481
10	0xbd3310dd	-0.043717254
11	0xbda6a2d4	-0.08136526
12	0x3e56553d	0.20930953
13	0xbd4816d8	-0.04884991
14	0x3d73ff78	0.059569806
15	0x3d00e734	0.031470492
16	0x3da81ae2	0.082082525
17	0x3e0b6eff	0.1361656
18	0xbd7eac9a	-0.062176324
19	0x3e0589a4	0.13040787
20	0x3cbf72d6	0.023370188
21	0x3e353787	0.17696963
22	0xbdc4643e	-0.09589432
23	0x3d44e844	0.04807307
24	0x3d4799a7	0.04873052
25	0x3e49f6be	0.19723031
26	0x3e418867	0.1889969
27	0xbd26e3cc	-0.040744588
28	0xbd9317fb	-0.07182308
29	0xbb351280	-0.0027629435
30	0xbd450a54	-0.048105553
31	0xbde3acf2	-0.11116971

shared_layers.4.weight f4 [8, 32]
0	0xbdf947de	-0.12171911
1	0xbe3e7f21	-0.18603183
2	0x3e187f90	0.14892411
3	0xbdb9e690	-0.090771794
4	0xbc49b654	-0.012311537
5	0x3d515f7a	0.051116444
6	0xbe12ef2f	-0.14349054
7	0x3d31cd94	0.043408945
8	0xbd983351	-0.07431663
9	0x3dbd2879	0.09236235
10	0xbda1f266	-0.07907562
11	0xbd707f14	-0.05871494
12	0xbe6d6537	-0.23183142
13	0x3d8f7323	0.070043825
14	0xbe1d9689	-0.15389456
15	0x3c0c8cd0	0.008578494
16	0x3cc2614b	0.023728034
17	0xbe85fb29	-0.26168182
18	0x3d3aa40c	0.045566604
19	0xbe0ac489	-0.13551535
20	0xbe8e8bac	-0.27840936
21	0xbe8ba1ee	-0.2727198
22	0xbe18849d	-0.14894338
23	0xbddfc834	-0.109268576
24	0xbe118a68	-0.14212954
25	0xbd938122	-0.072023645
26	0xbbbb1de8	-0.005710352
27	0x3d877654	0.06614366
28	0x3e0f5f40	0.14001179
29	0x3cb3da86	0.021954786
30	0xbc3fcf26	-0.011707103
31	0xbe3c5e5d	-0.18395372
32	0x3d203a57	0.039118137
33	0xbc232d03	-0.009959462
34	0xbe0fe0b9	-0.14050569
35	0x3e12da6b	0.14341132
36	0xbdb422b2	-0.0879568
37	0xbe00b99d	-0.12570806
38	0x3e05f794	0.13082725
39	0xbe5f404e	-0.21801874
40	0x3db66c23	0.08907344
41	0x3e1e3d5d	0.15453096
42	0xbce3f32d	-0.027825916
43	0xbc813592	-0.015772615
44	0xbda18f6f	-0.07888686
45	0xbdc5d604	-0.09659961
46	0x3db4f5ec	0.088359684
47	0xbdc542eb	-0.09631904
48	0xbe4a4e95	-0.19756539
49	0xbe71a8b5	-0.23599513
50	0x3dc91193	0.09817805
51	0xbe19ee91	-0.15032412
52	0xbe84b335	-0.25917974
53	0xbe87954a	-0.26481086
54	0xbd90940e	-0.07059489
55	0xbbdbd019	-0.006708157
56	0xbdf8cf30	-0.12148893
57	0x3d537148	0.051621705
58	0xbe0256c4	-0.12728411
59	0xbe282498	-0.1642021
60	0x3d44b069	0.0480198
61	0xbe41127d	-0.18854709
62	0x3c3ab73f	0.011396228
63	0xbc828483	-0.015932327
64	0x3e25b634	0.16182786
65	0xbe2128ed	-0.15738268
66	0x3c490d82	0.012271287
67	0x3cdcc6a5	0.02695019
68	0xbdf47a95	-0.11937443
69	0xbd885cb6	-0.06658308
70	0x3c72eaf2	0.014826523
71	0xbe6796c4	-0.22616106
72	0x3d808eb4	0.062772185
73	0xbd90a997	-0.07063597
74	0x3d9a0c60	0.075218916
75	0x3d2983ce	0.041385464
76	0xbe804b69	-0.25057533
77	0x3d89d6ed	0.06730447
78	0x3de303f5	0.11084739
79	0xbc06c031	-0.008224533
80	0xbe1117aa	-0.14169183
81	0xbddb02f2	-0.10693921
82	0xbc85603f	-0.016281245
83	0xbe6148b0	-0.22000384
84	0xbdf02ab5	-0.11726896
85	0xbdce94ba	-0.10086961
86	0xbbd609e1	-0.0065319394
87	0x3c2cf712	0.010556953
88	0x3b9bd4f8	0.0047556125
89	0xbdb98ee1	-0.09060455
90	0xbce5a820	-0.02803427
91	0x3e23dbe6	0.16001853
92	0xbdfee5a4	-0.12446144
93	0xbe4e48c4	-0.20144945
94	0xbdfb376e	-0.12266432
95	0x3e01968e	0.12655088
96	0x3e135ae4	0.14390141
97	0xbdc9b0cf	-0.09848177
98	0xbcd2d943	-0.025738364
99	0xbe2ebc6a	-0.17064062
100	0xbcc73fe6	-0.024322461
101	0x3e190cc0	0.1494627
102	0xbd6b2e2a	-0.057417072
103	0xbd8284ad	-0.06372962
104	0x3df7d311	0.121008046
105	0x3da49903	0.08036997
106	0xbdd0335b	-0.10166045
107	0x3d49a616	0.049230658
108	0xbe6469fb	-0.22306053
109	0x3d15d88b	0.036583465
110	0xbe217f79	-0.15771283
111	0xbd2aedc9	-0.041730676
112	0x3e17753c	0.14790815
113	0x3c175818	0.009237312
114	0xbe22edad	-0.15910979
115	0xbc893481	-0.016748669
116	0xbe3310be	-0.17486855
117	0xbdbdb22a	-0.09262498
118	0x3d6447c4	0.055732504
119	0x3d591777	0.053000893
120	0xbdae67a7	-0.08515864
121	0xbe86c73d	-0.26323882
122	0xbe836895	-0.25665727
123	0x3d924af6	0.07143204
124	0x3dcd0554	0.10010782
125	0xbe92992d	-0.2863249
126	0x3e10396c	0.14084405
127	0x3c5597f3	0.013036716
128	0xbdf7ffc1	-0.12109328
129	0xbe2c0e11	-0.16802241
130	0xbdc5d661	-0.0966003
131	0x3dec3623	0.11533763
132	0x3db9313e	0.09042595
133	0x3de239e2	0.110461965
134	0x3e34914f	0.17633556
135	0xbb95afe9	-0.0045680893
136	0xbcf5c04e	-0.029998925
137	0xbcbe9625	-0.023264954
138	0xbe20cd1f	-0.15703247
139	0xbe32acc0	-0.17448711
140	0xbe0877a8	-0.13326895
141	0x3d814293	0.06311526
142	0xbd055451	-0.032551114
143	0xbd5c6d38	-0.053815097
144	0x3d40fb9f	0.047114965
145	0xbe1b04ef	-0.15138601
146	0xbceae10a	-0.02867176
147	0xbe97ae68	-0.2962525
148	0xbdc62712	-0.09675421
149	0xbe957ad0	-0.2919526
150	0xbd84ec88	-0.06490427
151	0x3d2c0465	0.04199638
152	0xbd01e4c3	-0.031712305
153	0xbe139342	-0.14411643
154	0xbdb7396f	-0.089465015
155	0xbdffbf3f	-0.12487649
156	0x3de25fe5	0.11053447
157	0xbe281f54	-0.164182
158	0xbd3d7849	-0.04625729
159	0xbd0ce898	-0.034401506
160	0x3cac6428	0.021043852
161	0xbdf5cde6	-0.12002163
162	0xbe0708ee	-0.13187
163	0xbe26b589	-0.16280188
164	0x3dc7f41f	0.09763359
165	0x3d8a47d1	0.06751979
166	0x3dd7793c	0.105211705
167	0x3e285a43	0.16440682
168	0x3dbaf56d	0.091288425
169	0x3d96ad92	0.07357325
170	0xbdce2317	-0.100652866
171	0x3dae97fa	0.08525081
172	0x3c826e29	0.01592167
173	0x3e1ccd2a	0.15312639
174	0xbdae2a6e	-0.085041866
175	0xbdc88b72	-0.09792222
176	0xbcc48b9b	-0.02399235
177	0x3e380afc	0.1797294
178	0xbdc6ab9c	-0.09700701
179	0x3c8b1411	0.016977342
180	0x3e6edd05	0.233265
181	0x3e5a14ae	0.21296951
182	0xbd8e7653	-0.06956162
183	0x3d81dadb	0.063405715
184	0x3e528a97	0.2056068
185	0x3e5094ad	0.20369215
186	0x3d41dd7d	0.04733037
187	0xbb5fe3f4	-0.003416297
188	0xbe296b1b	-0.16544764
189	0x3e56e8f3	0.209873
190	0xbd8059aa	-0.06267102
191	0xbdef2909	-0.11677749
192	0xbe1ea56a	-0.15492788
193	0x3db35b37	0.08757632
194	0x3e1b3b90	0.1515944
195	0x3e0f8368	0.14014971
196	0x3d149253	0.03627236
197	0xbe27ea82	-0.16398051
198	0x3e2b889f	0.16751336
199	0xbe07e8d9	-0.13272418
200	0xbdc0117a	-0.093783334
201	0x3dbba495	0.09162251
202	0xbda6dd12	-0.081476346
203	0x3dd694fe	0.10477637
204	0xbe17a338	-0.14808357
205	0x3ad8af1d	0.001653168
206	0x3de1cf37	0.11025851
207	0x3cd5f5de	0.026118215
208	0xbd49c277	-0.04925772
209	0x3d491fc6	0.049102567
210	0x3e0fe919	0.14053763
211	0x3dc1c4da	0.094613746
212	0xbe15092d	-0.14554282
213	0xbe46d2c7	-0.19416343
214	0xbb06a3eb	-0.002054448
215	0x3cbacd0a	0.022802848
216	0xbe1fefbf	-0.156188
217	0xbd0052b4	-0.03132887
218	0xbe2a23b7	-0.16615187
219	0xbe196e01	-0.1498337
220	0x3d440214	0.047853544
221	0xbd7a01d8	-0.061036915
222	0x3daa20f9	0.0830707
223	0xbe47723e	-0.19477174
224	0x3df9bb26	0.12193899
225	0x3e15cbec	0.14628571
226	0xbdcd57fc	-0.10026547
227	0xbe1971ee	-0.14984867
228	0x3d8ec52e	0.06971203
229	0x3e082b52	0.13297775
230	0x3db16367	0.086615376
231	0xbe4b7b8a	-0.19871345
232	0xbde35ed5	-0.11102072
233	0x3db90817	0.09034746
234	0xbd212c1c	-0.039348707
235	0xbc49fa4c	-0.012327742
236	0xbe7365ce	-0.23769304
237	0xbdc7f551	-0.09763587
238	0xbca74b70	-0.020421714
239	0x3d426dbc	0.047467932
240	0x3d7f4d5c	0.062329635
241	0xbe6f2c18	-0.23356664
242	0xbde98c34	-0.11403695
243	0xbea1fe44	-0.31639302
244	0xbe816aef	-0.25276896
245	0xbde3b447	-0.111183695
246	0xbdd5c5c4	-0.104381114
247	0x3e0bb50b	0.13643281
248	0xbdb022fa	-0.08600421
249	0xbe701b70	-0.23447967
250	0xbe5573ca	-0.20844951
251	0x3df319bd	0.118701436
252	0xbe19569e	-0.14974448
253	0xbe6171b8	-0.22016037
254	0xbdc9fc54	-0.09862581
255	0xbe017c3a	-0.12645045

shared_layers.4.bias f4 [8]
0	0x3d2bba12	0.041925497
1	0xbdc5e43c	-0.09662673
2	0xbdaae2ba	-0.08344026
3	0xbcf39a7c	-0.02973675
4	0xbe52d6f0	-0.20589805
5	0x3ce39f41	0.0277859
6	0xbe219169	-0.15778126
7	0xbe158845	-0.14602764
