training/models/C3_controller_acc0.819_lat0.006_succ5_small7_large10_carb15_cap610_rate0.000269_best_model.pth (torch, 16569 bytes, 6 tensors)

shared_layers.0.weight f4 [64, 3]
00000000: 702d 56be 63e0 c23e be65 b6be 49d8 aabe
00000010: 4f96 64be 19da 67be 35c5 073d 0891 8b3d
00000020: 74ed 893e 6384 353f 08d9 79bc 7a75 a53e
00000030: c629 01bf a699 4b3e 42fa cdbe d3dc 88be
00000040: 8c2f 0e3f 10f5 a83c 8f6b 703c 628d e93c
00000050: a170 043f 64f6 d2be 1ad6 2c3e f6f1 783e
00000060: 16e4 c6be 0d3f f1bd bc28 123f cad1 ddbe
00000070: 7476 13bf ef22 1d3e c299 2e3d 46ed fe3e
00000080: 7d4b 22be 8941 8dbe 3271 233f b550 bebe
00000090: 568c dcbe 13ea 413e 0add c43e 5942 b83e
000000a0: 5d31 e3be 58f7 10bf 17c8 9f3e 5f5e 7e3e
000000b0: 0899 9abe bd31 e8be 131f c5be 979f 223e
000000c0: 05c6 173f e264 723e 9ded 123f 3fb2 6dbe
000000d0: f0cc 79be 1b5d b2be 3ae0 f43e d1fd b0bd
000000e0: 86e9 c73e 9407 31be 377a b8be 2213 71be
000000f0: e4b0 05be 6f8f 313d 4a92 4e3e fcfd dbbe
00000100: 7845 12bf 9cf1 b83b 5331 ec3e eae1 20be
00000110: b444 003f 820a acbe 4050 303e 7069 ee3e
00000120: 688b b4be e24d 0c3f 265a 563e 6c8e 5f3c
00000130: 0b80 bcbe a319 463e bf9d 04bf c8f2 04bf
00000140: 6b18 ca3e 5ebc acbe 06c7 0abf fc67 063d
00000150: e8cb 113f c8b7 18be a052 6b3d 6d3f d4be
00000160: b5f1 0e3f ba82 e43e 0178 843e fca6 ce3e
00000170: 7808 073f b0f8 c9be d2bf 113f f0fe b13e
00000180: 409f b0be fb52 babe 978c 903e b750 28be
00000190: ce15 f23d db95 193e 5ebb 0e3f 2419 ed3e
000001a0: 29d2 df3d 388f ce3e 467d 03bd 2589 1dbe
000001b0: aeac 2d3f fdf9 38bd 52b1 903e 693a 143f
000001c0: b0bf 5bbd 0632 b33d 1f11 1a3f 2c66 fe3e
000001d0: 367a 96be f546 c7bc c8a2 83be 4772 adbc
000001e0: 0a13 d23e 4dd9 043f 63f6 123e 585a 9f3c
000001f0: 5bde bf3e 33f1 5a3e ba54 10bf ffc1 c53e
00000200: 76f1 b23e 245d f63e 858e b13e b3a4 98be
00000210: 72ed 9bbe 1689 18bc 41ad 2a3e da91 a43e
00000220: 9242 06bf 19d7 ad3d 1bb5 13bf 1acf 0fbd
00000230: 8c6d 9fbe 4b01 45bd 394a f53e 6fc0 313f
00000240: 300b 34be 0c79 013e 27cf 573d 244f 87be
00000250: 6ef7 143e 051a c23e c099 123e 4233 f03e
00000260: e5f3 043f 03f4 da3d 3739 923e a488 6f3d
00000270: 802a 2b3f e1ab 91be d543 e8be 64ad 203f
00000280: 89d0 b4be 30a9 01bc 6fe4 c8bb 7426 043f
00000290: bc91 a8bd e3cd 23be 02b3 a9bc bb4b 083e
000002a0: fa6d 95be 12f2 113f 4f5f a83e 72af b63e
000002b0: d611 b5be aa35 ebbd 6db1 3e3e af40 8e3e
000002c0: 92a4 1b3f fdd5 003f e3e8 cfbe cd31 a63d
000002d0: 869c 23be 51d5 51bd 91d4 cebe 1f6e c9be
000002e0: d10b fa3e 7a33 333e 87a6 943d 7b47 45be
000002f0: 9bf4 d33d 5b16 073f 014d bbbe c5f8 0cbf
-0.2091577 0.38061818 -0.35624498 -0.33368137 -0.22322963 -0.22641791 0.033147056 0.06814772
0.26938975 0.7090513 -0.015249498 0.3231619 -0.50454366 0.19882831 -0.40229994 -0.26730976
0.555413 0.020624667 0.0146740815 0.0285098 0.5173436 -0.41203606 0.16878548 0.24311051
-0.3884589 -0.11779604 0.57093406 -0.4332412 -0.5760262 0.15345357 0.042627104 0.497904
-0.15849109 -0.27589062 0.638446 -0.3717095 -0.43075818 0.18936948 0.3844989 0.3598812
-0.443736 -0.56627417 0.31207344 0.24840687 -0.3019488 -0.45350447 -0.3850027 0.15881191
0.5928653 0.23671296 0.5739382 -0.23212527 -0.24394584 -0.3483666 0.4782732 -0.08642162
0.39045352 -0.17288047 -0.36030743 -0.23542455 -0.1305576 0.04334968 0.20172992 -0.42967212
-0.5713725 0.0056440365 0.4613138 -0.1571118 0.5010483 -0.33601767 0.17218113 0.46564817
-0.3526261 0.5480634 0.20932826 0.013644796 -0.3681644 0.19345717 -0.518032 -0.51932955
0.39471754 -0.33737463 -0.54209936 0.03281401 0.5695176 -0.14913857 0.057451844 -0.4145464
0.55837566 0.44630986 0.25872806 0.40361774 0.527473 -0.39447546 0.5693332 0.34764814
-0.34496498 -0.36391434 0.28232262 -0.1643704 0.11820565 0.14998572 0.5575465 0.46308243
0.10928757 0.40343642 -0.032101892 -0.15384348 0.67841613 -0.045160282 0.28260285 0.57901627
-0.053649604 0.087497756 0.60182375 0.49687326 -0.29390115 -0.024325827 -0.2571013 -0.021172656
0.4103015 0.51894075 0.14351802 0.019452259 0.3747433 0.21381073 -0.5637928 0.3862457
0.34949845 0.48117936 0.34679046 -0.29813156 -0.30454594 -0.009310028 0.16667654 0.32142526
-0.5244533 0.08488292 -0.5769822 -0.035109617 -0.31138265 -0.048096936 0.4790819 0.69434255
-0.17582393 0.12643832 0.05268779 -0.26427567 0.14547512 0.37910476 0.14316463 0.46914107
0.51934654 0.10691073 0.28559276 0.05847992 0.66861725 -0.28451446 -0.45364252 0.62764573
-0.3531535 -0.007913873 -0.006130747 0.51621175 -0.082309216 -0.15996508 -0.02071524 0.13310139
-0.29185468 0.57009995 0.32885215 0.3568073 -0.3536517 -0.11484845 0.1862237 0.27783725
0.6079799 0.5032652 -0.40607366 0.081149675 -0.15977678 -0.051228825 -0.4039655 -0.39341828
0.4883714 0.17500106 0.07258325 -0.19265549 0.10349389 0.52768487 -0.36582187 -0.5506709

shared_layers.0.bias f4 [64]
00000000: 6d43 febe d038 773e 9055 c7be 4737 9a3d
00000010: a390 59be 72a6 37be 56a7 cebe da80 c43d
00000020: ff42 843e 3704 8dbe f5e9 ae3e 3f15 eb3e
00000030: 3e0a a8be 49fd 58be 8170 0b3f 5406 ce3e
00000040: 0f56 8fbc 94d8 fdbe beca 0d3f 2945 863e
00000050: fad7 58be 3109 10bf e463 8a3e d656 4bbd
00000060: 0c5c 84be 1bbd 063e 2914 703e 3f41 07be
00000070: 6348 6d3e 5466 8ebc ef71 d2bd 71ea bf3e
00000080: 3a7c dfbe 257d 043f 84c1 ac3c 7d2b 7f3d
00000090: a068 39bd 7e84 9f3e 94ba 8b3e f090 b7be
000000a0: 2b7f 3e3d 5002 5c3e f341 f6be 9bd7 cb3e
000000b0: 4d62 bbbe 1785 00bf cfd2 b7bc d021 383e
000000c0: d23c 7b3b d25f 02bf 3b82 0fbf 8191 823e
000000d0: d853 a83e 8581 243f b9f1 933e 5b5a e5bc
000000e0: 593c 963e e32b 05bf fc3b 1a3f 9d0e 4d3e
000000f0: 707d bb3c 38d1 cebe da30 00bf ec3c 09bf
-0.49660817 0.24142766 -0.38932467 0.075300746 -0.21246581 -0.17934588 -0.40362042 0.09594889
0.25832364 -0.27542278 0.3416287 0.45914647 -0.32820314 -0.2119037 0.5446854 0.40239203
-0.01749709 -0.49579298 0.55387485 0.2622464 -0.21176139 -0.56264025 0.27029335 -0.04964336
-0.25851476 0.13158076 0.2344519 -0.13208483 0.23172145 -0.017382778 -0.10275637 0.37483552
-0.43649465 0.51753455 0.02108837 0.062297333 -0.045265794 0.3115577 0.27290785 -0.35852766
0.046507996 0.21485257 -0.4809719 0.3981293 -0.36598435 -0.5020308 -0.022439389 0.17981648
0.0038335812 -0.5092746 -0.5605809 0.25501636 0.32876468 0.6426013 0.28895357 -0.027997186
0.29342917 -0.5202009 0.6024778 0.20025106 0.022886962 -0.40393996 -0.5007454 -0.53608584

shared_layers.2.weight f4 [32, 64]
00000000: 7ad2 803d 9476 6ebd 98be 02bd fbd8 2f3e
00000010: c04b 1dbb 804d 38bc b62e a33d 8c3d 40bd
00000020: 0014 e73a d477 fc3d 4b6b 8b3d 192f 4f3e
00000030: 60f0 24bd a496 cabd 1f16 383e 3062 a73d
00000040: 4438 a33c 50c3 8f3c af89 f5bc b063 62bc
00000050: 3865 0cbd 9063 4e3d 0df9 783d 405a c6bb
00000060: 743f 8fbd 20d3 ff3c 1a3f f93d 9497 ef3d
00000070: 4678 383e 4077 e6bc e406 653e a0ee ae3d
00000080: 1c27 5bbd 5d07 b83c 0260 163e 701b 5d3d
00000090: 2916 8f3d 24f7 433e 68b7 2c3e 647d 493d
000000a0: a085 183e 1e84 d9bc 980a 733d 00cb 433e
000000b0: 76e0 f8bd 166c 85bd 7280 babd da35 4d3e
000000c0: b4ab ea3d 789d 7dbd a646 d0bd 8b68 273e
000000d0: 08a7 61bc 0e20 24bb f998 233e 3299 d43d
000000e0: 6f87 103e 4819 c7bd 2205 b43d faf2 353e
000000f0: 00ec 34ba bc08 b43d 2c53 1dbd 38ff b4bc
00000100: f87c 553d 4450 d6bd c469 443d 1393 d0bc
00000110: ec4a 1d3d 6c8d fcbd e011 363c aef5 d4bd
00000120: 4076 1d3c ba95 c83d b7af 223e ba24 323e
00000130: 20a8 d63b 5cf2 efbd 79d2 66bc 0c0a 34bd
00000140: 8671 d63d 0028 afb8 1ce3 4d3d 826b da3d
00000150: 78da f83d 74ce 0fbd 7c2e d13c 84ca 22bd
00000160: 4a36 d43d 3030 af3c 8cf0 dc3d 004e a63a
00000170: 5049 963c 406e 88bb c77b 673e 1705 fe3d
00000180: b002 c0bd cfab 3e3e a530 283d f767 573e
00000190: 32f1 18bc ff4e c7bc f3f7 153e 5e50 e33d
000001a0: c01d 223e 419f 5d3e eee6 a3bd 49cd 593e
000001b0: 4856 f3bc e8b4 583d de06 953d 59a5 5b3e
000001c0: 16ff ef3d 6020 0dbd 3455 03bd 449e 273e
000001d0: 0e59 4d3c fe8f ddbc 5337 e53d 68eb 313d
000001e0: 8a83 483e a02e a4bd a521 03bd d267 b13d
000001f0: 0092 f33c 1092 093c 1897 153d 7803 67bd
00000200: 24d8 f5bd d039 0c3c 646b 8abd 4f59 e6bd
00000210: 60c2 14bc 682f bf3d 5098 08bd 245d cebd
00000220: 3800 bd3c 4062 663c 0b92 443d e470 ac3d
00000230: b821 c73c ec0d 85bd e995 533d 6224 b13d
00000240: 6c66 f0bc 047d df3d 89e7 e6bb 4449 783d
00000250: 2091 b63d 4cba 5cbd 711f a53d fa7c edbd
00000260: d09b aebd 883d f6bc f0d6 e1bd 8e82 d33d
00000270: f032 c63c 066e ce3d e2d2 83bd 5e09 9d3c
00000280: 7ce5 b0bd 94af 9cbd 9cf9 0dbe faed 15be
00000290: 53c8 83bd 13ab 2f3d 7c09 9b3d ce4a 98bd
000002a0: 7802 413c 8cf8 09be a86c 913c ab4c 3f3d
000002b0: d666 b23d 10c5 c93d d039 74bc b837 67bd
000002c0: 0a4c d23d 1c7b 51bd 705b f03c 1509 b8bd
000002d0: e4fb aebd 7a17 96bd 0ee7 d4bd b494 d8bd
000002e0: c33f 09be e0eb ec3c ff02 f0bd f430 423c
000002f0: 0476 a6bd 7cf7 ee3d 74a5 b53d d620 c5bd
00000300: bc53 68bd 66f6 9dbd cc33 633d a3f1 683c
00000310: 402e 60bd 48da 3c3d a0ac d6bb c0a9 0a3c
00000320: f2b3 db3d a06b b9bc a2bb 2b3d 70df 083e
00000330: 886d 493d dc49 563d a633 063e d65f f3bd
00000340: 8fe1 603d f00f 4d3c d494 613e fc73 efbd
00000350: 527d 9ebd 70e0 393c d7c2 a53d 4a81 9c3d
00000360: b2ac dd3d 3011 993c a4fb 033d 32e9 c5bd
00000370: 4bab 5c3e 88b6 3abd 72a2 e53d 6986 933e
00000380: b254 943d 82ac 6c3e f30f 3d3e 2100 273e
00000390: d679 ec3c 8112 fb3c c2d5 c83d 7cd9 5dbd
000003a0: 7691 073d 3b42 d53d b672 e3bd 484f eb3d
000003b0: acdb d4bd 8e06 8cbd bae8 cbbd 2e73 b53d
000003c0: c830 8f3c 40d6 903c a88a c7bd 4396 a83d
000003d0: be85 553e b48f c93d 6757 273e 8c86 05bd
000003e0: 1803 833e 6404 d5bd d7af a63d 8227 133d
000003f0: f4e2 00bd cccf 7dbd c8cf 80bc 52ca cdbd
0.06290145 -0.058218554 -0.031920046 0.17172615 -0.002400145 -0.011248946 0.07967894 -0.046933696
0.0017629862 0.12327543 0.06807574 0.2023281 -0.040268302 -0.09892014 0.17977189 0.08173025
0.01992429 0.017549187 -0.02997288 -0.013817713 -0.034276217 0.05038792 0.06078439 -0.006053239
-0.069945246 0.031228602 0.12170239 0.11698833 0.1801463 -0.028133035 0.2236591 0.08541608
-0.053504094 0.022464449 0.14685062 0.053981245 0.069866486 0.19137245 0.16866839 0.049191847
0.14894724 -0.026552256 0.059336275 0.19120407 -0.121521875 -0.065147564 -0.0910653 0.20040074
0.11458531 -0.061917752 -0.10169725 0.16348474 -0.0137727335 -0.002504352 0.15976323 0.10380782
0.14114164 -0.09721619 0.087900415 0.1776847 -0.0006901622 0.087907284 -0.038409397 -0.022094354
0.052121133 -0.10464528 0.04795243 -0.025460755 0.03840153 -0.123316616 0.01111266 -0.10398422
0.0096107125 0.09794183 0.15887342 0.17396823 0.006550804 -0.11716148 -0.0140882665 -0.043954894
0.104708716 -8.352101e-05 0.050265417 0.10665037 0.121510446 -0.035109 0.02553486 -0.039743915
0.10361917 0.021385282 0.10788068 0.0012688041 0.018345505 -0.0041635334 0.22605811 0.124033146
-0.093755126 0.18620227 0.041062016 0.21035753 -0.009334849 -0.02432966 0.14645366 0.11099313
0.15831661 0.21642782 -0.08003031 0.21269716 -0.029704228 0.0529069 0.072767004 0.21449794
0.11718576 -0.034454703 -0.032063678 0.16368967 0.012533439 -0.0270462 0.11192193 0.04343739
0.19581428 -0.080167055 -0.032014508 0.0866238 0.029732704 0.00839664 0.036521047 -0.056399792
-0.12004116 0.008558705 -0.067587644 -0.11247503 -0.009079546 0.09335214 -0.03334838 -0.10076359
0.023071393 0.014061511 0.04799084 0.0841997 0.02430807 -0.06496796 0.051656637 0.086495176
-0.029345714 0.10912517 -0.007046644 0.060616747 0.08914399 -0.053888604 0.080626376 -0.11596103
-0.085258126 -0.030058637 -0.11027324 0.10327636 0.02419421 0.10079579 -0.06436707 0.019169506
-0.08637521 -0.07650676 -0.1386475 -0.14641562 -0.06434693 0.04288776 0.075701684 -0.07436143
0.011780374 -0.1347372 0.017752007 0.046703976 0.08711021 0.0985204 -0.014906362 -0.056449622
0.102684096 -0.051142797 0.029340476 -0.08986107 -0.08544138 -0.073286965 -0.10395633 -0.10575238
-0.1340323 0.028921068 -0.117193215 0.011852492 -0.081279784 0.11668298 0.08869448 -0.096254036
-0.05672048 -0.077130124 0.05546932 0.014217767 -0.054731607 0.046106607 -0.00655134 0.008463323
0.10727681 -0.022634327 0.041926987 0.13366485 0.049176723 0.05231653 0.1310564 -0.11883514
0.05490261 0.012516007 0.2202943 -0.11692044 -0.07738747 0.011345014 0.080938034 0.076418474
0.10823955 0.018684953 0.032222405 -0.09663619 0.21549718 -0.04558423 0.112126246 0.28813484
0.07242717 0.23112682 0.18463115 0.16308643 0.02886669 0.030648472 0.09806396 -0.054162487
0.033097707 0.10413023 -0.11105864 0.11489731 -0.103934616 -0.06837188 -0.099564984 0.088598594
0.017479315 0.017680287 -0.097432435 0.08231785 0.208518 0.09841862 0.16341935 -0.032599017
0.25588298 -0.10401228 0.081390075 0.03592635 -0.03146644 -0.06196575 -0.015724078 -0.10048355

shared_layers.2.bias f4 [32]
00000000: eb67 403e 31cc 4b3e 82b9 a33d 7d70 033e
00000010: c141 dd3d 1752 593d 881e 803d 90c6 8cbd
00000020: 8071 c73c cbd6 853c c3c1 423d 2b80 88bc
00000030: c01b 60bc e99b 9f3d 8ea5 6c3e d09e f7bc
00000040: b0d2 d0bc fed4 c4bd 1637 f8bd d0b9 dc3d
00000050: a040 e5bb fa46 c13d 1667 e73c baf0 fbbd
00000060: e0a3 d6bd 1b68 dd3d 84ae f4bd dc57 4bbd
00000070: 9c5a 043e e47e ab3d 0c3a c0bc a870 ecbc
0.18789642 0.19902112 0.07994367 0.1283588 0.10803557 0.053056803 0.062558234 -0.0687381
0.024346113 0.016337773 0.047548067 -0.016662678 -0.013678491 0.077934094 0.23110029 -0.030227095
-0.025491089 -0.096109375 -0.12119882 0.107776284 -0.0069962293 0.09437366 0.028247397 -0.12301774
-0.104804754 0.10810872 -0.11947349 -0.049644336 0.1292519 0.08373812 -0.023465179 -0.028862312

shared_layers.4.weight f4 [8, 32]
00000000: b87f 94bd b31f 4dbe fb89 f03d 48eb 7bbe
00000010: 2d67 f7bd fcd1 87be 271b 14be 302f c2bd
00000020: 211c 56bd d3fa 143d 54fb 323d ff83 233d
00000030: 1702 f83d ef5f 1f3e e43f e2bd 9691 323e
00000040: 69e3 153e 8249 173e 3652 f6bd 5c2f 19be
00000050: 7690 8dbc d717 3c3c cc36 5bbd a526 be3b
00000060: 7132 c7bd 7f40 9fbc 9b2c da3d 1721 ca3d
00000070: 2c71 84be 0802 d5bd 2f38 17be e004 aabd
00000080: 3d92 6f3e 3a38 713e 6115 19be f038 513e
00000090: bd9a 363e 7dc9 303e 0e30 843d 7195 5bbd
000000a0: 63fc 5b3e 6a9d 12be d8c7 483d ecd7 86bd
000000b0: 2827 a03d 1632 8f3d 6ed1 253d 039f e3bd
000000c0: 9044 a1bc 350c c8bd 0f95 2ebe c80e 5bbd
000000d0: 34f3 e3bd 361b 1f3e 6131 cf3c 2695 5cbd
000000e0: da35 fabd d301 d63d 584f c33c 9ade 153e
000000f0: cb47 9abc a0a6 263e 5702 4c3e 90df 16be
00000100: 2c25 70bd 7681 85be 7816 ffbd 152b 97bd
00000110: ecae 6cbe be2f 00be 97d4 09be d676 093e
00000120: 781c cebc 336e 4cbd f344 5ebd 76a0 da3d
00000130: 490c 8fbd 3585 cc3d 642b 46be fb71 e7bd
00000140: a780 b03b 74d1 bc3d c43c 7d3d 2c3d 12be
00000150: a083 163e f7d9 55be 10b5 8e3d 7311 15be
00000160: 44c8 4a3d 1f03 5abe 6d4e 1b3e 8798 133e
00000170: 90a5 22bd 7a4b 02be 5cd6 cabd 7952 043e
00000180: 9b2e 72be db3d 16be b571 debd 8164 88be
00000190: b695 52be 7277 05be 5e8d 2abb 69ee 113e
000001a0: b91d 3bbe 3bf5 e73c 490b a4bd ffee 4c3d
000001b0: e75a 473d ac9f 763d b721 3cbe 9332 e43d
000001c0: e3bc 20bd 54b5 27be 5de1 0cbc a6f7 f83d
000001d0: 31ea 16bc 9ecd 24be 298a a33d 0bf2 b23c
000001e0: bebb 9b3d 4e72 61be d184 913d 1a40 873d
000001f0: 102c 37be ddb0 0bbd a776 bcbd d101 cb3d
00000200: 1d42 2ebd 825b 283c 861e 87bd 801b 81bd
00000210: be72 d8bd e810 3ebe 39cd 0fbe ebb7 eb3c
00000220: 20f4 0ebe 65d2 00bc 1e16 c23d 1534 0d3e
00000230: 846e 1dbe 429a a33d 2b05 e2bd 8ffa 00be
00000240: 5c55 fdbc 43f0 cebd bfc7 a23c dbbc a73d
00000250: 1149 28be a9dd 40ba f431 2dbe beef d03d
00000260: cd02 6d3c fd05 7dbe 2af1 c2bc 0cd7 20be
00000270: 7a36 a8be 6108 08be 6a59 67be 147c d03d
00000280: 6eb1 35be 392e abbc 4522 8d3d 6ec4 8dbd
00000290: 6675 573d eb3a b2bd 1dfa bebc 63e9 b13d
000002a0: 1d17 6fbe a097 38bd 2c1c 3fbd 9d28 893d
000002b0: e320 83bd 55b8 d9bd f36c 1fbe 6662 243e
000002c0: 6748 04be 1f52 d93d 7ff0 653d 6253 5c3c
000002d0: e80e 4cbd 6028 88be 3780 2a3e 1365 243e
000002e0: 1e3b 183e 7936 64be 9576 81bc 66da 7abd
000002f0: 241f aabe 8866 2c3e 2f49 afbd d8ac 4ebd
00000300: 88bb 1bbe 7a51 d3bc 9823 1d3d 0fb0 84bc
00000310: 4058 033e 35d8 45bd bfd8 f5ba 2201 0abe
00000320: 2dc8 f7bd 736e 8d3d 6ddc c63d 115a f03c
00000330: e7dd 3dbc 9769 1b3e 1ce7 833c 3a83 93bd
00000340: 6b7f e03d 4e0d 953d 74f6 dcbd 18b2 7bbd
00000350: 7017 36bd e679 c4bc 9d82 103d 0562 a5bd
00000360: ee9b 433d 54d1 1ebe ec9e 6c3c bf9e 28be
00000370: 7610 c7bd c0ad 95bd 82ce da3c bd3e c33d
00000380: b201 d8bd 811f 75bd 9bb5 ed3d 0da0 35be
00000390: 660c 55be 3b08 1bbe 7c05 b43d bb17 eebd
000003a0: 915e 5ebe 15a5 133e 8c4f 163e 5b21 0d3e
000003b0: e280 1abe 72cb e43d 22bf 6bbe a228 be3c
000003c0: 4ebb 31be aecd 13be 9f8e e2bc d5e6 04be
000003d0: 2f5e bcbd dd5e d2bd 50a1 1c3e 4eb6 82bd
000003e0: 86a8 50bc 4a8c 19be 3c29 3d3d accf 1ebe
000003f0: 4e54 91be 3b1e 7c3b 265d 52be bd72 21be
-0.07250923 -0.20031624 0.11745068 -0.24601471 -0.12080226 -0.26527393 -0.14463483 -0.094816566
-0.05227292 0.036372017 0.043696716 0.039920803 0.121097736 0.1556394 -0.110473424 0.17438349
0.14637531 0.14774135 -0.12027399 -0.14959472 -0.017280798 0.011480293 -0.053519055 0.0058029466
-0.09726418 -0.019439934 0.10653039 0.09869593 -0.25867593 -0.10400778 -0.14767526 -0.08301711
0.23395629 0.23556605 -0.14949562 0.20431876 0.17832465 0.17264362 0.06454478 -0.053609315
0.21482997 -0.14317861 0.04901871 -0.065841526 0.078199685 0.06991975 0.04048293 -0.111143135
-0.019686013 -0.09767953 -0.17049049 -0.053480893 -0.11130372 0.15537724 0.0252921 -0.053853177
-0.122173026 0.10449567 0.023841545 0.14635697 -0.018833062 0.162745 0.19922768 -0.1473372
-0.0586292 -0.26075333 -0.124554574 -0.07381264 -0.23113602 -0.12518212 -0.13460003 0.13424239
-0.02516006 -0.04990978 -0.054264974 0.10675137 -0.06984765 0.09986345 -0.1935249 -0.11301037
0.0053864303 0.092196375 0.06182553 -0.14281148 0.14698648 -0.20883928 0.06968129 -0.14557438
0.049507394 -0.21290253 0.15166636 0.14413653 -0.039708674 -0.12724105 -0.09904167 0.12922086
-0.23650591 -0.14672033 -0.10861532 -0.26639178 -0.20564923 -0.13033846 -0.0026024203 0.14251103
-0.18273057 0.028315177 -0.08009965 0.050032612 0.048670676 0.06021087 -0.18372236 0.11142459
-0.039242636 -0.16377765 -0.008598653 0.1215661 -0.009211109 -0.16094062 0.07985336 0.02184393
0.07604168 -0.2201626 0.07105411 0.06604023 -0.17887902 -0.034104217 -0.09202319 0.09912456
-0.04254352 0.010275723 -0.06597619 -0.06304073 -0.1056876 -0.18561137 -0.1404313 0.028774222
-0.13960314 -0.007862662 0.09476875 0.13789399 -0.1537419 0.07988407 -0.11036142 -0.1259558
-0.030924492 -0.1010442 0.019870637 0.08190318 -0.16434123 -0.00073572487 -0.16913587 0.10201977
0.014466 -0.24709316 -0.023796637 -0.15707034 -0.32854062 -0.13284446 -0.22592703 0.10179916
-0.17743465 -0.020896064 0.06891302 -0.069222316 0.052602194 -0.08702644 -0.023312623 0.08687093
-0.23348661 -0.045066476 -0.046657726 0.066971995 -0.06402757 -0.10630862 -0.15568905 0.16053161
-0.12918244 0.106113665 0.056137558 0.013447614 -0.049818903 -0.26593304 0.16650473 0.16054182
0.14866301 -0.22286405 -0.015803615 -0.061243437 -0.33226883 0.16835988 -0.085588805 -0.050457805
-0.15208256 -0.025795687 0.038364023 -0.016197233 0.12826633 -0.048301894 -0.0018756612 -0.13476995
-0.120987274 0.06905832 0.09710012 0.029339822 -0.01158855 0.15176998 0.016101412 -0.07202764
0.10961803 0.07277928 -0.10789195 -0.06144914 -0.044455945 -0.023983907 0.035280813 -0.08075336
0.047756128 -0.1550954 0.014442187 -0.16466807 -0.097199365 -0.07308531 0.026709799 0.09533451
-0.10547198 -0.059844498 0.11606904 -0.17736836 -0.20805511 -0.15139858 0.087901086 -0.1162562
-0.21715762 0.14418443 0.14678782 0.13782255 -0.15088227 0.111716166 -0.2302213 0.023212735
-0.17356607 -0.1443393 -0.027655898 -0.1297868 -0.091976516 -0.10272 0.15295911 -0.06382428
-0.012735492 -0.14994922 0.046181902 -0.15508908 -0.28384632 0.0038470167 -0.20543346 -0.15766425

shared_layers.4.bias f4 [8]
00000000: f06d c5bd 78f2 6c3e 800b 45be 70f9 c9bd
00000010: cde3 f3bc 2709 23be 7554 a03d 7e4b cabb
-0.096401095 0.2313937 -0.19242668 -0.098620296 -0.02977171 -0.1592146 0.07828609 -0.00617355
