training/models/C4_controller_acc0.819_lat0.006_succ20_small5_large8_carb7_cap610_rate0.000269_best_model.pth (torch, 16557 bytes, 6 tensors)

shared_layers.0.weight f4 [64, 3]
00000000: 39d7 c63e b5b5 0a3f ae53 7a3e 5466 f83e
00000010: e859 42be 1aa4 193f 86e3 07bf dda1 e13e
00000020: 52a0 c63e caf9 3d3d 2a2c dc3d 9d39 063e
00000030: fa95 ffbe bbad da3e abd4 513a ed46 283f
00000040: 07bc a53e b761 2b3e c6e8 3ebe c41d 873e
00000050: 74e4 82be a630 bdbd 290e 08bf 4d3d 82be
00000060: 28e2 2c3f 39b0 6ebd 4bcd 123f 442a 8ebe
00000070: 5a36 8c3e 528f 0e3d a42a 54be a73e 0fbf
00000080: ab87 8cbd d71b a1be b4dc c63e 8746 fe3e
00000090: cf3a 233f b5b6 0e3e fd2d f9be fbf0 c8be
000000a0: 61ac c1be 9d79 bd3d 872e 87be 04f5 4ebe
000000b0: de6d c83e c14c 99be e351 c23e 9128 f03e
000000c0: 5b2b fbbe a9be 6ebe 1424 8e3c 4f13 a73d
000000d0: ff12 72bd 90ed 86be 6fc0 90be eccc 0d3f
000000e0: 0255 093f 2531 af3b 9772 00bf f39e fa3e
000000f0: 458f 87be 6400 db3d 9310 b4be 7bc6 773d
00000100: a5af 073f 288c 193e d2a9 8c3e faf8 ce3d
00000110: 353e fc3e 17bf e73d f16c f63e 44df babe
00000120: ab43 b43e 6c1a 8e3e b2a8 143f e76c 89be
00000130: 1dcf 39be f7aa 44bc ec3f 213f 2ba2 063f
00000140: 57ce 363e f096 e83e 3763 c6be 5bdf 463c
00000150: 25f8 e43e fcc1 cebe cb6c afbe 2ed9 eabd
00000160: 7d6a f7be 3301 fdbe 1c2d 9bbe 9f11 203f
00000170: 4392 ef3e d219 febe 7f2e 19bc eed5 ddbe
00000180: c04f 69bc 8818 08bf e59b fc3e 9ec3 1f3e
00000190: 242e ee3d 3fc0 8abe 41b5 0f3f e58c 1fbe
000001a0: f23b edbe c2d6 093f 496c 003f 9639 c03e
000001b0: 8650 acbe dba0 453e d5ee dd3e 9b3c 6abe
000001c0: 2e6a 283f c833 02bf 955d debc 9ae4 bcbe
000001d0: ee32 fa3e 034c 32bd 810f aabe f7b6 06bf
000001e0: 430d 00bf 582e d8be 2f94 043d 3907 323f
000001f0: f4c0 1e3f 15e0 ca3e 6107 983d 4883 a03d
00000200: de05 fa3e 96b7 553d bfab a9be b9e1 883e
00000210: fb93 30be 3c59 483e bd11 b43e 75f0 6e3d
00000220: 0882 8d3e e8ce eebe 4a93 ddbd c195 253f
00000230: 2f93 053f 32ab bb3d baaf e83e 3883 a23e
00000240: 21c0 9fbe 50cf 8d3e d807 b93c b3c2 6a3b
00000250: 990a 3c3c 554f 4bbd f077 163f 3364 2cbe
00000260: 8065 36be a874 e43b a2e3 eb3e 3eb5 883e
00000270: 38a9 35be 91fa 113f dc23 0b3e 3550 a83e
00000280: ebb8 7cbd 2cea 01bf 1e05 64be b613 3f3e
00000290: ac46 ebbd b728 133e 94b8 943e 48e4 92bd
000002a0: 66e5 dabd f234 9a3e 9aaf a03e bdca c93e
000002b0: 00af c73e 3b28 1a3f 963d 523d 3ac9 e2be
000002c0: 03d5 81bd 53e5 a53e 2457 23be 8f23 9c3e
000002d0: a42f 09be 2be1 cbbe 737e e63e ece6 e2bd
000002e0: 1de9 bdbe 3ce0 a23a e201 823e 0160 70be
000002f0: e32f 073f cd24 283e 1b1d c63e 6bf1 74bd
0.38836077 0.5418351 0.24445984 0.4851557 -0.18979609 0.60016024 -0.5308155 0.44068804
0.3879419 0.046380796 0.10750611 0.13107915 -0.4991911 0.4271067 0.0008004407 0.65733224
0.32370016 0.16736494 -0.18643484 0.26389897 -0.2556492 -0.092377946 -0.53146607 -0.25437394
0.6753259 -0.058273528 0.573445 -0.2776662 0.27385217 0.03480465 -0.20719391 -0.55954975
-0.06861814 -0.31466553 0.38840258 0.49663183 0.6376161 0.13936885 -0.486679 -0.39246354
-0.37826827 0.092517115 -0.26402685 -0.20210654 0.39146322 -0.2994137 0.379531 0.4690595
-0.49056515 -0.23314919 0.017351188 0.0815798 -0.059100147 -0.2635312 -0.28271815 0.5539081
0.53645337 0.0053464347 -0.5017485 0.48949394 -0.26476493 0.10693434 -0.35168895 0.06049202
0.5300239 0.14994872 0.27473313 0.10106082 0.4926621 0.11315744 0.4812999 -0.36498463
0.35207877 0.27754533 0.5806991 -0.26840898 -0.18145414 -0.012003652 0.6298816 0.525912
0.1785215 0.45427656 -0.3874757 0.012138213 0.4472057 -0.40382373 -0.3426269 -0.11467205
-0.48323432 -0.49414977 -0.30307853 0.6252689 0.46791276 -0.49629074 -0.009349464 -0.43327278
-0.014240205 -0.5316243 0.49337688 0.15601966 0.116298944 -0.27099797 0.56135947 -0.15581091
-0.46334797 0.5384332 0.5016523 0.37543935 -0.33655185 0.19299643 0.43346277 -0.22874682
0.6578702 -0.5086026 -0.027144233 -0.3689316 0.4886698 -0.04352952 -0.33214954 -0.5262293
-0.50020236 -0.42222857 0.03236788 0.6954227 0.62013173 0.39624086 0.074232824 0.0783754
0.488326 0.052177034 -0.33138844 0.26734713 -0.1724395 0.1956529 0.35169783 0.058334786
0.27638268 -0.46642232 -0.10819109 0.6468163 0.5217771 0.09163512 0.4544657 0.31740737
-0.3120127 0.2769723 0.022586748 0.0035821616 0.011477136 -0.049636204 0.5877676 -0.16835098
-0.17812157 0.0069719143 0.46072108 0.26700777 -0.17740333 0.5702296 0.13587898 0.32873693
-0.06169979 -0.5074794 -0.22267577 0.18659863 -0.11488089 0.14371 0.29047072 -0.071724474
-0.106882855 0.3011852 0.31383973 0.3941249 0.39000702 0.60217637 0.051328264 -0.4429415
-0.06339457 0.32401523 -0.1595121 0.3049588 -0.1339708 -0.39820227 0.45018348 -0.11079201
-0.37091914 0.0012426446 0.2539206 -0.23474123 0.52807444 0.16420288 0.3869408 -0.059800547

shared_layers.0.bias f4 [64]
00000000: e9b7 88bc 9610 8f3e 602f 543e d2d1 433e
00000010: 8b4a 72bd 35e8 e73e 0646 0cbf 28e8 3e3e
00000020: e278 2a3f 4059 12bf acdd 933e 7805 c13e
00000030: 9c95 d13e 88e6 a23e c8fd a3be fba3 5dbe
00000040: fa6f d23e 5852 0c3f 547a 81be 9cf3 e7be
00000050: 237e 38bd b0aa 2f3e e3ac 103f 817d f63d
00000060: 29a6 7d3d 4cfc b8be 7628 203f 3d33 fe3c
00000070: 8381 babe ef84 143e 0f1b dd3e 13f0 1ebe
00000080: c3b3 883d 8dae 00bf 5762 113f 0155 bebd
00000090: f267 273e 2954 ff3e 880c 08bf 946b 27be
000000a0: 0dc5 743e 8d42 8fbe d64c c83d 92d4 a3be
000000b0: e357 b6bd c75b 0bbf 7369 0a3f 4570 003e
000000c0: f61a 853e 5acf d9be 01a1 af3e f22e d93b
000000d0: 1745 edbe 8293 da3e aaa6 cc3e 17d2 b53e
000000e0: 70b4 9fbe 021d a5bb 9967 1e3f 6aa8 293e
000000f0: 8356 623e dfcf 21bd 7c63 31be 8bda c03e
-0.016689258 0.27942342 0.20721197 0.19123009 -0.05915312 0.45294347 -0.5479435 0.18643248
0.665907 -0.57167435 0.2888006 0.37699485 0.40934455 0.31816506 -0.32029557 -0.21644585
0.41101056 0.54813147 -0.2528864 -0.45303047 -0.04504217 0.17154956 0.56513804 0.12035657
0.06192604 -0.36129987 0.6256174 0.031030292 -0.36426935 0.14503835 0.43184707 -0.15521269
0.06674912 -0.50266343 0.5679068 -0.09293557 0.16348246 0.49868897 -0.5314412 -0.16349632
0.23903294 -0.27980462 0.0978028 -0.31998116 -0.08903482 -0.54436916 0.5406715 0.12542827
0.25997132 -0.4254101 0.34302524 0.006627911 -0.46341774 0.42690665 0.39970905 0.35511848
-0.3119235 -0.0050388584 0.6187683 0.16568151 0.22103314 -0.039504882 -0.17323107 0.37666735

shared_layers.2.weight f4 [32, 64]
00000000: 5d27 163d e822 aa3d 725d 3bbd d7d7 06be
00000010: 14f0 abbd 5af0 0fbe e815 cebc 34bc 373d
00000020: aba9 a93d 3403 9cbd d04c 493c 5dcd 0bbd
00000030: 74bf fabd fee9 b2bd b424 8cbd a274 f4bd
00000040: 385b f73c bcf1 91bd 7097 733d b481 233d
00000050: 208a 213d 6774 bbbb 6baf 363d f1bf dfbd
00000060: aa9b b03d 7e8a 8d3d 45e2 babd 1320 893d
00000070: 128a e8bd 0083 93bb ff52 013d d8fe 0f3d
00000080: 884e a5bd dc15 913d 8589 4c3d faf8 2f3c
00000090: 0fd7 983d cc47 b33d 2a29 893d da3e c73d
000000a0: 0c23 703d fc15 f3bd fc1c dabb d26c 83bd
000000b0: 4439 cd3d 60cc 403c 6443 66bd 468e b23d
000000c0: 778a 7f3d 8059 e03a 029e 843d f3e7 b33b
000000d0: eeaf cfbd 6894 a33d 28a7 bebd 680a a23d
000000e0: 82c3 cdbd ff7a 213d a10e d8bc 4a89 fcbc
000000f0: 24c0 ae3d e0a7 243d 6966 d73c 7bf7 73bd
00000100: d3b0 323e 7e4d c73b bea5 0e3e ae7a 293e
00000110: f80f 02bd b495 503e c0ff e03c 026d 903d
00000120: 7f8d ac3d 787f 88bc c6c6 bf3d 1a80 ab3c
00000130: f03e 313e 1c04 d33d 58d4 ad3c 6020 d1bc
00000140: f298 adbd 653c 913d a004 043d 24fe 76bd
00000150: 9c0d 97bd a866 babb e4bf df3d 08a0 8fbc
00000160: 5df0 333e c87e b1bd 2e7b de3d fcd5 8c3e
00000170: d8c2 babd 3860 243d 3ae5 253e 9048 bfbc
00000180: e646 873d 6c43 b43d cc80 a43d e853 613e
00000190: 07bf 0b3d c0d2 483e 807a 673c 4022 a73b
000001a0: 5a22 e8bd 5255 f03c 64a3 523e e243 c03d
000001b0: fc67 3ebd 0a5e aabd e26c 413c 7509 91ba
000001c0: be5f 193e 96b4 d5bd 86ff 493e 2260 ca3d
000001d0: eaa9 aabd b40d f53d 5efa 6d3b abb3 dd3c
000001e0: 086e 503d 21e1 953d 5123 1d3e 2115 ce3d
000001f0: fe21 d23d 002f 15bc ff59 703d 6fea 983d
00000200: 945f 5f3d 70cb 49bc 008c 8739 00b5 cfbb
00000210: dc5b ef3d 7065 63bc 6c98 1cbd 364b a9bd
00000220: 04f9 98bd 9879 763d 64f2 24bd f893 16bd
00000230: 40a3 59bd 084c eabd 70f9 2b3d 90d0 833d
00000240: ec9a 1f3d 2edd fc3d ac72 e9bd dccf a7bd
00000250: 1035 bebc e616 f1bd a49f 693d 12e6 f63d
00000260: e082 0f3d 660c c3bd 3e38 b1bd 164f 8f3d
00000270: a8ae cb3c 0872 08bd d8b5 fa3c c0f6 073d
00000280: 4022 0dbd 102f e13c 80e6 d6bd c8f4 153d
00000290: b089 6a3d a4b2 d23d 6a17 9d3d 982f 2bbd
000002a0: 60b3 d83c 761c a93d c815 cfbd 0c9c 92bd
000002b0: de72 b3bd 46f6 df3d 7e72 d13d f2bc ecbd
000002c0: 0812 f0bd cab7 d0bd 0c55 143d 2c69 34bd
000002d0: 16cd 96bd 8c8e 4e3d 98e1 713d c807 8bbd
000002e0: 9092 01bd 0a9b f23d f0c1 06bd ac7c b1bd
000002f0: 9078 c03d f40c dd3d 36e0 9ebd fc7b babd
00000300: a835 933d 34df ab3d db03 aabd de01 e33d
00000310: 0c7d b1bd 70bd a23d 7619 bebd 9e40 973d
00000320: e804 b5bc 9c8a 8a3d 7831 703d 08c6 bbbd
00000330: e106 53bd 680d c0bc 4c60 1d3d 08b6 4b3d
00000340: f200 adbd 10db a0bd 9211 9bbd c807 153d
00000350: 220e 93bd 5783 6e3d 2b98 9ebd 8b2f 17bd
00000360: 07b0 b1ba 3ca4 e0bd 9af5 c1bd 6835 373d
00000370: 104f dcbd f48a d1bd 2f99 6c3c 3c0e 2ebd
00000380: 02cf c93d bcd1 b7bd f902 f83c 950c dc3d
00000390: f403 153b 7f2c 183c 226a b4bd 60d6 933d
000003a0: 3659 d33d 9148 a9bb 9eac 3d3d f844 75bd
000003b0: a86f 723d 4ac3 fe3d bdf0 dbbb 78d0 39bd
000003c0: 978a 2f3c 0023 b8bd 438e 44bc 7b99 cf3c
000003d0: 60b1 bbbc 7efa c8bd 8258 9f3d 8c54 1dbc
000003e0: 9061 813d 035a d5bd a104 663d 3e28 bfbd
000003f0: 92cc e93d 18a3 3abd 2afe b9bd 6033 873d
0.036658634 0.08307439 -0.045743413 -0.13168274 -0.08395401 -0.1405653 -0.02515693 0.04485722
0.08284315 -0.076177984 0.01228638 -0.034131397 -0.12243548 -0.08736037 -0.06842938 -0.119363084
0.030194864 -0.07126185 0.059470594 0.039918616 0.039438367 -0.0057206634 0.044600885 -0.10925282
0.086234406 0.06911181 -0.09125189 0.06695571 -0.1135446 -0.0045017004 0.031573292 0.035155147
-0.08071619 0.070842475 0.049935836 0.010740513 0.07462894 0.087539285 0.066973045 0.09728785
0.058627173 -0.118694276 -0.0066562872 -0.0641724 0.10020688 0.011767477 -0.056216612 0.08718543
0.06238791 0.0017116517 0.0647545 0.005490297 -0.10140978 0.079872906 -0.09309226 0.07912141
-0.10047056 0.03942394 -0.026374163 -0.030827183 0.08532742 0.04019916 0.02629395 -0.059562188
0.17450266 0.006082236 0.13930413 0.16550705 -0.03175351 0.20369607 0.027465701 0.070520416
0.08425426 -0.016662344 0.09364085 0.020935107 0.17309165 0.10303518 0.021219417 -0.025528133
-0.08476438 0.070915975 0.032230973 -0.06030096 -0.07375643 -0.005688507 0.10925272 -0.017532364
0.1757216 -0.0866676 0.108633384 0.27507007 -0.09119195 0.040130824 0.16200724 -0.02335003
0.0660532 0.08801922 0.080323786 0.22004664 0.034117725 0.19611645 0.014128327 0.0051005185
-0.11334677 0.029337559 0.20570141 0.093879476 -0.046485886 -0.08318718 0.011805745 -0.001106544
0.14977929 -0.10434835 0.1972638 0.09881617 -0.0833319 0.11965504 0.003631256 0.027063211
0.050886184 0.073183306 0.15345503 0.10062624 0.1026039 -0.009105444 0.058679577 0.0746659
0.05453451 -0.01231657 0.00025853515 -0.0063387156 0.11687443 -0.013879165 -0.0382313 -0.082662985
-0.07469371 0.060174555 -0.040270224 -0.036762208 -0.053134203 -0.11440283 0.04198593 0.064362645
0.038966104 0.12346874 -0.11398825 -0.08193943 -0.023218662 -0.11771946 0.05703701 0.12055601
0.03503692 -0.09523849 -0.086533055 0.06997506 0.024863556 -0.033311874 0.030604288 0.033194304
-0.03445649 0.027488261 -0.10493183 0.036610395 0.057260215 0.10287979 0.076704815 -0.041793436
0.02645272 0.082573816 -0.10111576 -0.0715867 -0.087621436 0.10935645 0.10226916 -0.11559476
-0.11722189 -0.10191305 0.03621392 -0.044045612 -0.07363336 0.050428912 0.059053034 -0.067885935
-0.031633914 0.118459776 -0.032899797 -0.086663574 0.093979955 0.10793486 -0.077576086 -0.091056794
0.071879685 0.08392182 -0.083015166 0.110843405 -0.08666429 0.079462886 -0.092822 0.073853716
-0.022097066 0.06764719 0.058640927 -0.09168631 -0.051520232 -0.023443893 0.038421914 0.049734145
-0.08447446 -0.07854283 -0.07571711 0.036384374 -0.0718043 0.058230724 -0.077438675 -0.036910575
-0.0013556489 -0.10968825 -0.09470673 0.044728667 -0.107572675 -0.10231581 0.014440819 -0.042494044
0.09853937 -0.089755505 0.030274855 0.10744587 0.0022737952 0.009287952 -0.08809306 0.07218623
0.1031975 -0.0051661213 0.0463072 -0.059880227 0.059188515 0.12439592 -0.006712048 -0.045364827
0.010714195 -0.08991051 -0.011996808 0.02534174 -0.022911727 -0.098134026 0.077805534 -0.009602677
0.06317437 -0.10417559 0.05615676 -0.093338475 0.11415972 -0.045565695 -0.09081681 0.06601596

shared_layers.2.bias f4 [32]
00000000: 82cb 3dbc ec8e 2c3e 0661 b1bd 2a58 9c3c
00000010: 2a38 3b3e 4003 413c 6822 293d f3bc 223e
00000020: d0ee bcbd 7faa 163e 0cc8 463e 18fb e4bd
00000030: f809 83bd 0056 68bb 4cde dabd d64c ae3d
00000040: 27b3 e1bd 8458 f03d 31ce ff3d a0d5 fa3c
00000050: a84c c5bd 6097 33bc f809 633d a012 d93d
00000060: a006 1a3c ce40 ee3c 6aac 80bd 52c4 45bc
00000070: 6509 5f3b 0fa1 d13d 3672 543e f974 02bd
-0.011584165 0.16851395 -0.08661084 0.019085009 0.18283144 0.01178056 0.041292578 0.15892391
-0.09225237 0.14713477 0.1941225 -0.11180705 -0.06398386 -0.003545165 -0.10686931 0.08510749
-0.11020499 0.11735633 0.124905 0.030619442 -0.09633762 -0.010961384 0.05542943 0.105992556
0.009400994 0.029083636 -0.062828854 -0.012070732 0.00340327 0.102357976 0.20746693 -0.031849835

shared_layers.4.weight f4 [8, 32]
00000000: c5c9 e6bd 56b0 58be 3093 32be 3148 2bbe
00000010: 7b50 b8bd 117e c1bc 418f 1c3d 688c c7bc
00000020: 6ae0 1abe a75b 65be 1a83 dbbc 8be0 08be
00000030: 9241 023e 6e66 d9bc d0f0 9fbd 21fe 22be
00000040: 5285 ccbd 7c70 72be 4d99 25bd 21a5 0bbd
00000050: b7e7 1e3e 6dbc 063e 0048 2cbe acad b7bc
00000060: 7843 deba 38eb 16be aa0e 3fbd c8b7 81be
00000070: 96c5 09be 73f9 2cbe c016 83bd aeb9 183d
00000080: a8c0 36bd dcfa 833c 7c1e 26be d000 d9bd
00000090: 0354 793e d425 68bd cb4e 103c cad0 743e
000000a0: e734 95bd 8013 753d 3d62 c53d 47ed 1e3e
000000b0: 9794 0ebe 55d0 d43d c7c6 91bd 147e 1abe
000000c0: 3d19 ccbd 4697 bd3d 9711 6b3e e8c5 22be
000000d0: 68ed 25be dbcd 0bbe cfb3 b43d cfd3 a73b
000000e0: 53e6 003e 34c3 2b3e b261 6b3c 87a4 223e
000000f0: e312 973d bfba 3e3d 5593 4d3e a37a c4bc
00000100: b057 04be 069b a7bd 26c4 06be e21a 923c
00000110: b674 f1bd 772c 623c a8eb bb3b 8bc3 4dbe
00000120: aeaa 3dbd 234a 6bbe 4c00 3dbe 28ff 41bd
00000130: bd09 393d 8347 b0bd 22a1 cabd 3914 533d
00000140: bfad a0bc 000f d7bd afe8 76be 675b 013d
00000150: 5330 263e 7a9a 1abe 796e c63d ce8f 063e
00000160: a7a1 013e a5c6 c73c 31ec e83c d1d1 ecbc
00000170: 6b86 49be caa2 5abe 2332 e6bc 985c 52bc
00000180: 768f 293d e7ae d8bd bd19 92bd 6c69 f33d
00000190: ef96 8b3d a465 bc3d 0d01 29be 5a5e 53bc
000001a0: 6179 5b3c f6db 2abe f6a7 13bd 7f0e ddbd
000001b0: 0bad 0c3e 5cd5 953d f211 38bc a000 05be
000001c0: 2572 9cbd 9c4a c63c a6e6 1fbe a1f6 15be
000001d0: cc0f 223e 8081 a4bd f800 a93d 28c4 39bd
000001e0: d0b3 15be 4cfb fdbd 2ee1 763d 6789 69be
000001f0: de2d 93be 7761 90be 36d1 59be f754 1a3e
00000200: ec1d ed3d 648b 6cbe d9e7 863d 9f32 e8bd
00000210: 438a 8abe 095e a23d 01d0 b23d 3f8f 04be
00000220: 3332 d13d fa56 1fbe 593d a8be fb12 f23d
00000230: 91c8 14be bd22 3dbd e549 28be 37b2 eabd
00000240: 64ce dbbc c465 aebc a603 ccbd 07c2 09be
00000250: f305 103d 209f eb3d 0af3 ed3d 588c 30bd
00000260: 4ddb 2dbe 9247 78bd ad67 29bd b4c8 e1bd
00000270: 9e74 81be 4523 ddbd 84a7 1b3d 88c4 8fbd
00000280: 832c b2bd d6c4 bebd daf1 9e3d bfb8 163e
00000290: 3d86 b9bd ff4e 9e3d 6779 213e 27be e6bd
000002a0: f970 543d 4667 70bd 6cac acbd 1876 003e
000002b0: 33db 283e 8e61 793d 79fa f0bd 015b 3cbe
000002c0: b462 2dbe 8e21 4dbd e4af e539 c0fc 0c3e
000002d0: ff38 39be befe ffbc 09d5 fbbd 9f5d 113e
000002e0: 6f11 5b3c e3fc 0abe de00 f13d 9636 73be
000002f0: 9699 8ebe cbe9 3ebe df32 3fbd ab20 a93b
00000300: 799d c73d 6e40 09be 3368 153d 5ece 8d3c
00000310: 1601 a7bd cb2e aa3c ef6d e53d c798 be3d
00000320: 0345 2bbe 0767 70bc 8cf5 ff3c ec91 debd
00000330: 408b 11be 4a54 21be c726 223e f61f 143e
00000340: 3481 ab3d 156f 60be bb94 35be f20d a6bd
00000350: 989b 4ebd 14e2 033e 5d7d fbbb 4b01 153d
00000360: e760 17be 3476 263d 50db 23be c971 a93d
00000370: 697e 44be 6062 c13c e823 ee3d f77d ebb8
00000380: 16a4 163c a7ac 4bbe 210f b0bd 779d 22be
00000390: 2b60 f0bd 4e73 c3bd 30fe 12bc 2cbb 55be
000003a0: cce9 17be 5290 1ebe 0f32 adbe 66b2 a7bd
000003b0: ae3e 16be 9496 2b3e 02ef cebc fb58 a33c
000003c0: 5a23 783d 205a 88be 4266 64be 4f56 ecbd
000003d0: 81cb 813d a9cd 02be 27cb d43c 5aab 0dbe
000003e0: 0613 34be a2a5 8dbe 93f9 373d 2f9e 45be
000003f0: d1ff 373d c448 97be c4ef 1cbe 2264 233e
-0.11268953 -0.21161017 -0.1743896 -0.16726758 -0.089997254 -0.023619683 0.038222555 -0.024358943
-0.1512467 -0.22398244 -0.026795913 -0.13366906 0.12720326 -0.0265381 -0.07809603 -0.15917255
-0.09986366 -0.23675722 -0.040429402 -0.034093026 0.1551808 0.13157816 -0.16824341 -0.02242168
-0.0016957363 -0.14738166 -0.046644844 -0.25335526 -0.1345428 -0.16892032 -0.064008236 0.037286453
-0.044617325 0.01611083 -0.16222566 -0.10595858 0.24348454 -0.0566767 0.008807848 0.23907772
-0.07285481 0.05983305 0.09637878 0.15520202 -0.1392387 0.10391299 -0.07117992 -0.15087157
-0.09965751 0.09257369 0.22955929 -0.15895808 -0.16203845 -0.13652746 0.08823358 0.005121685
0.12587862 0.16773683 0.014366554 0.15883075 0.07376649 0.046564814 0.20075734 -0.023984259
-0.12924075 -0.08183865 -0.13160762 0.017835084 -0.11789839 0.013804547 0.0057348795 -0.20094125
-0.04630535 -0.229775 -0.18457144 -0.047362477 0.045175303 -0.0860739 -0.09894015 0.051532958
-0.019614099 -0.10500908 -0.24112199 0.03158131 0.16229372 -0.1509799 0.0968904 0.13140795
0.12659322 0.024386713 0.028432937 -0.028908642 -0.19680183 -0.21351162 -0.028100079 -0.012839459
0.04139658 -0.10580235 -0.071338154 0.11885342 0.06815898 0.09199074 -0.16504307 -0.012900913
0.013395638 -0.16685471 -0.036048852 -0.107937805 0.13737886 0.07316086 -0.011234747 -0.1298852
-0.07638959 0.024205498 -0.15615329 -0.14644863 0.15826339 -0.08032513 0.08252138 -0.045353085
-0.14619374 -0.12401447 0.06027334 -0.22806321 -0.2874593 -0.2819936 -0.21271214 0.15071474
0.11577973 -0.23100048 0.0658719 -0.1133778 -0.2705861 0.07928092 0.0873108 -0.12945269
0.10214653 -0.15560523 -0.32859305 0.118200265 -0.14529635 -0.046175707 -0.16434439 -0.11459773
-0.026831813 -0.02128876 -0.099616334 -0.13452922 0.035161924 0.1150496 0.11618622 -0.043102592
-0.16978188 -0.06061513 -0.04135864 -0.11024609 -0.25284284 -0.10797743 0.038001552 -0.07019907
-0.08699896 -0.09314887 0.07760973 0.14718913 -0.09058807 0.07729911 0.15768968 -0.112667374
0.05186555 -0.05869224 -0.08431324 0.12545049 0.16489868 0.06088405 -0.11766524 -0.1839409
-0.16932184 -0.05008083 0.00043809332 0.13768291 -0.18088149 -0.0312494 -0.122964926 0.1419587
0.013370856 -0.13573031 0.117677435 -0.23751292 -0.27851552 -0.18643872 -0.046679374 0.005161365
0.097468324 -0.13403484 0.036476325 0.017310318 -0.08154504 0.020774266 0.11202609 0.09306484
-0.16725545 -0.014673001 0.031245016 -0.10867676 -0.14213276 -0.1575481 0.15835105 0.14465317
0.08374253 -0.21917374 -0.17732517 -0.081081286 -0.050441355 0.1287921 -0.0076748566 0.036378186
-0.14783059 0.04064007 -0.1600163 0.08273656 -0.19188847 0.02360648 0.11627942 -0.00011229136
0.009194395 -0.1989008 -0.085966356 -0.1588038 -0.117370926 -0.09543477 -0.008971736 -0.20872182
-0.1483528 -0.15484741 -0.33827254 -0.08188324 -0.14672348 0.1675666 -0.025260452 0.01993989
0.06058059 -0.2663126 -0.22304633 -0.115398996 0.063376434 -0.12773766 0.025975777 -0.13834897
-0.17585382 -0.2766543 0.044915747 -0.19298624 0.0449217 -0.29547703 -0.15325838 0.15956166

shared_layers.4.bias f4 [8]
00000000: 3d1f cbbd 47fa 373d ce0c bd3d d1bb b53c
00000010: 8c4c 1bbe 1f97 2fbe 4074 e5bd 7cc5 0f3c
-0.099180676 0.044916417 0.09230958 0.022184284 -0.15165919 -0.17147492 -0.112038136 0.008775111
