training/models/C5_controller_acc0.95_lat0.015_succ5_small7_large10_carb15_cap610_rate0.000269_best_model.pth (torch, 16557 bytes, 6 tensors)

shared_layers.0.weight f4 [64, 3]
00000000: 8eaf ce3e d24e 213f d596 313e 77e0 ff3e
00000010: f8c7 20be c0ee 33be e463 a5be a2d0 28be
00000020: a4df 07be 8eeb ec3e d3fe d63e 85b6 f1bd
00000030: f5c3 4dbe cae2 e3bd 0af2 c0be 131a fc3e
00000040: 7cea 153f eb53 183f aad2 663e 717d 09bf
00000050: 4fed 953e 60a8 1f3e 68bb f93e 6fbe a23c
00000060: 3956 08bf 3976 f03e 225b b43c f06d 423d
00000070: c5b8 f33e 3aee e7be 4afb d23e 8754 e83e
00000080: b473 ecbe 4917 dabd 0656 48be a1b5 fb3d
00000090: a77d c53e 5bfb ea3e 4a24 5abd 706c 91be
000000a0: 8421 02bf 6666 6e3d 9ceb 063f 23e9 b23e
000000b0: 4b87 92be 62d7 933e f137 0fbf be16 f1bc
000000c0: 6225 d83e 2cdc a03e 9ae1 fabe f105 6dbe
000000d0: 8610 46be 35c9 b23e ae58 35be 62d4 583e
000000e0: 03cc e4be 3d84 a0be 9cd3 ea3e b875 a8be
000000f0: ed12 b3be 1b14 c9be 661a 0fbf 4524 e9bd
00000100: f13f 7bbe 154d f83e e4ba 0bbc ea9f 533e
00000110: b730 cdbe afed 11bf ea00 0e3e 172a 013f
00000120: d624 7e3e 9626 87be fa30 983d 5fe5 23be
00000130: d70d a13e fda3 6dbe 3bdd a2be 4cb5 bfbd
00000140: 11cf debd 69f1 07be ca09 c0be 9d22 bb3d
00000150: 1de3 e83e 7429 853d 0523 08be d3c4 113f
00000160: 2896 1bbe f124 08be 5fa1 e63e 66f2 653d
00000170: a91e 9cbe 2ecc df3e a386 e63e d72a c83e
00000180: 1749 343d fd2a c3bd 6050 ea3e 8b34 10be
00000190: 23c3 1b3f a92c 9e3e 772e 84be 75d4 063f
000001a0: c70d ff3e ebc3 0c3d f39d b6be f27a 32be
000001b0: 3362 ecbe 426c 503e 7c90 65bc 602b 0fbf
000001c0: 0fa3 a9be 4f22 0dbe 99d8 1e3f f204 96be
000001d0: 7b1d 693d 363f 87bd 3c84 b63e 4097 01be
000001e0: acd5 31be 713d 093e d36e 243e a149 adbd
000001f0: 1309 87be 0b6c c6be 39b0 51be bd29 fabe
00000200: e440 e8be 7308 e9be 4a86 0abf 20b8 9d3e
00000210: f49e febd abac 87bd 1b91 fe3e c0b2 883d
00000220: cc49 503e a5cb 00be 0198 54be c3ee 433d
00000230: 21d6 523e 1d58 12bd c122 f8be 5a72 9a3e
00000240: a186 fc3e 2398 28be a350 3bbd 92b9 d3bd
00000250: 13af b6be 8a0a e9bd 96d5 b5be fff6 153f
00000260: 89c2 093f 0150 2d3f c579 afbe 88bb dbbe
00000270: 0160 323d 9647 f3be a46c 3b3e 8eea f53e
00000280: 762e 013f 64fa 85be 8823 85be 2225 1b3e
00000290: 95da e63c 451c 133c cf87 90be c868 8e3c
000002a0: 329b 613e f012 59be 5441 d2be 56d4 b13e
000002b0: 4d01 8f3e 2eb7 fc3e 962b 76be 32ad a5be
000002c0: 95fe ebbe 0bd9 2dbe 467d e2be 1270 f43e
000002d0: bcaf 273f 1490 5a3e 9f7a 7b3e d767 06bd
000002e0: 2a3a 833e a568 493e bb0a 5c3e a3ca d2bd
000002f0: bde6 bb3d 009a 703e ddb1 f83e f981 0b3f
0.40368313 0.63010895 0.17342694 0.4997594 -0.15701282 -0.17571545 -0.32302773 -0.16485837
-0.13268906 0.46273464 0.4199129 -0.11802391 -0.20094283 -0.11127241 -0.3768466 0.49238643
0.5856092 0.5950305 0.225413 -0.53707033 0.29282615 0.15591574 0.48775792 0.019866196
-0.53256565 0.46965197 0.022016112 0.047468126 0.47601905 -0.4529894 0.41207343 0.4537699
-0.46182024 -0.106489725 -0.19564065 0.12290502 0.38572428 0.45894894 -0.053257264 -0.28403044
-0.5083239 0.058203124 0.5270326 0.34943494 -0.28618845 0.28875262 -0.55944735 -0.02942979
0.4221602 0.31417978 -0.49000245 -0.23146798 -0.1934224 0.34919134 -0.1770961 0.21174768
-0.446869 -0.3135089 0.4586457 -0.32902312 -0.34975377 -0.39273152 -0.55899656 -0.11383871
-0.2453611 0.4849631 -0.008528445 0.20666471 -0.4007623 -0.570033 0.13867536 0.5045485
0.2481874 -0.26396626 0.074312165 -0.16005467 0.3145587 -0.23207088 -0.3180941 -0.093607515
-0.108793385 -0.13275684 -0.37507468 0.09137461 0.45485774 0.06502047 -0.13294609 0.56940955
-0.15193999 -0.13295342 0.4504499 0.056139372 -0.30492142 0.43710464 0.45024595 0.39095184
0.044015016 -0.09529684 0.45764446 -0.14082544 0.6084463 0.30893448 -0.258167 0.52667934
0.498152 0.03436653 -0.3566738 -0.17429712 -0.4616867 0.20353797 -0.014011499 -0.5592556
-0.33132216 -0.13782619 0.6204925 -0.29300648 0.05691288 -0.066038534 0.35647762 -0.12655354
-0.17366666 0.13402344 0.16057901 -0.08461309 -0.2637411 -0.38754305 -0.2047738 -0.4885997
-0.45362008 -0.4551426 -0.5411116 0.3080454 -0.12432662 -0.06624731 0.49720082 0.06674719
0.20340651 -0.12577684 -0.2076111 0.047835123 0.20589496 -0.035728563 -0.48464015 0.30165368
0.49321464 -0.16464286 -0.045731198 -0.10338129 -0.35680446 -0.11378963 -0.35514516 0.5858001
0.5381246 0.677002 -0.3427259 -0.42916512 0.043548588 -0.47515553 0.18303162 0.48030514
0.5046152 -0.26167595 -0.2600367 0.15150884 0.0281804 0.008978908 -0.28228614 0.017383948
0.22031859 -0.2119863 -0.41065466 0.34732312 0.2793068 0.49358505 -0.24040064 -0.323587
-0.46092668 -0.16977327 -0.442362 0.47741753 0.65502524 0.21344024 0.24558495 -0.032813873
0.25630313 0.19668825 0.21488468 -0.10292556 0.09174869 0.23496246 0.485732 0.544952

shared_layers.0.bias f4 [64]
00000000: 7397 cd3e 190d e0bd ecaa 11bf 7ed2 c3be
00000010: 5452 1b3d aa38 223f 032b babe ba2c a63e
00000020: a738 2fbb 9c63 0f3e cb93 2b3f c711 d1be
00000030: a173 cd3e c939 c53d 3371 c53e d26a 9bbe
00000040: 85d6 023f 790c 9fbb 1eeb cbbe c71c 9f3e
00000050: 916f c33e 80ee d9be 2968 66be 7416 d4bc
00000060: 2847 a83e 4a78 953e 2720 353d fdcb a9be
00000070: 91f4 fe3e 3ad1 74bd e663 853e 3535 91be
00000080: 081e b3be dd35 343d c1ef 3c3e 01e2 173f
00000090: de8a bbbe eb2f e3bd 207e 853e 9636 033f
000000a0: baba 0ebf 04ef 243e 1d14 10bf 48d8 bc3e
000000b0: 0ef8 82be be1c 0fbf 1bac 253f bfcd a7bd
000000c0: 0e17 433e 695f b6be 8b98 c93e f135 0b3f
000000d0: 82e5 3f3d 80ef d3bb 2488 27be c88a 08bf
000000e0: 82d1 80be 5af6 123c ea59 f2bd f16a bbbe
000000f0: 9cd1 1ebe 4ac4 a3be c213 603e d87f 413e
0.4015461 -0.10939998 -0.5690143 -0.3824653 0.03792031 0.6336771 -0.3636094 0.32456
-0.0026736648 0.14002842 0.6702239 -0.40833876 0.4012728 0.09630162 0.38562927 -0.30354935
0.5110858 -0.004853782 -0.39827818 0.31076643 0.38171056 -0.42564774 -0.22500671 -0.025889613
0.32866788 0.29193336 0.044220116 -0.33163443 0.49795964 -0.059769846 0.2605278 -0.28360906
-0.3498385 0.04399668 0.18450834 0.5932923 -0.36629385 -0.11093124 0.26072788 0.51255167
-0.5575367 0.16106802 -0.5628069 0.3688376 -0.25579876 -0.5590323 0.6471574 -0.0819354
0.19051763 -0.35619667 0.39374194 0.54379183 0.046849735 -0.0064677596 -0.16360527 -0.53336763
-0.25159842 0.008969868 -0.11833556 -0.36605027 -0.15509647 -0.31985694 0.21882537 0.18896425

shared_layers.2.weight f4 [32, 64]
00000000: 50bb d7bc a84c 39bd 442d b63d 5061 f43d
00000010: 6e32 a3bd 38f3 813c d0ba 57bd 66ab ef3d
00000020: b00e cc3c 841c 58bd ccb0 c2bd 14e7 4cbd
00000030: be42 c13d 6ebc c03d 0029 e83c 7039 05bd
00000040: 4412 ebbd 42b4 ac3d 58e7 4a3d 8208 86bd
00000050: e0ff e13d fc04 a2bd 3489 5cbd ac9f d4bd
00000060: ae55 bebd c0c4 9ebc 4467 e03d 609c a83d
00000070: 9e78 dabd b43b edbd 52d6 853d 0ac6 ddbd
00000080: 3c53 cbbd 48bb 84bc a057 60bc 28f0 9bbd
00000090: 1442 26bd 3c9a 22bd f4c0 273d 90a3 28bc
000000a0: 2c33 05bd 4ec6 a3bd da5a c53d a0c0 dabd
000000b0: 0491 67bd acd5 08bd 96f1 cb3d 3235 b63d
000000c0: f6a6 9b3d a0b4 223d 386c 95bc caa7 bbbd
000000d0: 845f e4bd 6ed7 f03d 6c98 18bd fc18 bd3d
000000e0: 8047 4a3c bacd eebd 3498 5dbd 5089 4fbc
000000f0: 60bf 6e3d 907a 293d 3068 793c c8ec d63d
00000100: 03eb 823d 1f32 c03d a0af 7ebd b434 b43c
00000110: 908c 2bbc dea0 0a3e 24fc e83d 75e9 e63d
00000120: 4c3f f5bd d49f 603c a346 003e 840e 79bd
00000130: b47c 03bd 20d2 c5bc 1879 153e 60e0 e6bb
00000140: cfe8 e63c 145b 973d a837 ba3d c8a5 ec3d
00000150: dca0 e93d dcd1 84bd cceb 033d 8421 773d
00000160: 523e 43bc ea77 033e 9ab0 cd3d e8ce efbd
00000170: 79f3 e13c 5ee9 d83d cd88 373d 28f6 8a3d
00000180: 7022 833d 7113 bb3b 23a1 543e 6826 1f3e
00000190: 3c9c 0d3d 8639 9c3d a93f 363e 569b 00bc
000001a0: 5070 66bc 8fdc cf3d b613 ccbd 60eb 8ebc
000001b0: 9809 c8bd 7e2c 823d 9991 7e3d c0da 523c
000001c0: 79c5 f6bb 00dd ebbb 509d 4c3e 93dd 7b3d
000001d0: 9833 2bbd 1751 db3c dc15 39bd e0e2 8bbd
000001e0: 5c87 283d 38e5 fb3d f839 c03c 64da 42bd
000001f0: 14dc bc3d 0cea e7bd 2757 1b3e db6d 223e
00000200: 582f f5bd fa5e a8bd 9063 413c 1051 a23c
00000210: 12e1 d23d 7495 29bd e003 8bbb 6055 fabb
00000220: 5244 f4bd 8892 0cbd 1028 233c a412 14bd
00000230: 58ca 56bd b801 543d 66d6 f4bd e6c1 81bd
00000240: e0a0 633d 5454 b83d 6cbe 60bd fa7e b6bd
00000250: f0b3 35bc 0e02 d8bd 6479 4cbd 1658 89bd
00000260: 10d8 f3bd 605c 983c 32a3 aebd 08c4 933c
00000270: 3879 513d 08e6 c43d 3038 bd3c 2ee5 84bd
00000280: 003a 07ba 20c9 3cbc 92ab d5bd ac21 13bd
00000290: 4c24 99bd c87a 10bd 0074 723a 5c16 8dbd
000002a0: 5e8e b1bd c463 08bd e04f b9bb d055 133d
000002b0: 3664 97bd 8e25 83bd c051 fd3d 0e75 db3d
000002c0: ceb5 cc3d cc7a c8bd a41b 243d 4ce6 0dbd
000002d0: 2064 10bd 4860 093d f059 44bd f440 5fbd
000002e0: 38b3 fa3c c81e 063d 2c6c fbbd 3e89 833d
000002f0: 324d 963d dc45 b73d 0424 463d c004 503d
00000300: 8095 d83b c0d5 843b a064 ab3d d8e0 aa3c
00000310: ca75 ba3d 103f 2cbd 6a62 93bd 4ebb a8bd
00000320: 08b1 823c de3e e73d ce8f ffbd bc7e 42bd
00000330: a4c3 88bd 7c49 8b3d a85b 9cbd 62da cebd
00000340: a820 bc3d fc6d 7ebd 98f0 e9bc a62a eebd
00000350: 9a7b a73d 58c9 8c3d aadc 913d 0013 3f3b
00000360: 726b 9cbd 10ee aa3d 6030 a1bc da7a c4bd
00000370: 34bd 41bd e0b2 cc3c 7c7a 65bd 8283 d63d
00000380: 50c0 313d d802 0bbd 40b2 44bc 98ac 00bd
00000390: 18f8 013d 3c1b cd3d 78fb 053d d04a 04bd
000003a0: e68c a6bd f0b8 843c 8072 56bd 42f1 a8bd
000003b0: e0e3 a23c 9827 c5bd defd dd3d a68d f33d
000003c0: e828 45bd e05c e6bd 30d4 6bbc d0e5 54bc
000003d0: 38ac 6f3d 7090 b2bd c802 73bd 7020 21bd
000003e0: 18cd b53c 60d6 0bbd 7020 933d 20ea 31bc
000003f0: bcda 3abd 00f7 c93d a02a ad3d 9818 cfbd
-0.026334435 -0.04523912 0.088953525 0.119326234 -0.07968603 0.015863046 -0.052668393 0.117026135
0.024909347 -0.05276157 -0.095063776 -0.05002506 0.09436558 0.0941094 0.028339863 -0.03252548
-0.11478093 0.08432819 0.049537033 -0.065445915 0.110351324 -0.07911107 -0.053841785 -0.103820175
-0.09293686 -0.019380927 0.10957196 0.08232951 -0.10667537 -0.11583653 0.06535019 -0.108287886
-0.09927985 -0.016202584 -0.013692766 -0.076141655 -0.04059036 -0.03969787 0.0409555 -0.010292903
-0.032519504 -0.07996808 0.09636469 -0.106812716 -0.056534782 -0.0334069 0.09958188 0.08896865
0.07600205 0.03972304 -0.01824008 -0.091628626 -0.11151031 0.1175984 -0.037254736 0.09233281
0.0123461485 -0.11660333 -0.05410023 -0.012667015 0.05828798 0.04137665 0.015222594 0.10494381
0.06392481 0.0938456 -0.062179208 0.021997787 -0.010470524 0.13537928 0.11376217 0.11274997
-0.119749635 0.013709981 0.12526946 -0.06080486 -0.032101348 -0.024148047 0.14596975 -0.0070457906
0.028187184 0.07390419 0.09092647 0.11555058 0.114076346 -0.0648534 0.032207295 0.060334697
-0.011916714 0.12838712 0.1004345 -0.11709386 0.027581917 0.10591386 0.044808198 0.06785232
0.06403053 0.0057091047 0.20764594 0.15541995 0.034572825 0.07628159 0.17797722 -0.007849535
-0.014064863 0.1014949 -0.09964697 -0.01744622 -0.09767455 0.063561425 0.06215057 0.012869537
-0.007530865 -0.007197976 0.19981885 0.061490607 -0.04179725 0.026772065 -0.045186862 -0.06830382
0.041144714 0.122995794 0.023465142 -0.047571555 0.09221664 -0.11323938 0.15169965 0.15862219
-0.11971921 -0.0822124 0.011803523 0.019814044 0.10296835 -0.041402295 -0.0042424053 -0.007639572
-0.119270936 -0.03431943 0.009958282 -0.03615059 -0.052439064 0.05175945 -0.11954956 -0.06335811
0.055573344 0.09000459 -0.0548691 -0.089109376 -0.011090264 -0.10547267 -0.049920455 -0.06706254
-0.11906445 0.018598735 -0.08527221 0.01803781 0.051140994 0.096141875 0.023098081 -0.06489025
-0.0005158484 -0.011522561 -0.10433115 -0.035920784 -0.07477626 -0.035273343 0.0009248853 -0.0688903
-0.086697325 -0.03329827 -0.005655274 0.03597051 -0.073921606 -0.06403647 0.12369108 0.10715686
0.09995614 -0.09789047 0.040065423 -0.034643456 -0.035251737 0.033539087 -0.047937334 -0.054505304
0.030603036 0.0327442 -0.122764915 0.06422661 0.073389426 0.089488715 0.04837419 0.05078578
0.0066096187 0.0040538013 0.08368802 0.020859167 0.09104498 -0.04205233 -0.07196505 -0.082388505
0.015953556 0.11291288 -0.124786004 -0.047484145 -0.066779405 0.068011254 -0.076346695 -0.10100247
0.09185916 -0.062116608 -0.028557107 -0.11629228 0.08177872 0.06874341 0.071221665 0.0029155612
-0.07637681 0.08346188 -0.019676387 -0.095937446 -0.04729958 0.024987638 -0.056025013 0.10474302
0.043396294 -0.03393826 -0.012005389 -0.0314146 0.03173074 0.1001496 0.032710522 -0.03229791
-0.08132343 0.016201466 -0.05235529 -0.08249141 0.01988405 -0.096266925 0.10839437 0.11892252
-0.048134714 -0.11248183 -0.014393851 -0.012994245 0.05851385 -0.087189555 -0.059328824 -0.039337575
0.022192523 -0.03413999 0.07183921 -0.010859042 -0.045618758 0.09861565 0.08455396 -0.10112113

shared_layers.2.bias f4 [32]
00000000: f852 6e3d ceab 4c3e 7281 a6bd 9043 c1bc
00000010: 3ccb c2bd 7821 773d ab8f 3a3e 2ddf 473e
00000020: 0a32 c0bd 0524 08be 105b 0abc cc39 3ebd
00000030: 19ee 753b e3cf b7bc 22a3 ef3a 131f 053e
00000040: 77d5 32bc a965 60bd ec24 823d 24b1 d4bd
00000050: 7e91 513d 88a5 bbbc b2a5 f1bd 7c76 1e3d
00000060: c60f 963d 5896 3c3e 80a4 a5bb 63e4 b33d
00000070: 3831 373e 1f9f c0bc b24b f1bb 6043 593d
0.058184594 0.19987413 -0.081301585 -0.023591787 -0.0951142 0.060334653 0.18218867 0.19518729
-0.09384544 -0.1329499 -0.008444563 -0.04644184 0.003752595 -0.022437995 0.001828287 0.13000135
-0.010915152 -0.05478445 0.063546985 -0.103853494 0.051164143 -0.02290608 -0.11799182 0.038687214
0.07327227 0.18416727 -0.0050550103 0.08783796 0.17889869 -0.023513375 -0.00736376 0.05304277

shared_layers.4.weight f4 [8, 32]
00000000: dd49 2dbe 1b1a 74be 2b37 ae3d 7175 a53d
00000010: f606 93bd 9154 9dbd 9f03 79bd 4d63 1e3d
00000020: 660a ae3d ed30 0f3e 8502 e3bd 4464 b1bd
00000030: d7cb 16bd f104 14be 0bac 6dbe 2a2a 20be
00000040: 0d0a c5bb 721a c6bc 4b00 5ebb aa0a bb3d
00000050: fe7e efbd edcc dd3d 77f2 b0bd 537c 663d
00000060: 5d86 1abe 422a 8fbd 6f10 213d 5fa8 49be
00000070: be4b 593d 4086 80be 60f9 703d f4e8 ab3d
00000080: 4b5f 10be fbc7 86bc 463d a2bd 4cfd 06be
00000090: 57ff 663b 12e6 c63b 931a 9bbb 28e7 843c
000000a0: ee26 28be 6358 ac3d 056a 203c 2631 de3d
000000b0: f220 053e 1cc3 d9bd 09ad 143d 52f6 08bc
000000c0: d514 d8bd 6786 d63c 0bb6 2bbd fbe4 db3d
000000d0: cdb7 f53d 3f50 d0bd 578e 293e 71e8 cebd
000000e0: fd18 3abe 93c1 8bbe f5ca 94bb 7af0 f8bd
000000f0: 04a6 083d c587 70be d661 34be ec79 263e
00000100: e2ef a7bd 06d5 b23a 738a 26be b36f 9cbc
00000110: e041 d6bc 6144 b0bd 2a15 173d 0a76 3ebe
00000120: 320e 0a3e 6783 56bd 6388 41bd 4634 d6bd
00000130: 493a 52bd 68a2 a23a cec0 6dbe 87ce 29bd
00000140: b9f4 0c3e e6f9 0cbe 50cf c2bd 7d8a f1bd
00000150: 5aa8 a73c 4332 193e 78a3 96bd 8fa5 553d
00000160: deb4 c4bd e398 1ebe c2fb 343d 813a 66be
00000170: c800 a5bd 9f2f 8ebe b2e7 51be bf99 da3d
00000180: 0156 d23d e4fa 443d 5532 b63d 9ab4 303e
00000190: 5f03 54bd 4f63 473d 18cc 49be edfc 773b
000001a0: 3eb9 dabd 7624 c7bd db74 2b3c 9b00 eabd
000001b0: 1985 c53b 6b73 123e d10d 82be f313 2ebe
000001c0: 1157 0fbd 1fcd d43d 116a 893d 6642 a5bd
000001d0: f78c 34be f77d 763d 45d8 083e 20c6 133c
000001e0: dc38 d73d 15b5 363c 7125 8b3d 7683 bcbd
000001f0: f35e abbb e8ea 69bd 8696 41be e8c3 3abe
00000200: e7b8 dcba c57d 883d 1f6b 08be d9de db3d
00000210: 1400 4cb9 cea6 bd3c 056b edbd 6d18 76be
00000220: bf39 7b3c 435c 9d3d 6092 043e b7dc abbd
00000230: ad27 013e 46de cb3d 3867 33be 4b56 29be
00000240: f0cc dcbd ef2e 7bbb f8d4 68bd 3fd4 30bd
00000250: 2164 f8bc a639 0a3e fbbd e2bd b1ce 00be
00000260: 58b8 cebd 08b8 bdbd 03b7 8c3d 694d 23be
00000270: 61e9 06bd bc0a 64be b3ee 75be ff5f c6bb
00000280: f724 ab3d 3ee8 7b3e 3b62 2abe dcf9 173e
00000290: 9dc6 333e c0cf d6bd 65d4 883e 0029 633e
000002a0: 3544 edbd 0886 74bc 6946 873d 3bec e33d
000002b0: cb4f 98bd c7c7 e2bd 66aa 7e3e 04a8 fb3d
000002c0: 8f09 13be dbe7 edbd 26d6 6fbd 7d02 99bc
000002d0: 5866 9fbd d834 d73d 50eb 81bc e6f2 233e
000002e0: de7c 13be 563b 353e dee9 283e 2913 fd3c
000002f0: 55f2 723e 17e9 753e be1a 043e 836d 0cbe
00000300: 6491 1f3e 575f dabd 6131 84bc 7dff 233e
00000310: ca5d 1dbe e8f7 263e 90c8 07be 9da4 33be
00000320: 608f 7f3c a9b8 273d 09d3 15be 341c 2b3c
00000330: 5c97 22be 790e c2bd 6a04 3f3d c9ab 89bd
00000340: 6280 16be e14e 8fbc 590d 153e 04a7 7b3d
00000350: 5e7f aebd 1c55 bf3c 0b34 2b3e 172d e33d
00000360: 378f 153d c11f 0abe bf5f b13d 2d01 f03d
00000370: 8d13 063e a070 5c3d d046 fabd 5422 a9bc
00000380: ef53 0d3d c5bd 42be a717 c83d 9e34 c93c
00000390: c95e 283e d0bf 403d 101c 21be b46f e4bd
000003a0: 5985 1c3e 32d6 153e e31b 70bd 9ba7 0ebe
000003b0: 88de a03d 4985 91bd 5ffd 74be 530a 8dbe
000003c0: b419 0c3e fc80 98bd dfb5 fcbd 40b4 23be
000003d0: 0508 3ebd 6d2d a53c 82d7 953d bf5c 103e
000003e0: bfea 933d 22ab 92be 573e c5bd cdea 6ebe
000003f0: ea98 35be 5416 52be 876b 94be 264b 22be
-0.16922708 -0.23838083 0.08506616 0.08079041 -0.07179062 -0.076821454 -0.06079447 0.03866892
0.08498077 0.13983507 -0.11084465 -0.08661702 -0.03681549 -0.1445501 -0.2321016 -0.15641084
-0.006013161 -0.024182532 -0.0033874686 0.091328934 -0.11694144 0.10830102 -0.086399965 0.05627091
-0.15090318 -0.06990482 0.039322313 -0.19693135 0.05305075 -0.25102425 0.058831573 0.08394042
-0.14098851 -0.01645278 -0.07921843 -0.13182563 0.003524741 0.006069907 -0.0047333925 0.016223505
-0.164211 0.08415296 0.009790902 0.10849218 0.13000849 -0.10632917 0.03629783 -0.008359509
-0.105508484 0.026187135 -0.041921657 0.10737034 0.11997948 -0.10171556 0.16558205 -0.101029284
-0.18173595 -0.27296123 -0.004540796 -0.12155242 0.03336145 -0.23489292 -0.17615446 0.16257447
-0.08200051 0.0013643808 -0.16263752 -0.019096231 -0.026154459 -0.08606792 0.036885418 -0.18599716
0.13481978 -0.05237141 -0.04724921 -0.10459189 -0.051325116 0.001240802 -0.2321808 -0.041456725
0.1376523 -0.13767204 -0.09512198 -0.11793993 0.020466018 0.1496058 -0.07355398 0.052159842
-0.0960481 -0.15488009 0.044185407 -0.22483255 -0.0805679 -0.27770707 -0.20498541 0.10673856
0.1027031 0.04809083 0.08896319 0.17256394 -0.051761027 0.048678692 -0.19706762 0.0037839964
-0.106798634 -0.09723751 0.010464872 -0.11425897 0.0060278294 0.14301841 -0.25401166 -0.16999798
-0.034995142 0.10390686 0.06709684 -0.08069305 -0.17631899 0.060178723 0.1336375 0.009019405
0.10508892 0.011151572 0.06794251 -0.09204762 -0.0052298247 -0.05710879 -0.18905076 -0.18238795
-0.0016839773 0.06664614 -0.13322113 0.10735864 -0.00019454985 0.023150828 -0.11592678 -0.24032755
0.015333592 0.07683613 0.12946463 -0.083917074 0.12612791 0.09954505 -0.17519844 -0.16536824
-0.10781276 -0.0038327535 -0.056843728 -0.043171164 -0.030321183 0.13498554 -0.11071392 -0.12578847
-0.100937545 -0.09263617 0.06870844 -0.15947498 -0.03293741 -0.2226972 -0.24016838 -0.006053924
0.0835666 0.24600312 -0.16639034 0.14841408 0.17556234 -0.10488844 0.26724544 0.22183609
-0.11585275 -0.014924534 0.066052265 0.11129042 -0.07437094 -0.11073261 0.2486969 0.12287906
-0.14359115 -0.116164885 -0.058553837 -0.018677944 -0.077831924 0.10508126 -0.015859276 0.16010627
-0.14403102 0.17698416 0.16495463 0.030892925 0.23725255 0.24014698 0.12900826 -0.1371365
0.15582806 -0.10662716 -0.016136827 0.1601543 -0.15367809 0.16305506 -0.13260102 -0.17543264
0.015598148 0.04094759 -0.14631285 0.010443736 -0.15878052 -0.09475417 0.04663507 -0.067222185
-0.14697412 -0.017493667 0.14555873 0.061438575 -0.08520387 0.023356013 0.16719072 0.110925846
0.036513533 -0.13488676 0.0866084 0.11718974 0.13093396 0.053818345 -0.12220538 -0.020646252
0.034503873 -0.19017704 0.09770136 0.024561223 0.16442408 0.047057927 -0.15733361 -0.11154118
0.15285243 0.1463249 -0.058620345 -0.13931124 0.078549445 -0.071055 -0.23924778 -0.2754694
0.1368168 -0.07446477 -0.12339377 -0.15986729 -0.046394367 0.020163262 0.073164955 0.1409788
0.07222509 -0.2864619 -0.09631031 -0.23331757 -0.17734113 -0.2051633 -0.28988287 -0.1584898

shared_layers.4.bias f4 [8]
00000000: 5268 6cbe 34c4 2cbc 4eae a9bd d172 7bbe
00000010: 7d15 843d 011e 093e 086f b9bd 1a88 3bbe
-0.2308667 -0.010544825 -0.08285199 -0.24555518 0.06449411 0.13390352 -0.09054381 -0.18313637
