training/models/C6_controller_acc0.819_lat0.006_succ20_small5_large8_carb7_cap105_rate0.001598_best_model.pth (torch, 16557 bytes, 6 tensors)

shared_layers.0.weight f4 [64, 3]
0	0xbda48f68	-0.08035165
1	0xbee534cd	-0.44766846
2	0xbde9dcbb	-0.11419054
3	0xbcf353b5	-0.029703
4	0xbf173d44	-0.5907786
5	0xbe01345b	-0.12617628
6	0xbe5a8cff	-0.21342848
7	0x3e65b902	0.22433856
8	0xbd80190f	-0.062547795
9	0xbeecf309	-0.4627917
10	0x3e4b6275	0.19861777
11	0x3f0c554c	0.5481765
12	0xbe148a0e	-0.14505789
13	0xbf0801b6	-0.5312761
14	0x3e2a6830	0.16641307
15	0xbea1dff3	-0.31616172
16	0x3f078b1e	0.5294665
17	0x3f138181	0.5761948
18	0xbe1cf818	-0.15329015
19	0x3ee6f0cd	0.4510559
20	0xbe947631	-0.28996423
21	0x3f0e1f08	0.555161
22	0xbec12985	-0.3772699
23	0xbe1f2ca5	-0.15544374
24	0x3e719b7c	0.23594469
25	0x3e969dbf	0.29417226
26	0xbef379dc	-0.4755391
27	0x3f2a8a17	0.6661696
28	0x3f269417	0.6506972
29	0x3d278eaf	0.040907558
30	0x3b176c14	0.002310519
31	0x3eec419b	0.46143803
32	0x3e4655a3	0.19368605
33	0x3ee4eb4f	0.44710776
34	0x3f08d7b1	0.5345412
35	0x3c90ac07	0.017660154
36	0xbe2c526e	-0.1682832
37	0x3dd40472	0.103524104
38	0x3edd3a38	0.4320848
39	0x3e8cf14a	0.2752784
40	0x3dec448a	0.1153651
41	0xbe719a92	-0.2359412
42	0x3f1e4fba	0.61840403
43	0x3df149d2	0.11781658
44	0xbe8cb6ad	-0.2748312
45	0xbe84b350	-0.25918055
46	0x3f02cab4	0.5109055
47	0xbd99b7ab	-0.07505735
48	0x3db872f0	0.090062976
49	0x3e8dc822	0.27691752
50	0x3f12c571	0.5733252
51	0xbf0db61f	-0.5535602
52	0x3f11e14b	0.56984395
53	0x3ea1a46f	0.31570765
54	0xbe6884e7	-0.22706948
55	0xbf07fcdc	-0.5312021
56	0x3e339ded	0.17540713
57	0x3c8a9786	0.016917955
58	0x3f185d42	0.595173
59	0xbed94e43	-0.4244252
60	0x3e88c27e	0.26710886
61	0xbe10e063	-0.14148097
62	0x3e77cb88	0.24198735
63	0x3ef22110	0.4729085
64	0x3e340888	0.1758138
65	0xbdc92f8e	-0.098235235
66	0xbe305f68	-0.17223895
67	0xbe523d14	-0.20531112
68	0x3e949fae	0.29028076
69	0xbe948a64	-0.29011834
70	0x3e9ece9d	0.31017008
71	0x3dce4577	0.10071843
72	0xbd77e25f	-0.06051862
73	0x3ede8958	0.4346416
74	0xbebdf74b	-0.37102732
75	0x3e921e61	0.28538802
76	0x3f1af1c7	0.6052517
77	0x3f0f8197	0.56057113
78	0x3f22604b	0.6342818
79	0x3e5523ad	0.2081439
80	0xbe930f95	-0.28722826
81	0xbc99338c	-0.018701337
82	0xbeb7433b	-0.3579348
83	0xbe98ee8c	-0.29869497
84	0x3ee4c4af	0.44681308
85	0x3e87f20b	0.26551852
86	0xbee1376a	-0.4398759
87	0x3f2591a9	0.64675385
88	0x3f114b74	0.5675576
89	0x3e99c268	0.30031133
90	0x3e7a27cd	0.24429245
91	0x3f111c60	0.5668392
92	0x3e0c4adc	0.13700432
93	0x3e5c6569	0.2152306
94	0xbe928ff9	-0.28625467
95	0xbe9896b5	-0.2980248
96	0xbf009d1d	-0.50239736
97	0x3f04820c	0.51760936
98	0xbd811a45	-0.06303839
99	0x3e158799	0.14602508
100	0x3e39d4dc	0.18147606
101	0x3e644feb	0.22296111
102	0x3f209556	0.6272787
103	0x3e6c8f16	0.23101458
104	0x3e991d48	0.29905152
105	0xbe589991	-0.21152331
106	0xbc78d19c	-0.0151866935
107	0xbe7f523d	-0.24933715
108	0xbd48e4b4	-0.049046233
109	0xbed969e9	-0.42463616
110	0x3f00fc44	0.50384927
111	0xbe917463	-0.2840911
112	0xbef185db	-0.47172436
113	0x3ec1985a	0.37811548
114	0xbe84b9e7	-0.25923082
115	0xbe109cc8	-0.14122307
116	0x3e68ef97	0.22747646
117	0xbbfe8a0f	-0.0077679227
118	0x3e9c2889	0.30499676
119	0xbe9d244c	-0.30691755
120	0xbea431e2	-0.32069308
121	0x3e9d697e	0.30744547
122	0xbdc171de	-0.094455466
123	0x3d42495a	0.047433235
124	0xbd97921b	-0.07400914
125	0xbf07ada4	-0.5299933
126	0xbedd08c8	-0.43170762
127	0x3d837dc2	0.06420471
128	0x3e33b738	0.17550361
129	0x3e45593c	0.19272321
130	0x3e9a4185	0.30128112
131	0xbd8352dc	-0.064122885
132	0x3f0ae8e3	0.54261607
133	0x3cdcc5a9	0.02694972
134	0xbecccb81	-0.3999901
135	0x3e88f99a	0.2675293
136	0xbe754f44	-0.23956019
137	0x3eb86e52	0.36021668
138	0x3f0b3056	0.5437063
139	0x3e8f5f39	0.28002337
140	0x3c8fc9a1	0.017552199
141	0x3f0af856	0.5428518
142	0x3e8b1045	0.2716085
143	0x3f0e8b03	0.55680865
144	0xbde6fcef	-0.11278712
145	0x3f1d264c	0.6138656
146	0xbea5d1e0	-0.32386684
147	0xbe0ce152	-0.13757828
148	0xbed71375	-0.42007032
149	0x3ee19a63	0.440631
150	0x3e183289	0.14863028
151	0x3da11bd8	0.07866639
152	0x3eb838ee	0.35980934
153	0x3eea0281	0.45705035
154	0xbe74a071	-0.23889329
155	0xbe83bdec	-0.25730836
156	0x3e269152	0.16266373
157	0x3f26f4e5	0.6521743
158	0x3e6a9cb4	0.2291134
159	0x3f02d162	0.5110074
160	0xbec4ac06	-0.38412493
161	0x3eeb493a	0.45954305
162	0x3ec0fbf4	0.37692225
163	0xbe568abd	-0.20951362
164	0x3e892615	0.26786867
165	0x3f022481	0.5083695
166	0x3f0a1c0c	0.53949046
167	0xbd9ccc86	-0.07656197
168	0xbd0b43c8	-0.034000188
169	0x3f12dd72	0.5736915
170	0xbd6a16f8	-0.05715081
171	0x3f0a02b8	0.539104
172	0x3f01511b	0.5051438
173	0xbe533bd6	-0.20628294
174	0x3e471d7b	0.1944484
175	0xbc336021	-0.010948212
176	0xbe9d5880	-0.30731583
177	0xbf0ed970	-0.55800533
178	0xbe4e51ea	-0.20148435
179	0xbe5a12d0	-0.21296239
180	0xbed1b210	-0.40956163
181	0xbef001ee	-0.46876472
182	0xbecb812c	-0.39746988
183	0xbd019350	-0.03163463
184	0xbf0c28e1	-0.54749876
185	0x3d8e6b04	0.06954005
186	0xb9cfbce3	-0.00039622848
187	0x3f0494f9	0.51789814
188	0xbdbf0498	-0.09327048
189	0x3f024351	0.50883967
190	0xbe6f8e7a	-0.23394194
191	0xbef8634f	-0.48513266

shared_layers.0.bias f4 [64]
0	0xbf0abda2	-0.54195607
1	0x3e7bbbb7	0.24583326
2	0x3f178d52	0.5920001
3	0xbeff32fd	-0.49843588
4	0x3e4f5bf7	0.20249926
5	0x3f094ad3	0.536298
6	0x3ed42e22	0.41441447
7	0x3f04a446	0.5181316
8	0xbd099d37	-0.033597197
9	0x3ec46f55	0.3836619
10	0x3ced7e8c	0.028991006
11	0x3f1d83d2	0.61529267
12	0xbedacadc	-0.42732894
13	0x3d67ecfb	0.056622487
14	0x3e594ebc	0.21221441
15	0x3e9914af	0.29898593
16	0x3edf9c20	0.436738
17	0xbefd66be	-0.4949245
18	0xbeb81cfd	-0.35959616
19	0x3e95d217	0.29261848
20	0xbedd4766	-0.43218535
21	0x3f329a9d	0.6976717
22	0x3ccdea63	0.025136178
23	0xbe5920c2	-0.21203902
24	0xbed2bec9	-0.41161183
25	0x3e99b1f9	0.30018595
26	0x3d57ab78	0.05265376
27	0xbe0ea539	-0.13930215
28	0xbf1022f0	-0.5630331
29	0x3ee3ea81	0.4451485
30	0xbe4e285c	-0.20132583
31	0xbedd72a7	-0.43251535
32	0xbe80ba96	-0.25142354
33	0x3f0b5df0	0.5444021
34	0xbe8eb04d	-0.27868882
35	0x3da58a29	0.080829926
36	0x3e463227	0.19355069
37	0xbee7801f	-0.45214936
38	0x3f25ebc4	0.64812875
39	0xbf12323b	-0.57107896
40	0x3dd18f46	0.10232405
41	0x3eb87bbf	0.3603191
42	0xbe2e7cfa	-0.17039862
43	0x3eff5909	0.49872616
44	0xbc90348d	-0.017603183
45	0x3f0ce86b	0.5504214
46	0x3f01c010	0.5068369
47	0x3f0b0265	0.5430053
48	0x3e83dbe7	0.2575371
49	0x3e53e2b0	0.20691943
50	0xbeed90de	-0.46399587
51	0x3f341d4a	0.7035719
52	0x3ecf6508	0.40506768
53	0x3e99dcab	0.3005117
54	0x3e8652cb	0.2623504
55	0x3f105f77	0.5639567
56	0x3eed41e5	0.46339336
57	0x3f2608c7	0.64857143
58	0xbe614fa3	-0.22003035
59	0x3ea1828d	0.31544915
60	0x3e87e37e	0.2654075
61	0x3ee1c847	0.44098112
62	0xbf0afafc	-0.5428922
63	0x3e4077bc	0.18795675

shared_layers.2.weight f4 [32, 64]
0	0xbda2ad98	-0.07943267
1	0x3da42418	0.08014697
2	0xbe059b2a	-0.13047472
3	0x3d5e78b4	0.05431433
4	0xbd744d4c	-0.05964403
5	0xbdc7518f	-0.09732353
6	0xbde559f4	-0.11198798
7	0xbe00fa1a	-0.12595406
8	0x3ddd0fe9	0.1079405
9	0x3b65dfbe	0.0035075988
10	0xbc34bce9	-0.011031368
11	0xbd65e524	-0.05612673
12	0x3dfbdb06	0.12297635
13	0x3bdea71a	0.0067948224
14	0xbb8c550d	-0.0042826
15	0x3dd684c7	0.10474544
16	0x3dd8da58	0.10588521
17	0xbd5fcc58	-0.054638237
18	0xbbf1e000	-0.007381439
19	0xbcbf4b06	-0.023351204
20	0xbdf40198	-0.119143665
21	0xbc7278c5	-0.0147993015
22	0x3ddd3454	0.108009964
23	0x3da727c4	0.081618816
24	0x3cb8f0c0	0.022575736
25	0x3de7eaec	0.11324105
26	0x3d8ab8cd	0.06773529
27	0xbdd02b86	-0.101645514
28	0xbe00803c	-0.12548918
29	0xbdfb738b	-0.122778974
30	0x3dce90e5	0.1008623
31	0x3cab15a8	0.02088435
32	0xbdaf7316	-0.08566873
33	0xbdd99355	-0.106238045
34	0x3d0a640e	0.033786826
35	0x3dbe2594	0.09284511
36	0xbd71db2c	-0.05904691
37	0xbdaaf086	-0.083466575
38	0x3cea73c0	0.028619647
39	0xbd33e88c	-0.043922946
40	0x3d5455dc	0.051839694
41	0x3dca8215	0.098880924
42	0xbd17259c	-0.0369011
43	0xbd685802	-0.056724556
44	0x3d7c9cc2	0.061672933
45	0x3d0e2bca	0.03470973
46	0xbdac1bf1	-0.08403767
47	0xbdd76445	-0.10517172
48	0x3d250728	0.040290028
49	0xbd70f5d4	-0.05882819
50	0xbde32986	-0.11091904
51	0xbccb6bf3	-0.024831748
52	0x3d8e9870	0.06962669
53	0x3c635b47	0.013876743
54	0x3d398509	0.045292888
55	0x3c4e20f4	0.012581099
56	0x3cd3ac70	0.02583906
57	0x3d5cdc8a	0.05392126
58	0xbcbf7258	-0.023369953
59	0x3df68396	0.12036817
60	0x3d94d5f4	0.07267371
61	0x3db45b96	0.08806531
62	0x3da31716	0.07963388
63	0x3cb019ff	0.02149677
64	0x3d89338e	0.066992864
65	0xbd3565c2	-0.044286497
66	0xbd9259ff	-0.07146072
67	0x3d8861fa	0.066593125
68	0xbda0a182	-0.07843305
69	0xbb275574	-0.0025533112
70	0x3d76e5f1	0.060277883
71	0xbdc03631	-0.09385336
72	0xbb92116c	-0.0044576433
73	0xbdfb35f2	-0.122661486
74	0x3d9ee4b7	0.07758468
75	0x3ce5d38d	0.028054977
76	0x3d9bc904	0.076067
77	0x3dca5632	0.09879722
78	0xbd00a7f6	-0.03141018
79	0x3d9fb8ba	0.07798906
80	0xbdcb763e	-0.09934662
81	0x3d2ed484	0.04268314
82	0x3da40bfe	0.080101
83	0x3dab7575	0.083720125
84	0x3d0b3f24	0.033995762
85	0xbe0fe054	-0.14050418
86	0x3dc6cd16	0.09707086
87	0x3d6c9a04	0.05776407
88	0x3d96713c	0.073458165
89	0xbcf8d194	-0.030373372
90	0xbe01e37b	-0.12684433
91	0x3daba8b8	0.0838179
92	0xbd1a3606	-0.037649177
93	0x3cd1a93a	0.025593389
94	0x3d8381c9	0.06421239
95	0x3d66c9a0	0.05634463
96	0x3dd2f434	0.10300484
97	0x3cf635b4	0.030054905
98	0x3d6558ac	0.055992767
99	0x3d1e5a90	0.038660586
100	0xbbfe1f40	-0.00775519
101	0x3d66b808	0.05632785
102	0x3d1fd0f4	0.039017633
103	0xbdd6c76c	-0.104872555
104	0xbddeeaaa	-0.10884602
105	0xbdd34e13	-0.10317626
106	0xbd2ff320	-0.04295647
107	0x3db9b6d9	0.090680785
108	0x3c53695d	0.0129035385
109	0xbd3a34dd	-0.04546057
110	0x3dba99e1	0.09111381
111	0xbd0bceba	-0.034132697
112	0xbd860441	-0.0654378
113	0xbdc9de6c	-0.09856877
114	0x3ddd8618	0.10816592
115	0xbb1d77eb	-0.0024027776
116	0xbc19d47e	-0.009389041
117	0xbdc2d947	-0.095140986
118	0xbd965ddd	-0.07342122
119	0x3d9b09d8	0.07570237
120	0xbd82d931	-0.06389082
121	0x3d9beaa1	0.07613111
122	0x3d6b9e28	0.057523876
123	0xbbe17ca0	-0.0068813115
124	0xbdec1f7a	-0.11529441
125	0xbd67bb29	-0.056574974
126	0xbc553aa0	-0.013014466
127	0xbde47be4	-0.11156443
128	0x3c434a30	0.011919543
129	0xbdf79832	-0.12089576
130	0xbcb97118	-0.022636935
131	0xbd61e8b4	-0.055153564
132	0xbdc7e9da	-0.097614005
133	0xbdbd9ed2	-0.09258808
134	0xbda517cc	-0.080611795
135	0xbd5a5c18	-0.053310484
136	0xbdfada42	-0.122486606
137	0xbcbf90c8	-0.023384467
138	0x3d6a188c	0.057152316
139	0xbdb614b8	-0.088906705
140	0x3db3c606	0.08778004
141	0xbd78acfc	-0.060711846
142	0xbc3521a0	-0.01105538
143	0xbd7b3174	-0.06132646
144	0xbd3d792c	-0.046258137
145	0x3dd54ee2	0.10415436
146	0xbd413944	-0.047173753
147	0xbdefc344	-0.11707166
148	0x3d837336	0.06418459
149	0xbd614f98	-0.055007547
150	0x3de37896	0.11106984
151	0xbc037a10	-0.008024707
152	0xbdc2925a	-0.095005706
153	0xbb7d4fc0	-0.003865227
154	0x3dcdbb94	0.10045543
155	0xbdda01cc	-0.10644874
156	0xbdad2e40	-0.08456087
157	0xbde877dc	-0.11350986
158	0xbd8b3532	-0.067972556
159	0x3d5ea0c0	0.054352522
160	0xbc93ec50	-0.018057019
161	0xbc023780	-0.007947803
162	0xbd3b6c60	-0.04575765
163	0xbcc1d9f0	-0.023663491
164	0xbd4465ec	-0.047948763
165	0x3dbd152e	0.09232555
166	0x3dfd2e56	0.123623535
167	0xbd8409dc	-0.06447193
168	0x3df649b2	0.12025775
169	0xbda68538	-0.08130878
170	0x3dfa06dc	0.122083396
171	0xbbce4580	-0.006294906
172	0x3d803fec	0.06262192
173	0x3ddeb3b6	0.10874121
174	0x3d372014	0.044708326
175	0x3dc371fc	0.09543225
176	0x3d016170	0.031587064
177	0xbd0f740c	-0.03502278
178	0xbd90bddc	-0.07067463
179	0x3deac61a	0.11463566
180	0xbd6b245c	-0.057407722
181	0xbcf3fcb8	-0.029783592
182	0x3cc13f90	0.02358988
183	0xbcc9f798	-0.024654195
184	0xbd829d76	-0.063776895
185	0x3daa239e	0.08307575
186	0xbdfb948c	-0.122841924
187	0x3c2dd0b0	0.010608837
188	0x3da02e56	0.07821338
189	0xbd8fbfd6	-0.07019012
190	0xbd0ab9a4	-0.033868447
191	0xbd3d979c	-0.046287164
192	0xbd600b50	-0.05469829
193	0x3cf85aea	0.030316789
194	0x3c0b0459	0.008484923
195	0xbde51ed0	-0.11187518
196	0x3dc6f88a	0.09715374
197	0x3e645e71	0.22301652
198	0x3a96d038	0.0011506146
199	0x3e174590	0.1477263
200	0x3e31b686	0.17354783
201	0x3e480565	0.19533308
202	0x3e8366eb	0.25664458
203	0x3c065ebd	0.008201298
204	0xbdb654fa	-0.08902927
205	0x3d9294f4	0.07157317
206	0x3da79fd5	0.081847824
207	0x3e002817	0.12515293
208	0x3e3bd605	0.1834336
209	0x3da4223c	0.08014342
210	0xbd7f9b70	-0.062404096
211	0x3e09be20	0.13451433
212	0x3dde9d84	0.108698875
213	0x3e60a4fc	0.21937937
214	0x3d2a0744	0.041510835
215	0xbd96c548	-0.07361847
216	0x3d90b13e	0.07065056
217	0x3dbab435	0.09116403
218	0x3d4cbbd4	0.049983814
219	0xbdd0415a	-0.10168715
220	0xbc2cb650	-0.010541514
221	0x3e688da6	0.22710285
222	0x3db3ec74	0.08785334
223	0x3d020ef8	0.031752557
224	0x3d929386	0.07157044
225	0x3cb792e8	0.022408918
226	0x3db09097	0.08621328
227	0x3ddc863e	0.10767792
228	0xbd90213a	-0.070375875
229	0x3ddcdb8a	0.10784061
230	0x3e81bf7c	0.25341403
231	0xbdd7cf3c	-0.10537574
232	0xbde17819	-0.11009235
233	0x3e30e950	0.17276502
234	0x3def653a	0.11689229
235	0x3e198a3e	0.14994141
236	0x3e835203	0.25648507
237	0x3de29d6f	0.11065184
238	0x3e6d3737	0.23165594
239	0x3e31520a	0.17316452
240	0x3d221084	0.03956653
241	0xbdcdbde0	-0.100459814
242	0x3d8247c0	0.063613415
243	0x3cb6c8d1	0.022312554
244	0x3e1096ae	0.1411998
245	0x3e0250af	0.12726091
246	0x3e68cda5	0.22734697
247	0x3cf74eec	0.030189
248	0x3d4fe539	0.050755713
249	0x3e6e51b4	0.23273355
250	0x3d80acb2	0.06282939
251	0x3dd58fda	0.10427828
252	0x3cf285d0	0.029604822
253	0x3d59a450	0.053135216
254	0xbdeacf24	-0.1146529
255	0x3e6d379d	0.23165746

shared_layers.2.bias f4 [32]
0	0x3d872b6a	0.066000775
1	0x3d836c57	0.064171486
2	0x3d97d396	0.07413404
3	0x3c18fb69	0.009337285
4	0x3bdbdcf3	0.006709689
5	0xbd600f20	-0.054701924
6	0xbcad1268	-0.02112694
7	0x3d8fd772	0.07023515
8	0x3c73cdc3	0.0148806
9	0x3dace1a6	0.084414765
10	0xbbac4180	-0.0052568316
11	0x3ca02216	0.019547503
12	0x3e47bbc3	0.19505219
13	0x3dcc8f00	0.099882126
14	0xbc27c26c	-0.010239225
15	0x3dd8aae2	0.10579468
16	0x3d3cf54c	0.04613237
17	0x3debc611	0.115123875
18	0x3d9d2d46	0.07674651
19	0xbbb0f58b	-0.0054003648
20	0xbd6b1a2c	-0.057398006
21	0xbd695670	-0.0569672
22	0xbd9cdd56	-0.07659404
23	0xbcdb8d40	-0.026800752
24	0x3d915275	0.070958056
25	0x3dc8eb42	0.09810497
26	0x3dc869da	0.097858146
27	0x3d4a5190	0.04939419
28	0x3ca53420	0.020166457
29	0xbbd94640	-0.006630689
30	0xbdc2b1c8	-0.09506565
31	0x3dc46a7a	0.09590621

shared_layers.4.weight f4 [8, 32]
0	0x3e199a64	0.15000302
1	0x3dfdfabf	0.12401342
2	0x3e24c982	0.16092494
3	0xbe68b8e1	-0.22726776
4	0x3e0fd664	0.14046627
5	0xbdecdf20	-0.11565995
6	0x3c12e2a5	0.008965169
7	0xbe2465ec	-0.16054505
8	0x3e0756f6	0.13216767
9	0x3e083f64	0.13305432
10	0xbde4ef82	-0.11178495
11	0x3d26f4a8	0.040760666
12	0x3bdb7608	0.00669742
13	0x3daa2797	0.083083324
14	0xbe037195	-0.12836297
15	0xbd135770	-0.03597206
16	0xbde04493	-0.109505795
17	0xbe3accf6	-0.18242249
18	0xbde29e22	-0.11065318
19	0xbe8a69e0	-0.270339
20	0x3cefe296	0.02928285
21	0x3c891408	0.016733184
22	0xbd9a212b	-0.075258575
23	0xbdcf4bef	-0.10121905
24	0xbe3fe938	-0.1874131
25	0x3e207224	0.15668541
26	0xbdc50401	-0.09619904
27	0x3e19e2c3	0.15027909
28	0x3dcba7d5	0.09944121
29	0x3bbc59ca	0.0057480084
30	0x3df4a6d3	0.11945882
31	0x3d35c270	0.044374883
32	0xbd36c02d	-0.044616867
33	0xbd692c21	-0.05692685
34	0xbc5f0f61	-0.013614506
35	0x3dd39f64	0.10333136
36	0xbd41278f	-0.047156867
37	0xbe0bee80	-0.136652
38	0x3e78a2a1	0.24280788
39	0x3d07a530	0.03311652
40	0x3c334d9a	0.010943795
41	0x3de968cf	0.11396944
42	0x3de98a9e	0.11403392
43	0xbe02f359	-0.12788142
44	0x3e17eb3a	0.14835826
45	0x3dc48cf2	0.09597196
46	0x3e52a3bb	0.2057027
47	0x3e243311	0.16035105
48	0x3db78777	0.08961385
49	0x3d8ad8a5	0.06779603
50	0x3c8a9791	0.016917976
51	0x3e281627	0.164147
52	0xbe191867	-0.14950715
53	0x3d6e3b62	0.0581621
54	0xbd9c17a1	-0.07621694
55	0xbde5b675	-0.112164415
56	0x3e0a3638	0.13497245
57	0xbde629f7	-0.11238473
58	0x3e1ce4ee	0.15321705
59	0xbd9cd408	-0.07657629
60	0x3dbbd3a0	0.09171224
61	0xbc67bb41	-0.014143766
62	0x3a234251	0.00062278385
63	0xbdc188c4	-0.09449914
64	0xbd5487e9	-0.051887427
65	0x3c9c6063	0.01908893
66	0xbd0b5a99	-0.034021948
67	0xbe547d45	-0.20750912
68	0xbd8b8304	-0.068120986
69	0x3decdf41	0.1156602
70	0xbd66fb85	-0.05639221
71	0xbe18f73a	-0.1493806
72	0xbc05b5ec	-0.008161049
73	0xbdda8c0e	-0.106712446
74	0x3da63d2d	0.08117137
75	0x3db47d78	0.08812994
76	0xbc8e83af	-0.017396776
77	0xbd6a53e4	-0.05720891
78	0xbe618910	-0.22024941
79	0x3ddbf842	0.10740711
80	0xbd8e5144	-0.06949094
81	0xbe2be4df	-0.16786526
82	0x3c057750	0.008146122
83	0xbe8455d0	-0.2584672
84	0xbe171c61	-0.1475692
85	0x3dc59dbe	0.096492276
86	0xbe3e9117	-0.18610035
87	0xbd7b0ea8	-0.061293274
88	0xbe05d72d	-0.13070364
89	0xbdade67a	-0.084912255
90	0xbe262684	-0.1622563
91	0x3dc55c18	0.09636706
92	0x3ce0b90f	0.027431993
93	0x3d07d47c	0.033161625
94	0xbd68608b	-0.056732696
95	0xbd58afd2	-0.05290205
96	0x3db71c44	0.08940938
97	0x3d8976bf	0.06712102
98	0x3e1bc64f	0.15212367
99	0x3a448d54	0.0007497866
100	0xbe22808f	-0.15869354
101	0xbe2ee69f	-0.17080162
102	0xbe048a5a	-0.12943402
103	0xbd22a697	-0.039709654
104	0x3dbf3606	0.09336476
105	0xbe2e3220	-0.17011309
106	0x3cdb2f88	0.026756063
107	0xbdd63936	-0.10460131
108	0xbe9ee90f	-0.31037185
109	0xbdf0c950	-0.11757147
110	0xbd86f1ea	-0.0658911
111	0xbe0f5d70	-0.14000487
112	0xbe006991	-0.1254027
113	0xbe8f19b8	-0.2794931
114	0xbdf90385	-0.121588744
115	0xbdc631b3	-0.09677448
116	0xbe1b8d9a	-0.15190735
117	0x3e0699d6	0.13144621
118	0xbd6b101d	-0.057388414
119	0x3dba7730	0.091047645
120	0xbe6c46a8	-0.23073828
121	0x3d8fae2f	0.07015645
122	0x3e1a2a90	0.15055299
123	0x3e1ea519	0.15492667
124	0x3e17014c	0.14746588
125	0x3e160358	0.14649713
126	0xbe33edfb	-0.17571251
127	0xbdc7bdd4	-0.09753004
128	0x3dce7a1b	0.100818835
129	0xbd5fb752	-0.054618187
130	0x3db749a1	0.089495905
131	0xbdf41415	-0.11917893
132	0xbd26d6ca	-0.040732183
133	0x3e03137b	0.128004
134	0xbdfe8ce1	-0.12429214
135	0xbe5116c1	-0.20418836
136	0xbe11f9fd	-0.14255519
137	0xbe147fc3	-0.14501862
138	0x3e2d48a1	0.16922237
139	0x3e14205c	0.14465469
140	0xbb3747af	-0.002796631
141	0xbe23e097	-0.16003643
142	0xbe989874	-0.29803813
143	0x3e2616ca	0.16219631
144	0x3ceb94df	0.02875751
145	0xbdc7b63c	-0.09751555
146	0x3dcc0e52	0.09963669
147	0xba9a0fa8	-0.0011753934
148	0xbdee4a20	-0.11635232
149	0x3e3444ba	0.17604342
150	0xbe2ee682	-0.17080119
151	0x3e072b5a	0.13200131
152	0xbea5976d	-0.3234209
153	0x3d2c6992	0.042092867
154	0x3d3c3839	0.045952056
155	0x3dec64f0	0.1154269
156	0xbdf8d54e	-0.1215006
157	0x3e079183	0.13239102
158	0xbe074f2a	-0.13213792
159	0xbdfd6283	-0.12372305
160	0x3ca897a2	0.020580117
161	0xbcf791a8	-0.030220821
162	0xbe03f745	-0.12887295
163	0xbe348cb1	-0.17631795
164	0xbdfbba05	-0.1229134
165	0x3d5efa36	0.05443784
166	0xbd812526	-0.063059136
167	0xbc57d5d1	-0.013173536
168	0x3e1a7ba1	0.15086223
169	0xbd94472f	-0.0724014
170	0x3d49e41d	0.04928981
171	0x3d0cea6b	0.034403246
172	0xbe100ccd	-0.14067383
173	0xbd8b4097	-0.06799429
174	0xbe4f827a	-0.20264617
175	0xbd03f037	-0.03221151
176	0x3e15311e	0.14569518
177	0xbdb4e276	-0.088322565
178	0x3d1e2763	0.03861178
179	0xbe87d4b6	-0.26529473
180	0xbdf38247	-0.11890083
181	0xb91094cc	-0.00013788341
182	0xbd5dfc3c	-0.054195628
183	0x3e013772	0.12618807
184	0xbe83a26a	-0.2570985
185	0x3dd57335	0.104223646
186	0xbdba5bc4	-0.09099534
187	0xbda1872f	-0.07887112
188	0x3e1904b6	0.14943203
189	0xbde95a20	-0.11394143
190	0xbdd36db2	-0.10323657
191	0x3db9340c	0.0904313
192	0xbdb7d7f1	-0.089767344
193	0xbd706543	-0.05869032
194	0x3e240373	0.16016941
195	0xbe1adb76	-0.1512278
196	0x3d4d67eb	0.050147932
197	0xbdadf253	-0.08493485
198	0xbe44a4bb	-0.19203465
199	0xbe017759	-0.12643184
200	0xbbf102a1	-0.0073550497
201	0xbe2c9d20	-0.16856813
202	0xbc8402ee	-0.016114678
203	0x3d12d8b0	0.03585118
204	0xbc666708	-0.0140626505
205	0x3d7a0d5c	0.061047897
206	0x3dba7498	0.0910427
207	0xbe340b2d	-0.17582388
208	0x3d865ff3	0.065612696
209	0xbd0de45c	-0.03464161
210	0xbd82de17	-0.063900165
211	0xbe00c45d	-0.12574907
212	0x3e000482	0.1250172
213	0xbe0cc1c5	-0.13745792
214	0xbd2a64af	-0.041599926
215	0xbe154872	-0.14578417
216	0x3b3a14aa	0.0028393664
217	0xbe1a7a34	-0.1508568
218	0x3d9bb61e	0.076030955
219	0x3e2e40f7	0.1701697
220	0x3d1026c1	0.03519321
221	0xbd0f552a	-0.03499333
222	0x3ded6729	0.11591942
223	0x3db8aa4b	0.09016856
224	0x3e27dc34	0.16392595
225	0xbe0deb68	-0.13859332
226	0x3e31bd88	0.17357457
227	0xbe54debb	-0.2078809
228	0xbd05ec47	-0.032696035
229	0xbd19f30f	-0.037585314
230	0xbe72b410	-0.23701501
231	0xbe97d971	-0.29658082
232	0xbc9c87fa	-0.019107807
233	0xbe13be89	-0.14428152
234	0x3da952cb	0.08267745
235	0x3ccf385a	0.025295425
236	0xbe337027	-0.17523251
237	0xbe18bc93	-0.14915685
238	0x3c7a0702	0.01526046
239	0x3a64cf4f	0.0008728401
240	0xbd52b905	-0.05144598
241	0xbe8eb24d	-0.27870408
242	0x3e169888	0.14706624
243	0xbd323c3d	-0.04351448
244	0x3d0bc214	0.034120634
245	0x3de5faf8	0.11229509
246	0x3de5b7f7	0.11216729
247	0xbdc71e44	-0.097225696
248	0xbe9d6222	-0.30738932
249	0xbe0b2175	-0.13586982
250	0xbcd1c9dd	-0.025608951
251	0x3da37722	0.07981707
252	0xba835b2b	-0.0010021677
253	0xbdbaab34	-0.09114686
254	0x3d3ce5e9	0.046117697
255	0x3da3773c	0.079817265

shared_layers.4.bias f4 [8]
0	0xbdbe4a49	-0.092915125
1	0xbdb2806f	-0.08715903
2	0xbe08c456	-0.13356146
3	0xbe3cf0a4	-0.18451172
4	0xbd6fde1d	-0.058561433
5	0xbcde97d1	-0.027172001
6	0xbd9bdb21	-0.07610155
7	0xbe12a447	-0.1432048
