training/models/C7_controller_acc0.819_lat0.006_succ5_small7_large10_carb15_cap105_rate0.001598_best_model.pth (torch, 16569 bytes, 6 tensors)

shared_layers.0.weight f4 [64, 3]
0	0x3f1ffba9	0.6249338
1	0x3ec84f0f	0.39122817
2	0x3eb36d6d	0.35044423
3	0x3d119b80	0.035548687
4	0x3d2ab588	0.041677028
5	0x3f003c11	0.50091654
6	0xbf08d74d	-0.5345352
7	0xbd5ff9cf	-0.054681595
8	0x3e7ddb1f	0.2479062
9	0x3e052687	0.13002978
10	0xbd78a663	-0.060705554
11	0xbe689c34	-0.22715837
12	0x3dbc0d8f	0.091822736
13	0x3f133604	0.57504296
14	0x3f019b3a	0.5062748
15	0x3f270fee	0.6525868
16	0x3dddbefa	0.108274415
17	0xbe907922	-0.28217417
18	0xbd8d2d4c	-0.06893405
19	0xbf0c6494	-0.5484097
20	0x3ddc254a	0.107493
21	0x3ec928f7	0.39289066
22	0xbdaabfe1	-0.08337379
23	0x3e7e9759	0.24862422
24	0x3e0cc073	0.13745289
25	0xbeb2b189	-0.34901074
26	0xbdc6e280	-0.0971117
27	0x3e85c9a2	0.26130396
28	0xbb97b4fc	-0.0046297293
29	0xbd8a26f2	-0.067457095
30	0x3ee3ee8f	0.44517943
31	0x3ec5a3f8	0.3860166
32	0x3ea1e3a7	0.31618997
33	0x3f25cd64	0.64766526
34	0x3e906fad	0.28210202
35	0xbedbb513	-0.42911586
36	0xbf02d21e	-0.51101863
37	0xbee91daf	-0.4553046
38	0x3e1f6dd9	0.15569247
39	0x3e862f65	0.26208034
40	0x3eb06330	0.34450674
41	0x3d87b60c	0.066265196
42	0xbdf7f38c	-0.12107
43	0x3e8adce2	0.27121645
44	0x3da1e633	0.07905235
45	0x3d0d15e7	0.034444716
46	0x3f1e5570	0.6184912
47	0x3f124bb0	0.5714674
48	0x3f062d78	0.5241313
49	0x3e9e7b4a	0.30953437
50	0xbe8b5b3c	-0.27218044
51	0xbf0ed6b4	-0.5579636
52	0xbeb1f7a6	-0.34759253
53	0xbebd9977	-0.37031147
54	0x3e1f51a1	0.15558483
55	0xbe0d6cf8	-0.138111
56	0x3e9dcb8e	0.30819362
57	0x3ef68db8	0.48154998
58	0xbe61247c	-0.21986574
59	0x3c3cec0c	0.011530887
60	0x3eb02f94	0.344113
61	0xbf08b714	-0.53404355
62	0xbe87d1d2	-0.26527268
63	0x3f1a725d	0.60330755
64	0x3e58ba05	0.21164711
65	0xbe521e25	-0.20519312
66	0x3cf69755	0.030101458
67	0xbed5446a	-0.41653758
68	0xbec13eb3	-0.37743148
69	0x3eb6b827	0.35687372
70	0x3ed8d812	0.4235235
71	0xbe30efdb	-0.17278998
72	0xbe307075	-0.17230399
73	0xbf02ed24	-0.511431
74	0x3efa2b1e	0.4886102
75	0xbe5d43c5	-0.21607883
76	0x3eb34888	0.35016274
77	0x3e88fca3	0.26755247
78	0x3ea00e1e	0.3126077
79	0x3e66f7ac	0.22555417
80	0x3c968206	0.018372547
81	0xbeb5d001	-0.35510257
82	0xbd08ec86	-0.03342869
83	0x3f05d225	0.5227378
84	0x3e82cdb6	0.2554757
85	0x3ea519b5	0.32246175
86	0xbda5dadd	-0.080983855
87	0xbe8aa5b3	-0.27079543
88	0xbe13baf8	-0.14426792
89	0xbe6b0787	-0.2295209
90	0x3e825cab	0.25461325
91	0xbe24f50d	-0.16109104
92	0x3e690c63	0.22758631
93	0xbe77bbdf	-0.24192761
94	0x3f121c8a	0.570748
95	0xbcf3f9be	-0.029782172
96	0xbe104eae	-0.14092514
97	0x3eba1f5a	0.36352044
98	0xbe0790c2	-0.13238814
99	0xbdf17af6	-0.11791031
100	0xbe75f493	-0.24019079
101	0x3eeea63c	0.46611202
102	0xbe9323aa	-0.28738147
103	0xbde274f7	-0.110574655
104	0xbec8feb8	-0.39256835
105	0xbee50041	-0.44726756
106	0xb88e0736	-6.772431e-05
107	0xbeaacfc3	-0.33361635
108	0xbe8a3395	-0.2699248
109	0x3e45b647	0.19307815
110	0x3ef20d05	0.47275558
111	0xbe90a7b9	-0.28252962
112	0xbe5e2dc0	-0.2169714
113	0x3e98c909	0.29840878
114	0xbee0bc30	-0.43893576
115	0xbef339c6	-0.47505015
116	0x3ecd7f07	0.40135977
117	0x3ee9d1e0	0.45667934
118	0x3ed2de4d	0.41185227
119	0xbef6715d	-0.48133364
120	0x3f2c7dad	0.67379266
121	0xbed380b0	-0.41309118
122	0xbe0732bb	-0.13202946
123	0x3d7980a2	0.06091369
124	0x3f0c522a	0.5481287
125	0x3dbc5002	0.09194948
126	0x3f132d0e	0.57490623
127	0x3f1c4286	0.61039007
128	0x3ec18cc5	0.3780271
129	0xbe9913e0	-0.29897976
130	0xbefa0ca8	-0.4883778
131	0xbe0f1147	-0.13971435
132	0xbe1474fc	-0.14497751
133	0xbf0b93cc	-0.54522395
134	0xbe909740	-0.28240395
135	0xbe6c690b	-0.23086946
136	0xbebb0b3a	-0.36532003
137	0x3dda90ad	0.10672126
138	0x3e5bc945	0.21463497
139	0x3e9eee5c	0.3104123
140	0x3f07cc0a	0.53045714
141	0x3ece0374	0.4023701
142	0xbe66e01f	-0.22546433
143	0x3c8edb66	0.017438602
144	0x3f155e15	0.5834668
145	0xbe3d48e4	-0.18484837
146	0x3e8054cc	0.25064695
147	0x3d90b1af	0.070651405
148	0x3e0ab56f	0.13545774
149	0x3f17e51f	0.59333986
150	0x3de90001	0.11376954
151	0x3ea947ee	0.3306269
152	0xbed0b4ee	-0.40763038
153	0xbea98ce0	-0.33115292
154	0xbe26d6b6	-0.16292843
155	0x3ed8fad5	0.4237887
156	0x3dbaa06c	0.09112629
157	0x3e6e4fbf	0.23272608
158	0xbe541189	-0.20709814
159	0x3e84d28e	0.2594189
160	0xbe60cf76	-0.2195414
161	0x3d8ef324	0.06979969
162	0xbee6ec48	-0.45102143
163	0xbe392497	-0.18080364
164	0xbe8965f1	-0.26835588
165	0xbe4ec355	-0.20191701
166	0xbdcb9aef	-0.099416606
167	0xbec2d006	-0.38049334
168	0x3e526733	0.2054718
169	0x3de84841	0.11341906
170	0xbcfa218a	-0.03053357
171	0x3c97661a	0.018481303
172	0xbd684ccf	-0.056713875
173	0xbaa12973	-0.0012295678
174	0xbc927b0b	-0.017880937
175	0xbd7e4d05	-0.06208517
176	0xbe68283d	-0.226716
177	0x3e65f200	0.22455597
178	0xbe1c9326	-0.15290508
179	0xbe116b19	-0.14201011
180	0xbea5ed3c	-0.32407558
181	0xbdccdfa0	-0.100035906
182	0x3d3237bb	0.04351018
183	0x3ef6f1ed	0.4823145
184	0x3dd12469	0.10212023
185	0x3ec7b38d	0.39004174
186	0x3e8a9ac5	0.27071205
187	0xbd813163	-0.06308248
188	0xbd98c11e	-0.07458709
189	0x3ec99c78	0.3937719
190	0x3ee95f29	0.45580414
191	0xbe468369	-0.19386066

shared_layers.0.bias f4 [64]
0	0x3d5917da	0.053001262
1	0x3f03d051	0.5148974
2	0xbec1ffa4	-0.3789035
3	0x3f0a13ea	0.53936636
4	0xbf05c0dc	-0.52247405
5	0xbd9f2f0f	-0.077726476
6	0x3d8174aa	0.0632108
7	0x3e793675	0.2433718
8	0xbec7b17d	-0.390026
9	0x3ea2d7a8	0.31805158
10	0x3ee119fd	0.4396514
11	0x3d1317e4	0.035911456
12	0x3eb661d4	0.35621512
13	0x3f0022f5	0.5005334
14	0x3f0a6e1a	0.5407425
15	0x3f2fcf46	0.6867565
16	0x3e0ff501	0.14058305
17	0xbea39f9a	-0.31957704
18	0xbe4f36a3	-0.20235686
19	0x3e8d420f	0.2758946
20	0xbf11ab8b	-0.5690238
21	0x3f14bc01	0.5809937
22	0xbe58b09b	-0.2116112
23	0xbcb84515	-0.022493878
24	0xbf023e81	-0.50876623
25	0x3e9c127b	0.3048285
26	0x3eb2c6ee	0.34917396
27	0x3e531a17	0.20615421
28	0x3e769987	0.24082004
29	0xbf0a33cf	-0.53985304
30	0x3eb3328b	0.349995
31	0x3e7ec2d4	0.24879009
32	0x3e9f5ca0	0.31125355
33	0x3f2f1bfb	0.6840207
34	0xbee1a4a2	-0.44070917
35	0xbe9a37e3	-0.30120763
36	0xbea60866	-0.32428282
37	0x3e7ca5a0	0.24672556
38	0xbe26cfad	-0.1629016
39	0x3eebc651	0.4604974
40	0x3e247cdb	0.16063254
41	0x3d6cd5aa	0.057820953
42	0xbe4f39da	-0.20236912
43	0xbe3c1bfe	-0.18370053
44	0xbed91d3f	-0.42405125
45	0x3f343fee	0.7041005
46	0x3e3af643	0.18258004
47	0x3da86df6	0.082240984
48	0x3eff3322	0.498437
49	0x3f27cfb0	0.6555128
50	0x3ef675a8	0.4813664
51	0x3e221d7d	0.15831561
52	0x3e6b382b	0.22970645
53	0x3f12210d	0.5708168
54	0x3ea5c911	0.32379964
55	0x3ee81a6f	0.45332667
56	0x3e3032be	0.17206857
57	0xbe8e1c2a	-0.27755862
58	0x3f350d3c	0.7072332
59	0x3ec0ccc9	0.3765624
60	0x3e7e6b5e	0.24845645
61	0x3f1e4e39	0.6183811
62	0x3e7758c9	0.24154963
63	0x3f3172cb	0.69315785

shared_layers.2.weight f4 [32, 64]
0	0xbb48c445	-0.0030634564
1	0xbd67642d	-0.05649202
2	0xbc97df38	-0.018539056
3	0xbde760e0	-0.11297774
4	0xbd617774	-0.05504556
5	0xbddadb6c	-0.10686383
6	0xbd83eee2	-0.06442048
7	0x3dc1ce05	0.09463123
8	0xbda6f78a	-0.08152683
9	0xbd686f75	-0.05674692
10	0xbe0d3436	-0.13789448
11	0x3dce055d	0.10059617
12	0x3d12fc20	0.035884976
13	0xbd85e693	-0.06538119
14	0xbdc77d82	-0.097407356
15	0xbdb18bf7	-0.08669274
16	0x3dae91f4	0.08523932
17	0x3cbc9780	0.02302146
18	0x3d9c08a0	0.076188326
19	0xbddb4ae7	-0.10707646
20	0xbd0bd324	-0.034136906
21	0xbd848cce	-0.06472169
22	0x3d9c2bfa	0.07625575
23	0xbdb0e90d	-0.08638201
24	0xbd6b26ec	-0.057410166
25	0x3de9821e	0.11401771
26	0xbdddc8ce	-0.10829316
27	0xbd026ce9	-0.031842146
28	0x3cf73742	0.030177716
29	0xbdea359c	-0.114360064
30	0xbde0a45c	-0.10968849
31	0xbd301f91	-0.042998854
32	0xbd9e681a	-0.077346995
33	0xbcf701bd	-0.030152196
34	0x3da8bee4	0.082395345
35	0x3d0b2b9c	0.033977136
36	0x3d75861c	0.05994235
37	0xbc9e0560	-0.019289672
38	0xbbea9d40	-0.007159859
39	0xbd07731e	-0.03306877
40	0x3d3b72bf	0.045763727
41	0xbc99d6f8	-0.018779263
42	0xbd4c4007	-0.04986575
43	0x3debd122	0.11514498
44	0x3dad4640	0.08460665
45	0xbd22ef98	-0.039779276
46	0xbd233fab	-0.03985564
47	0x3d9cee7a	0.07662673
48	0x3d7885c3	0.06067444
49	0x3bd60e88	0.006532494
50	0xbcde82a6	-0.027161907
51	0xbdc3e1aa	-0.095645264
52	0x3d51ddc5	0.051236887
53	0xbdddea30	-0.10835683
54	0x3db0a130	0.08624494
55	0x3dd86b97	0.10567396
56	0xbbb5cd77	-0.005548175
57	0xbd4d6660	-0.05014646
58	0xbb6b9cb5	-0.003595156
59	0xbcb22ca6	-0.021749806
60	0x3da76b22	0.08174731
61	0x3ddfde55	0.10931078
62	0x3d77c0e7	0.0604867
63	0x3dc9bff2	0.09851064
64	0x3e750e64	0.23931271
65	0xbb77dceb	-0.0037820886
66	0xbca1d980	-0.019757032
67	0x3db42126	0.08795385
68	0xbbe19d40	-0.0068852007
69	0x3e7c8701	0.24660875
70	0x3d7443c4	0.05963494
71	0x3e1b82b6	0.15186581
72	0x3c5e2f70	0.013561115
73	0x3cd0dc13	0.025495565
74	0x3ddd85eb	0.108165585
75	0x3e24f85b	0.16110365
76	0xbc367dc0	-0.01113838
77	0x3c087cc5	0.008330529
78	0x3e04f00d	0.12982197
79	0x3e700e60	0.23442984
80	0x3d907719	0.07053966
81	0xbdaf2382	-0.085516945
82	0xbd7c97bc	-0.061668143
83	0x3e2882d3	0.16456155
84	0x3be80d20	0.0070816427
85	0x3e59e0c8	0.21277153
86	0x3d88ba62	0.06676175
87	0x3cf3cd1f	0.029760895
88	0xbd0f0038	-0.034912318
89	0x3e956a63	0.2918273
90	0x3e3f648b	0.18690698
91	0xbdfbc4ba	-0.12293382
92	0x3e0b12da	0.1358141
93	0x3d866578	0.065623224
94	0x3d975d85	0.07390884
95	0x3dc5a8ff	0.09651374
96	0x3df400ab	0.1191419
97	0x3de976da	0.11399622
98	0x3d6c1558	0.057637542
99	0xbd8909e4	-0.066913396
100	0x3d6bdab4	0.05758162
101	0xbde6267a	-0.112378076
102	0xbde93d4a	-0.11388643
103	0x3e67f5dd	0.22652383
104	0x3cc2b462	0.023767654
105	0x3d8ecae0	0.06972289
106	0x3e2ffc77	0.17186151
107	0xbdd59f78	-0.10430807
108	0xbd2b2f40	-0.041793108
109	0x3dfd9eaa	0.123837784
110	0x3cdc946c	0.026926242
111	0x3d590a7d	0.052988518
112	0x3df75020	0.120758295
113	0x3c51f82e	0.012815518
114	0x3d914e48	0.07095009
115	0x3ca230e8	0.019798711
116	0x3e0598d6	0.13046584
117	0x3ce33fe7	0.027740432
118	0x3def6206	0.11688618
119	0x3da873e8	0.08225232
120	0x3e42aeb9	0.19011964
121	0xbd20ce08	-0.039258987
122	0x3e0fb3f6	0.14033493
123	0x3e81cb5a	0.25350457
124	0xbd96c6d8	-0.07362145
125	0x3e75d43a	0.2400674
126	0x3db49a02	0.08818437
127	0x3dd6d112	0.10489096
128	0xbd54664f	-0.05185538
129	0x3d7e508e	0.06208854
130	0x3d502244	0.05081393
131	0xbc887e85	-0.016661892
132	0x3d86cdd8	0.0658223
133	0xbdd897f0	-0.10575855
134	0xbd9f9574	-0.07792178
135	0x3da1b607	0.07896047
136	0x3df4394e	0.119249925
137	0xbdb64257	-0.08899372
138	0x3dc126ef	0.09431254
139	0xbd53c172	-0.051698156
140	0x3d4b56d8	0.049643368
141	0xbd927d11	-0.07152761
142	0x3cd4c819	0.02597432
143	0x3cff833b	0.031190505
144	0x3db70e70	0.089383006
145	0x3de6eaf8	0.112752855
146	0x3dbbd16a	0.09170802
147	0x3d734c09	0.059398685
148	0xbcd39708	-0.025828853
149	0xbd603ff6	-0.054748498
150	0xbdbeae74	-0.09310618
151	0xbd4e4704	-0.050360695
152	0xbdbad7ba	-0.09123178
153	0xbd425c07	-0.047451045
154	0x3d4975fd	0.049184788
155	0xbb21357b	-0.0024598527
156	0x3ccd7b6b	0.025083264
157	0x3d651e3c	0.055937037
158	0xbdba03d1	-0.09082759
159	0xbd8b07e6	-0.06788616
160	0x3c90028e	0.017579343
161	0x3c1504f3	0.009095418
162	0x3c61a540	0.013772309
163	0xbbca76c0	-0.006178707
164	0xbdc61728	-0.096723855
165	0xbcca72a0	-0.02471286
166	0xbb451f40	-0.003007844
167	0x3b820b8a	0.0039686607
168	0x3d9c7e5e	0.0764129
169	0xbd8db256	-0.069187805
170	0x3cec4334	0.028840639
171	0x3db74184	0.08948043
172	0x3b006440	0.0019591004
173	0xbe07be78	-0.13256252
174	0xbdd519f7	-0.10405343
175	0xbd6ce901	-0.057839397
176	0xbd8cb90a	-0.06871231
177	0x3b3e9bca	0.0029084557
178	0xbd9b40e8	-0.07580739
179	0xbd9e9d8e	-0.07744895
180	0xbafcc632	-0.0019285141
181	0xbc047f39	-0.008086973
182	0x3dda4021	0.10656763
183	0xbcfa424c	-0.030549191
184	0xbe07df45	-0.13268764
185	0x3c92d768	0.01792498
186	0x3d14b4a0	0.03630507
187	0xbb884fae	-0.004159889
188	0xbdd108c9	-0.10206754
189	0xbd001888	-0.031273395
190	0x3c9d3a13	0.019192731
191	0xbdae1b20	-0.085012674
192	0x3d6ed9bb	0.058313113
193	0xbcc751ee	-0.02433106
194	0xbc122880	-0.008920789
195	0xbd8f40e2	-0.06994797
196	0x3d8b017a	0.06787391
197	0x3a056400	0.00050884485
198	0x3ddf9b88	0.10918337
199	0xbd415b69	-0.047206316
200	0x3d952eae	0.07284294
201	0x3dc79e32	0.0974697
202	0xbd5c0022	-0.053711064
203	0xbc1192ef	-0.008885129
204	0x3d564cc0	0.05231929
205	0x3d1e1850	0.038597405
206	0x3db4003b	0.087891065
207	0xbe05ee69	-0.13079228
208	0xbd745530	-0.059651554
209	0xbd9c7d04	-0.07641032
210	0xbde01f40	-0.109434605
211	0xbc9b73df	-0.01897615
212	0xbd15aaec	-0.036539957
213	0xbdb81178	-0.08987707
214	0x3d8ea6dc	0.0696542
215	0xbdd4cb87	-0.10390382
216	0xbdb90d0c	-0.090356916
217	0x3daf41bc	0.0855746
218	0x3d776aba	0.060404517
219	0x3c88f818	0.016719863
220	0x3d87b0a3	0.06625488
221	0xbddec7ac	-0.10877928
222	0x3b92b1d7	0.0044767666
223	0x3d9485f2	0.072521105
224	0xbdc61636	-0.09672205
225	0xbd977f62	-0.07397343
226	0xbd6a3398	-0.05717811
227	0x3db4a170	0.08819854
228	0x3d6948e4	0.05695428
229	0x3cd4e7b0	0.025989383
230	0x3d958170	0.07300079
231	0x3d5ad2b4	0.0534236
232	0x3d9408a3	0.0722821
233	0x3dcc0aa0	0.09962964
234	0x3da3ae72	0.07992257
235	0x3dfd6102	0.123720184
236	0x3df8d456	0.12149875
237	0xbd7e511a	-0.062089063
238	0x3bc45ebd	0.005992739
239	0xbc7aa0e0	-0.015297145
240	0x3d43dbed	0.04781716
241	0x3df1d9bf	0.1180911
242	0xbda7f8e2	-0.082017675
243	0xbca99a98	-0.020703599
244	0xbdf575be	-0.11985348
245	0x3d9668f7	0.07344239
246	0xbdfdc2aa	-0.12390645
247	0xbc8c6bd7	-0.017141266
248	0x3dce1e99	0.1006443
249	0xbd98405c	-0.074341506
250	0x3d18dc25	0.03731932
251	0x3ca7c581	0.02047992
252	0x3da96726	0.08271627
253	0x3a6fc0b9	0.00091458444
254	0x3d06a6f0	0.032874048
255	0xbd1b0cf1	-0.03785414

shared_layers.2.bias f4 [32]
0	0x3d9f8a9b	0.07790109
1	0x3e01899d	0.12650152
2	0x3d41ccc8	0.047314435
3	0xbd63259b	-0.055455785
4	0x3e1e56e5	0.15462835
5	0x3c94fe49	0.018187659
6	0xbc902e38	-0.017600164
7	0xbd8ab702	-0.06773187
8	0x3e5a2f08	0.21307003
9	0x3ddb6d4a	0.107142046
10	0x3b971d38	0.0046116374
11	0xbda10741	-0.07862712
12	0x3d9dd440	0.07706499
13	0xbdbf9922	-0.0935538
14	0x3d44981b	0.04799662
15	0x3dbe231b	0.092840396
16	0x3d535236	0.051592074
17	0x3d3896d3	0.045065712
18	0x3cf78fa5	0.030219862
19	0xbda3aa60	-0.07991481
20	0x3df5a4d2	0.119943276
21	0xbdcabc60	-0.09899211
22	0xbd05274c	-0.03250818
23	0xbe006b91	-0.12541033
24	0xbc35ce30	-0.011096522
25	0xbde6f248	-0.1127668
26	0xbd861c81	-0.065484054
27	0x3cb1b5e3	0.021693176
28	0x3e5ecbc1	0.21757413
29	0xbd873272	-0.066014186
30	0xbd94b156	-0.07260387
31	0x3e375e71	0.1790712

shared_layers.4.weight f4 [8, 32]
0	0x3c3554de	0.011067597
1	0xbde74df1	-0.11294163
2	0xbbecf3ed	-0.0072312267
3	0x3e24d33d	0.16096206
4	0xbddb7457	-0.107155494
5	0x3dfc3830	0.123154044
6	0x3de335b2	0.11094226
7	0xbdca3588	-0.098734915
8	0xbce3a135	-0.02778683
9	0x3d98a640	0.07453585
10	0x3e2b2089	0.1671163
11	0xbd9e4b66	-0.07729225
12	0x3d93e864	0.07222059
13	0x3c87c975	0.016575554
14	0x3dc329d7	0.09529465
15	0x3d33a962	0.043862708
16	0xbd908a89	-0.070576735
17	0xbe31a77d	-0.17349048
18	0xbe999f19	-0.30004194
19	0xbe2bf932	-0.16794279
20	0x3dbf721d	0.09347937
21	0x3d898ebf	0.0671668
22	0xbd56c05c	-0.052429542
23	0x3dcbb77b	0.099471055
24	0x3d7fc468	0.062443167
25	0xbd5d8ac2	-0.054087408
26	0xbd0e91e2	-0.034807093
27	0x3dd5f947	0.104479365
28	0xbe94905b	-0.29016384
29	0x3dbc49fa	0.091937974
30	0xbe0040e5	-0.12524755
31	0x3ab4cbe9	0.001379368
32	0xbe001b09	-0.12510313
33	0x3df79973	0.12089815
34	0xbd2360a4	-0.039887086
35	0x3c6726a0	0.01410833
36	0x3e41218d	0.18860455
37	0x3ccda5d5	0.025103489
38	0xbda02d52	-0.07821144
39	0xbddc8806	-0.10768132
40	0x3e1e9720	0.15487337
41	0x3d528615	0.0513974
42	0xbdaf7faf	-0.085692756
43	0xbdeadd5f	-0.114680044
44	0xbdd6a78a	-0.10481174
45	0x3d019e99	0.03164539
46	0xbe0e8e13	-0.13921385
47	0xbc0ffaa5	-0.008787786
48	0x3cd6afb7	0.026206834
49	0xbcecfab0	-0.02892813
50	0x3e4a6aea	0.19767347
51	0xbe15a97a	-0.14615431
52	0xbe147445	-0.14497478
53	0xbbce2dfc	-0.006292103
54	0xbd83087e	-0.06398104
55	0xbcdfcb17	-0.02731852
56	0x3d9ece2d	0.07754169
57	0x3ddb9abc	0.107228726
58	0xbda11815	-0.078659214
59	0xbd89d8d1	-0.067308076
60	0x3dc20b6e	0.09474836
61	0xbdb23c46	-0.087029025
62	0xbd120900	-0.035653114
63	0x3e81080e	0.25201458
64	0xbc9bd864	-0.019024082
65	0xbde28926	-0.11061315
66	0xbe32cfdc	-0.17462105
67	0x3d886426	0.06659727
68	0xbd3d310a	-0.046189345
69	0xbe135b09	-0.14390196
70	0xbe253367	-0.1613289
71	0xbe04ffca	-0.12988201
72	0xbe0d1dd9	-0.13780917
73	0xbcbfa579	-0.023394333
74	0xbdf1fbb3	-0.11815586
75	0xbdce68a1	-0.1007855
76	0x3dc551aa	0.09634717
77	0x3cd596cc	0.026072882
78	0xbdde5070	-0.10855186
79	0xbe20a936	-0.15689549
80	0x3e0f8f61	0.14019538
81	0x3ddd67b8	0.108107984
82	0xbd1d3daa	-0.038388886
83	0x3ddc38e8	0.107530415
84	0xbe09643d	-0.13417144
85	0xbdc331c1	-0.09530974
86	0x3d2aaa2f	0.041666206
87	0xbd1c306a	-0.03813211
88	0x3e16f1fa	0.14740744
89	0xbe0e2418	-0.13880956
90	0xbe1d11b8	-0.1533879
91	0x3b3b4401	0.002857447
92	0xbe2d6da6	-0.16936359
93	0x3cfa3a92	0.030545507
94	0x3e1b32a2	0.15156034
95	0x3b3188b9	0.002708955
96	0xbdfb185c	-0.122605056
97	0xbe92ca9d	-0.28670207
98	0xbdfbc295	-0.12292973
99	0xbc2b9b49	-0.010474035
100	0xbe0561e4	-0.13025624
101	0x3d9f886a	0.07789691
102	0xbc87e5f6	-0.016589146
103	0x3d97ac8f	0.0740596
104	0xbd923e46	-0.07140784
105	0xbe12f7ce	-0.14352342
106	0x3da60e5c	0.081082076
107	0xbe375c3e	-0.17906281
108	0x3d09a648	0.033605844
109	0x3e15d89f	0.14633416
110	0xbd3dc341	-0.046328787
111	0x3c69f7b8	0.014280252
112	0xbdc597a7	-0.09648066
113	0x3ca18bd9	0.019720005
114	0xbdc89bc1	-0.09795333
115	0x3dd2fbaa	0.10301907
116	0xbdcb4a1e	-0.09926246
117	0x3ca9d8ca	0.020733256
118	0xbe317008	-0.17327893
119	0x3de0df48	0.109800875
120	0x3de788b5	0.11305372
121	0xbda82cce	-0.08211671
122	0x3ceed67c	0.029155008
123	0xbd93b9bd	-0.07213161
124	0xbe0aca99	-0.13553847
125	0x3dc5b9e8	0.096545994
126	0x3e1c28fd	0.15250011
127	0xbe3fa4dd	-0.18715234
128	0x3ddde9c0	0.108356
129	0xbd51d8d9	-0.051232193
130	0x3dfa3c4d	0.12218533
131	0xbca81d92	-0.020521913
132	0xbd8c5d1c	-0.06853697
133	0x3e09256b	0.1339318
134	0x3cf076d1	0.029353531
135	0xbdc23fc8	-0.094848216
136	0xbce99c73	-0.028516984
137	0x3dce84d2	0.10083927
138	0x3e0a0475	0.13478263
139	0x3dbe92bd	0.09305332
140	0xbe293562	-0.1652427
141	0xbe2e2267	-0.17005311
142	0x3de5a23a	0.11212583
143	0x3d1b21ee	0.037874155
144	0x3db96452	0.09052338
145	0xbd1a8bbf	-0.03773093
146	0xbe7d7f28	-0.24755538
147	0xbd9dabe0	-0.07698798
148	0xbe1ef6dd	-0.15523858
149	0xbde35e44	-0.11101964
150	0xbd0d630d	-0.03451829
151	0xbd9c7f50	-0.076414704
152	0x3e0a1da9	0.13487877
153	0xbcff4e7f	-0.03116536
154	0xbd5923a6	-0.053012513
155	0xbc7d1344	-0.015446488
156	0xbe557ae4	-0.2084766
157	0xbc192ad7	-0.009348593
158	0xbdf88d17	-0.12136286
159	0xbe7a1b3d	-0.24424453
160	0xbc52febd	-0.012878117
161	0xbc3747d7	-0.011186562
162	0x3d643d68	0.055722624
163	0x3dedb03a	0.11605878
164	0xbd75e53b	-0.060033064
165	0x3dd97d4a	0.106196
166	0xbe1a14dd	-0.15047021
167	0x3e217761	0.15768196
168	0xbe163cc7	-0.14671622
169	0x3b054802	0.002033711
170	0xbd9db927	-0.07701331
171	0x3d17c870	0.037056386
172	0x3e021a9d	0.12705465
173	0xbdde020f	-0.108402364
174	0xbcc65346	-0.02420963
175	0x3de86d03	0.11348917
176	0x3d28dbb5	0.041225154
177	0xbca18c33	-0.019720173
178	0xbcca9614	-0.024729766
179	0xbd1f924f	-0.03895789
180	0xbdd2f243	-0.10300114
181	0xbdb2427f	-0.087040894
182	0xbe12469e	-0.14284751
183	0x3cb99855	0.022655645
184	0x3e061bd1	0.13096549
185	0xbe0caf8e	-0.13738844
186	0xbdf6994b	-0.12040957
187	0xbd9b730e	-0.07590304
188	0xbd9e75f4	-0.077373415
189	0x3c5a1c28	0.013312377
190	0x3d0d11bc	0.03444074
191	0xbe9a3ed7	-0.30126068
192	0xbe31fb59	-0.17381038
193	0xbddaaba1	-0.10677267
194	0xbdb88ea5	-0.09011582
195	0x3d947e7b	0.07250687
196	0x3d347c1c	0.044063672
197	0x3dc4c766	0.09608345
198	0x3e33028d	0.17481442
199	0xbd9c00c0	-0.076173306
200	0xbe7d4c78	-0.24736202
201	0x3db3139a	0.08743973
202	0x3e2b2237	0.1671227
203	0x3d4ccc26	0.04999938
204	0xbe1d1579	-0.15340222
205	0xbe2255eb	-0.15853088
206	0xbccbbd86	-0.024870645
207	0x3e048db7	0.12944685
208	0xbaaa95af	-0.001301458
209	0x3d81fb22	0.06346728
210	0x3db0585b	0.086106025
211	0x3ccb3ee8	0.02481027
212	0x3d26f5e3	0.04076184
213	0xbdcfbf23	-0.10143878
214	0x3da3a337	0.07990115
215	0x3da58183	0.08081343
216	0xbe30e4d7	-0.17274795
217	0xbe06e340	-0.13172626
218	0x3d3cdee0	0.046110988
219	0xbd3cfbed	-0.046138693
220	0xbd13e6bb	-0.036108714
221	0xbe291525	-0.16511972
222	0xbe1d8e3a	-0.15386286
223	0xbdd6db1d	-0.10491011
224	0x3d775c0e	0.060390525
225	0xbe96361d	-0.2933816
226	0x3d4b086d	0.049568582
227	0xbd67c336	-0.056582652
228	0xbe37ab23	-0.17936377
229	0xbd70813b	-0.058716994
230	0x3c8bca5d	0.017064268
231	0xbc30656e	-0.01076637
232	0xbe800c92	-0.2500959
233	0x3e181f42	0.14855674
234	0x3c3e70e6	0.011623597
235	0xbdad719c	-0.08468935
236	0xbcba0c7a	-0.022711027
237	0xbdbd2ed6	-0.09237449
238	0xbe147b22	-0.14500096
239	0xbd6117b1	-0.054954235
240	0x3d4113f7	0.04713818
241	0x3c02eb14	0.007990617
242	0xbe757edc	-0.23974174
243	0xbd8e0d46	-0.069361255
244	0xbe2a4849	-0.16629137
245	0x3d897e70	0.06713569
246	0xbdfbef41	-0.123014934
247	0x3e04126a	0.1289765
248	0xbe12f0d8	-0.14349687
249	0x3dcf573c	0.101240605
250	0x3e173c71	0.1476915
251	0xbd091eec	-0.033476755
252	0xbe890e39	-0.26768664
253	0x3e0437b1	0.1291187
254	0x3e256de5	0.16155203
255	0xbe530f19	-0.20611228

shared_layers.4.bias f4 [8]
0	0xbe6425af	-0.2228
1	0x3e80ee3a	0.25181752
2	0xbd9426c9	-0.0723396
3	0x3d0fb58a	0.03508524
4	0x3d23022b	0.03979699
5	0x3d3a2b47	0.04545143
6	0x3cde455b	0.02713268
7	0x3dac57a6	0.08415155
