training/models/C8_controller_acc0.95_lat0.015_succ5_small7_large10_carb15_cap105_rate0.001598_best_model.pth (torch, 16557 bytes, 6 tensors)

shared_layers.0.weight f4 [64, 3]
0.16984788 -0.47248957 0.00042073036 -0.99923915 -0.1921576 -0.59247017 1.0632756 0.74375343
0.50232434 0.07072138 -0.37389138 0.27736324 0.16843224 -0.21859628 0.2037061 -0.20729288
-0.036036074 0.3601374 -1.0892464 -0.35920915 -0.14170401 0.4624499 0.54182136 0.062625505
-0.5634794 0.07633995 -0.16458163 -0.17616722 -0.04112256 0.011983853 0.8186881 -0.28887507
0.7426191 0.7685693 0.41610014 0.41971913 -0.23484147 0.28258234 -0.0076746643 -0.1045271
-0.31843692 -0.13967079 0.360079 0.3605563 0.05226013 -0.16430832 -0.2646158 -0.48960063
0.18450159 0.7440735 0.17128085 -0.5394688 -0.0002656665 -0.3665126 -0.08744639 -0.51289815
-0.21649988 0.29140356 0.29599917 0.29398435 -1.0238202 0.37378502 -0.6074591 -0.40913534
-0.070423506 -0.10286806 -1.337507 0.6035173 -0.23221417 0.27173126 0.0847638 -0.2971794
-0.14988786 0.2587966 0.53531826 0.28839076 0.44183514 0.21748185 -0.2264387 -0.4442698
0.5003577 0.85943586 0.38518947 0.3282135 -0.60468745 0.7111707 0.19649683 -0.2681765
0.6662697 -0.3191814 0.37923962 0.48999485 -0.10998266 1.1604666 0.630838 0.48484427
0.6613157 -0.33309385 0.31078035 0.82287896 -0.1898026 -0.057986718 0.7970453 -0.41691816
0.2273506 -0.19042121 0.067992516 -0.37805077 -0.20514064 -0.32557422 -0.26933482 -0.40886527
0.034322046 0.09409184 -0.56447095 -0.20597866 0.16904096 -0.10082366 -0.27988103 0.39703423
-0.8642699 -0.20235352 0.03133902 -0.7832856 0.3915422 0.2090908 0.6027624 -0.33838692
0.39225355 -0.41198987 0.42958036 -0.24982107 0.8106233 0.53667665 0.24007575 0.68355393
0.34486642 0.46585277 0.17986412 -0.44803956 -0.47245976 0.0026241103 -0.30902517 -0.20121972
0.23803152 -0.13266063 -0.0627774 0.14404573 0.4337901 -0.07220106 -0.49605817 -0.29996783
0.10235427 -0.61746687 0.35504836 0.03121594 -0.836639 0.7158733 -0.7116113 -0.13073003
0.6091369 0.6474256 1.0711995 0.32683462 0.57831466 0.7710582 0.21460673 0.48419067
1.1481707 -0.19221942 -0.1022411 -0.27262205 -0.30304334 -0.27418673 0.3831762 0.54780555
0.1799771 -0.57690567 0.39892632 0.083159395 0.36098817 0.046660878 0.4975931 0.7839009
0.24976575 0.6961123 -0.10303827 -0.42020118 0.2820623 0.34730387 0.056577723 0.24450968
00000000: 9aec 2d3e 27ea f1be 7995 dc39 23ce 7fbf
00000010: f6c4 44be 20ac 17bf 6a19 883f a066 3e3f
00000020: 5498 003f 5fd6 903d b16e bfbe 8e02 8e3e
00000030: 8079 2c3e b4d7 5fbe 5598 503e 9644 54be
00000040: 909a 13bd ee63 b83e 6d6c 8bbf 43ea b7be
00000050: db1a 11be 3cc6 ec3e ceb4 0a3f cd41 803d
00000060: 3040 10bf 1f58 9c3d 1688 28be 2e65 34be
00000070: 2170 28bd ec57 443c 8b95 513f 6fe7 93be
00000080: 491c 3e3f f5c0 443f 140b d53e 6de5 d63e
00000090: 487a 70be a2ae 903e c07b fbbb 4e12 d6bd
000000a0: 2a0a a3be dc05 0fbe 465c b83e d69a b83e
000000b0: b80e 563d 7140 28be b97b 87be efac fabe
000000c0: fced 3c3e 9a7b 3e3f 3f64 2f3e a11a 0abf
000000d0: 2749 8bb9 8aa7 bbbe 1817 b3bd 4b4d 03bf
000000e0: 25b2 5dbe d932 953e 348d 973e 1e85 963e
000000f0: 8a0c 83bf c060 bf3e 7182 1bbf 307a d1be
00000100: 333a 90bd 7dac d2bd 6e33 abbf 1c80 1a3f
00000110: 8dc9 6dbe 5c20 8b3e a598 ad3d e627 98be
00000120: 347c 19be fd80 843e 9e0a 093f f4a7 933e
00000130: 3738 e23e 90b3 5e3e 8cdf 67be 5577 e3be
00000140: 7117 003f fd03 5c3f 8e37 c53e 9a0b a83e
00000150: cccc 1abf 480f 363f 7736 493e 6e4e 89be
00000160: a790 2a3f bf6b a3be b22b c23e 9be0 fa3e
00000170: 973e e1bd 2b8a 943f 997e 213f 823d f83e
00000180: fc4b 293f 478b aabe 9a1e 9f3e 32a8 523f
00000190: 9d5b 42be 7b83 6dbd 290b 4c3f 4c76 d5be
000001a0: 98ce 683e c7fd 42be a93f 8b3d df8f c1be
000001b0: 6310 52be aab1 a6be 41e6 89be ca56 d1be
000001c0: 4695 0c3d 39b3 c03d 2b81 10bf 12ec 52be
000001d0: 1319 2d3e a37c cebd 914c 8fbe 1248 cb3e
000001e0: cb40 5dbf c335 4fbe 585d 003d 6885 48bf
000001f0: 3878 c83e e61b 563e a34e 1a3f 0d41 adbe
00000200: 75d5 c83e 56f0 d2be f5f1 db3e 18d1 7fbe
00000210: 0285 4f3f a463 093f 6bd6 753e 64fd 2e3f
00000220: 5592 b03e 4184 ee3e 4d2e 383e 7165 e5be
00000230: 3fe6 f1be 44f9 2b3b 8c38 9ebe 8b0c 4ebe
00000240: 89be 733e 30d8 07be 7091 80bd b980 133e
00000250: bc19 de3e 26de 93bd 56fb fdbe 6295 99be
00000260: 1e9f d13d 4f12 1ebf e6c8 b53e 92b8 ff3c
00000270: f92d 56bf 7943 373f 282c 36bf 18de 05be
00000280: 65f0 1b3f afbd 253f 111d 893f de56 a73e
00000290: 6e0c 143f 1264 453f dec1 5b3e d7e7 f73e
000002a0: 42f7 923f 2bd5 44be c863 d1bd 1e95 8bbe
000002b0: 7f28 9bbe 3462 8cbe ac2f c43e fc3c 0c3f
000002c0: eb4b 383e 17b0 13bf 1240 cc3e 794f aa3d
000002d0: 71d3 b83e 7a1f 3f3d 86c4 fe3e bbad 483f
000002e0: 98c2 7f3e 6a34 323f ba05 d3bd 9c24 d7be
000002f0: 786a 903e d0d1 b13e 0bbe 673d bf60 7a3e

shared_layers.0.bias f4 [64]
-0.47229147 0.4117242 -0.2972215 0.060489573 0.56194556 -0.5546095 0.67381406 0.39953974
-0.19410735 0.64194614 0.22396344 0.49185517 -0.4192237 -0.4052206 0.5490448 -0.53784543
0.70528567 -0.3320973 -0.21193014 0.31629944 0.22908592 -0.40953767 0.17578559 0.45973012
-0.31498134 0.47680885 0.0748302 -0.07470639 0.017771022 0.04005931 0.4401113 -0.25144413
0.69177926 0.5933262 0.41231018 -0.53846276 0.09427664 -0.49912614 0.028867623 0.103761755
0.5267384 0.2759665 0.34117904 0.3591402 -0.21389027 -0.07056508 -0.2435622 -0.005450086
-0.3006642 0.20964502 -0.5655665 0.67559725 0.011192283 0.17698134 -0.12784843 0.7118693
0.139792 -0.14351228 0.09556046 -0.48833257 -0.5612155 0.6223654 -0.093511574 0.21992092
00000000: 30d0 f1be 84cd d23e 6b2d 98be eac3 773d
00000010: aadb 0f3f e3fa 0dbf 147f 2c3f 7990 cc3e
00000020: 14c4 46be 9556 243f ac56 653e 71d4 fb3e
00000030: 7da4 d6be 1379 cfbe 338e 0c3f 3db0 09bf
00000040: 9a8d 343f a808 aabe 3704 59be 00f2 a13e
00000050: 8095 6a3e ecae d1be 2301 343e bf61 eb3e
00000060: 3c45 a1be 4a20 f43e 9340 993d aaff 98bd
00000070: 8994 913c 3b15 243d 4556 e13e 49bd 80be
00000080: 7218 313f 3ae4 173f 521a d33e b2d8 09bf
00000090: 1c14 c13d 768d ffbe cb7b ec3c 0b81 d43d
000000a0: 54d8 063f 7b4b 8d3e 05af ae3e 39e1 b73e
000000b0: 0d06 5bbe 6d84 90bd 5f68 79be a396 b2bb
000000c0: a8f0 99be 2fad 563e f7c8 10bf f1f3 2c3f
000000d0: d65f 373c 993a 353e b3ea 02be 113d 363f
000000e0: a225 0f3e e2f4 12be 34b5 c33d ba06 fabe
000000f0: d2ab 0fbf 5753 1f3f ff82 bfbd f332 613e

shared_layers.2.weight f4 [32, 64]
-0.059137285 0.09292796 -0.09753789 0.034825116 0.026995726 -0.049907282 0.08764129 0.056062557
-0.051044255 -0.0030853264 0.011701256 -0.09997156 0.05453044 -0.115313426 -0.12534119 -0.04102613
-0.038993053 -0.006521836 0.08180201 -0.063616216 0.077886164 -0.120005056 0.087315135 0.0044693095
-0.058722094 -0.02237627 0.11633398 -0.02958472 0.0145009905 -0.055824548 -0.06280962 -0.08495681
0.08966903 -0.05187277 0.0035712046 -0.09866296 -0.10197596 -0.03480777 -0.0036914349 0.048040062
0.03228449 -0.054619227 -0.02176167 0.044328745 0.0056943 -0.033286035 0.02871783 -0.0071543157
-0.111790344 0.015977893 -0.0024223775 0.037417505 -0.065930516 -0.1270646 -0.08566153 -0.051393386
-0.11748162 -0.007910401 -0.028352207 -0.09095654 0.11395277 -0.04192446 -0.027638316 -0.027160516
0.04393281 0.09424761 -0.06953819 -0.06801632 -0.11465758 -0.100358635 0.020875067 0.029974297
-0.03195268 0.029560253 -0.056383997 0.111558124 0.1016766 -0.026835486 -0.06750873 -0.047188684
0.0022069067 -0.033421814 -0.079829395 -0.092606485 0.009933934 -0.102746084 -0.09086479 0.076817736
-0.046797827 -0.097101286 0.009759903 0.004463032 0.03828612 -0.052322835 -0.01820527 -0.10481638
-0.035092294 -0.07596165 0.05032812 -0.08625507 -0.11327191 0.07345632 -0.11137612 -0.06563434
-0.03514424 0.030569956 0.11414361 -0.006168276 -0.11341621 0.011755556 -0.043139055 0.11383559
-0.09506251 0.035998523 -0.08099727 0.08006245 0.124862835 -0.08646701 -0.042789385 -0.026477784
-0.07605857 -0.095177874 0.084273145 -0.0038038641 0.0046068877 -0.021557257 -0.10217121 0.09820239
0.05482924 -0.12190349 -0.0016150313 0.073924035 0.069840215 0.013979405 -0.117633864 -0.020537982
0.06471565 0.026601307 -0.005638342 -0.044693373 0.04822074 -0.05189812 -0.029466152 -0.08002415
0.017384447 0.0218364 -0.022511408 0.07743281 -0.091881946 0.019448504 0.043566372 -0.01601942
-0.06780526 -0.040912952 0.02174148 -0.01261288 -0.14888039 -0.045606658 -0.06713867 -0.0027749257
-0.06572372 0.04262604 -0.095102035 0.05156888 0.10616219 0.012972623 0.015282854 -0.00066773593
-0.004709958 -0.14145528 0.022874434 0.09116589 0.026371162 -0.12503602 0.042033 0.036664337
-0.09821689 0.033147156 -0.11781843 0.042939056 0.07587014 -0.039472234 -0.008966128 0.035221297
0.01594303 -0.09448454 0.02359649 -0.0041793436 -0.06561197 -0.14398448 -0.010738522 0.05879232
0.010655478 -0.5733722 0.2950047 -0.050802886 0.117098615 -0.11308633 -0.21376926 0.1445193
0.12162869 0.06641612 0.31295642 0.16893858 -0.06570399 -0.079099625 0.2064107 0.05646397
0.16219208 0.049447462 -0.095973134 0.042814467 -0.47384095 -0.046823546 -0.39039016 0.108556606
0.080326855 0.0803992 0.058468208 0.2806337 -0.113624915 -0.05819289 0.02212612 0.3129116
0.09970073 0.17560937 0.22123954 -0.07188769 0.035428956 0.055654734 0.012994707 -0.08101873
-0.35342267 -0.2209707 0.22961478 -0.047922794 0.36954138 0.34417266 0.052784935 -0.11142178
-0.060972363 0.05764133 0.117366806 -0.06036063 -0.36329773 0.13640343 0.4503524 -0.012248092
0.32773432 -0.025174439 0.10338655 -0.09964517 -0.09178996 0.1896932 0.07264541 0.07569459
00000000: f039 72bd 0451 be3d f2c1 c7bd c8a4 0e3d
00000010: 2426 dd3c 946b 4cbd 477d b33d daa1 653d
00000020: c813 51bd 3033 4abb a0b6 3f3c e4bd ccbd
00000030: 505b 5f3d 7229 ecbd 7159 00be 040b 28bd
00000040: 2eb7 1fbd 20b5 d5bb d087 a73d 3849 82bd
00000050: c882 9f3d 36c5 f5bd 47d2 b23d 4973 923b
00000060: 9486 70bd 704e b7bc 8240 ee3d a85b f2bc
00000070: 9095 6d3c 48a8 64bd 54a2 80bd d6fd adbd
00000080: 65a4 b73d 8b78 54bd df0a 6a3b ce0f cabd
00000090: c6d8 d0bd 9892 0ebd 00ec 71bb a8c5 443d
000000a0: be3c 043d 69b8 5fbd 8845 b2bc 0f92 353d
000000b0: 4097 ba3b f056 08bd a841 eb3c c06e eabb
000000c0: 56f2 e4bd 12e4 823c c0c0 1ebb 1943 193d
000000d0: 9406 87bd 391d 02be 506f afbd df81 52bd
000000e0: 349a f0bd a09a 01bc e342 e8bc 6c47 babd
000000f0: 1260 e93d fcb8 2bbd c069 e2bc bb7f debc
00000100: e4f2 333d e404 c13d 0a6a 8ebd 244c 8bbd
00000110: 98d1 eabd d488 cdbd 3002 ab3c a88c f53c
00000120: d0e0 02bd 5828 f23c e8f2 66bd 9678 e43d
00000130: d23b d03d 18d6 dbbc 0442 8abd ec48 41bd
00000140: c0a1 103b 50e5 08bd 987d a3bd 78a8 bdbd
00000150: f0c1 223c 8a6c d2bd 5217 babd 9e52 9d3d
00000160: 14af 3fbd 0add c6bd 00e8 1f3c a03e 923b
00000170: e8d1 1c3d 7850 56bd 3823 95bc f8a9 d6bd
00000180: f0bc 0fbd c891 9bbd dc24 4e3d 80a6 b0bd
00000190: 1afb e7bd 4470 963d 2a19 e4bd 4c6b 86bd
000001a0: 68f3 0fbd d86d fa3c 20c4 e93d 401f cabb
000001b0: c246 e8bd 609a 403c 94b2 30bd a222 e93d
000001c0: 22b0 c2bd 3073 133d e6e1 a5bd c8f7 a33d
000001d0: 16b8 ff3d 9e15 b1bd ec43 2fbd f0e7 d8bc
000001e0: 98c4 9bbd 9eec c2bd 6697 ac3d 404a 79bb
000001f0: 60f5 963b d898 b0bc 243f d1bd 561e c93d
00000200: a094 603d 89a8 f9bd 75af d3ba 7c65 973d
00000210: 6308 8f3d e009 653c 06ea f0bd 453f a8bc
00000220: a489 843d fcea d93c d7c1 b8bb 6610 37bd
00000230: 1c83 453d 2093 54bd 0063 f1bc b4e3 a3bd
00000240: d469 8e3c 40e2 b23c d869 b8bc 1895 9e3d
00000250: 9a2c bcbd 7852 9f3c a772 323d 293b 83bc
00000260: 7cdd 8abd 5794 27bd 301b b23c 41a6 4ebc
00000270: 1a74 18be 0cce 3abd 0080 89bd 87db 35bb
00000280: 289a 86bd a498 2e3d dbc4 c2bd e439 533d
00000290: 906b d93d 208b 543c f064 7a3c 000b 2fba
000002a0: fe55 9abb a7d9 10be 2a63 bb3c 2fb5 ba3d
000002b0: 5608 d83c 7109 00be cc2a 2c3d 582d 163d
000002c0: f025 c9bd 50c5 073d ca4a f1bd dde0 2f3d
000002d0: ce61 9b3d a3ad 21bd abe6 12bc 3544 103d
000002e0: f59a 823c 1c81 c1bd 6d4d c13c e0f2 88bb
000002f0: 925f 86bd ab70 13be a0f0 2fbc 37d0 703d
00000300: 5094 2e3c 85c8 12bf db0a 973e b016 50bd
00000310: 66d1 ef3d ce99 e7bd 54e6 5abe defc 133e
00000320: 7618 f93d 2d05 883d d33b a03e 3cfe 2c3e
00000330: d08f 86bd fcfe a1bd 545d 533e c446 673d
00000340: ae15 263e 6c89 4a3d 908d c4bd 395e 2f3d
00000350: 489b f2be 0cca 3fbd 38e1 c7be ed52 de3d
00000360: 6882 a43d 56a8 a43d 5c7c 6f3d 38af 8f3e
00000370: 2eb4 e8bd ab5b 6ebd d641 b53c f335 a03e
00000380: e52f cc3d f1d2 333e 9e8c 623e da39 93bd
00000390: f41d 113d 38f6 633d c0e7 543c 26ed a5bd
000003a0: d1f3 b4be 2546 62be 2320 6b3e b14a 44bd
000003b0: 8734 bd3e 6637 b03e 0435 583d 1a31 e4bd
000003c0: 28be 79bd 5119 6c3d 025e f03d b53c 77bd
000003d0: 2902 babe 57ad 0b3e 9794 e63e 39ac 48bc
000003e0: cbcc a73e a03a cebc 54bc d33d c412 ccbd
000003f0: 60fc bbbd ef3e 423e 1ec7 943d c405 9b3d

shared_layers.2.bias f4 [32]
0.07895243 -0.10639304 0.073768735 0.10551846 -0.11144258 0.041656796 -0.025847182 -0.05605514
-0.07668394 -0.07751696 -0.028728306 0.1473863 0.09553917 0.20097895 -0.075577214 0.074305736
0.12109118 0.057527717 -0.1045592 0.17243229 -0.04213831 0.013125625 -0.12673096 0.26358613
-0.021292254 -0.06354215 0.01411818 0.0067327367 0.12691422 -0.113088846 -0.0029372424 -0.044839352
00000000: d0b1 a13d 98e4 d9bd 1014 973d 101a d83d
00000010: 023c e4bd 51a0 2a3d 78bd d3bc 139a 65bd
00000020: 780c 9dbd 36c1 9ebd a057 ebbc 6fec 163e
00000030: 0aaa c33d 6dcd 4d3e 3ac8 9abd 9b2d 983d
00000040: a7fe f73d 2fa2 6b3d 2223 d6bd 1792 303e
00000050: 3899 2cbd dd0c 573c c3c5 01be c3f4 863e
00000060: 186d aebc 6322 82bd f04f 673c 4a9e dc3b
00000070: cdf5 013e 209b e7bd c07e 40bb 78a9 37bd

shared_layers.4.weight f4 [8, 32]
-0.022909794 0.125628 -0.09791095 -0.08714198 -0.45625243 0.019986603 -0.010988653 -0.15767574
0.14778031 0.15264362 -0.10054575 0.025965262 -0.10810338 0.16877781 -0.03149813 0.25081435
0.075325996 -0.20493428 -0.094186045 -0.10984011 0.12057381 -0.017452765 0.09255908 0.043262377
-0.13405207 0.08773784 0.12087448 -0.08703051 0.10256952 -0.13068315 -0.10082238 0.071108714
-0.06359616 -0.089937896 -0.0076923394 -0.13830338 -0.06673662 -0.14923318 0.14322743 -0.279263
0.15511961 0.040183775 0.13342558 -0.097373076 -0.20269361 -0.029170636 -0.062363196 -0.35412398
-0.11782597 -0.30194226 -0.15870014 -0.122046046 0.14090408 -0.05858742 0.025518134 -0.29522237
0.110022426 0.110699795 -0.059347797 -0.21556291 -0.30944186 0.05513579 -0.15439714 0.0265682
-0.035922542 -0.023679743 0.06632621 -0.19972111 -0.08485298 0.08644238 -0.10446444 0.04152483
-0.14152385 0.13275385 -0.028403224 -0.22416452 -0.07955315 -0.18517737 0.049732268 -0.12489434
-0.005107544 -0.003957254 0.089525275 -0.28934726 0.16601454 0.04891054 -0.05447647 -0.35542753
0.06084458 -0.11067851 -0.06345844 -0.28347448 -0.24893975 0.098144285 -0.06992061 0.1286547
0.15358952 -0.14901038 -0.059150036 -0.20161234 -0.0023758917 0.06566797 -0.024784813 -0.015088973
-0.086136274 -0.03320261 -0.023294646 -0.2473278 -0.1737005 -0.2679858 -0.123948485 -0.28948468
-0.07766021 -0.19344625 -0.15413688 -0.21157616 -0.12842341 -0.012050698 0.17329837 -0.18409668
-0.1261423 0.009057737 0.018874643 -0.2155115 -0.19787753 -0.08296278 0.043526947 0.028064067
-0.059063297 0.06791867 -0.009191395 -0.0028831959 -0.00043213443 -0.0997309 -0.015899098 -0.11987791
0.14746279 -0.08007311 -0.0064193443 -0.24653538 -0.04498995 -0.25901824 0.13059571 -0.0315582
-0.19489703 -0.29766953 -0.14564705 -0.18900423 -0.12649712 0.13595045 -0.013311723 -0.19699492
-0.15462263 -0.1094175 -0.020838033 -0.36360356 -0.40245897 -0.11683313 0.08894557 0.11619013
0.086970806 -0.15447749 0.019413732 0.27764583 0.42714897 -0.06318242 0.09002617 0.4576953
-0.15261652 0.06979674 0.09446965 0.21315765 0.076804735 -0.026688447 -0.011642477 0.22799265
0.3371458 0.29311422 -0.066159695 0.24893916 0.029305905 -0.14525297 -0.051423542 -0.03811486
-0.13330403 -0.011202379 0.0755379 0.46505752 -0.13579328 0.10552628 0.027256472 0.14676721
-0.114327334 -0.011353054 -0.04492249 -0.21089126 -0.6616599 -0.16292772 0.12967569 -0.6746775
0.048528366 -0.0944502 0.09059682 0.07383666 -0.10024449 0.050709732 0.17023173 0.22458245
-0.07075156 -0.4102732 0.12972076 -0.0679793 0.112858534 -0.12028322 0.09233395 0.24374503
0.11694692 -0.08495176 0.031703576 -0.35223138 0.33178726 -0.011390586 -0.022714349 0.009829115
-0.07823792 0.11675334 0.012787709 -0.14498869 -0.075731404 -0.052502554 0.147594 -0.054906216
-0.013615329 -0.015309632 -0.093853146 -0.16128601 -0.34020257 -0.31454143 0.13456161 -0.2072824
-0.07396932 -0.03862411 0.15079601 -0.1439853 0.09121682 -0.04062637 -0.07923011 -0.32545528
-0.011202442 0.012820074 -0.13627951 -0.3273302 -0.31381348 -0.011507607 -0.08043639 0.105527
00000000: 52ad bbbc a0a4 003e 8985 c8bd 7f77 b2bd
00000010: eb99 e9be f2ba a33c c009 34bc c075 21be
00000020: b953 173e 9c4e 1c3e eeea cdbd 1ab5 d43c
00000030: 4e65 ddbd 17d4 2c3e 2f04 01bd bd6a 803e
00000040: 8444 9a3d 4bda 51be 9de4 c0bd daf3 e0bd
00000050: 67ef f63d 1af9 8ebc 9d8f bd3d e433 313d
00000060: f244 09be e6af b33d 0a8d f73d 0d3d b2bd
00000070: f80f d23d ced1 05be f77b cebd 72a1 913d
00000080: b43e 82bd 5c31 b8bd 0510 fcbb 679f 0dbe
00000090: 36ad 88bd 95d0 18be 36aa 123e 8ffb 8ebe
000000a0: add7 1e3e be97 243d b7a0 083e 896b c7bd
000000b0: ea8e 4fbe 42f7 eebc 8d70 7fbd bd4f b5be
000000c0: be4e f1bd 2d98 9abe 4a82 22be 47f3 f9bd
000000d0: 2949 103e 5df9 6fbd 680b d13c 6327 97be
000000e0: 7053 e13d 93b6 e23d ad16 73bd 86bc 5cbe
000000f0: 2a6f 9ebe 11d6 613d 491a 1ebe 8ea5 d93c
00000100: 8423 13bd 05fc c1bc 09d6 873d b183 4cbe
00000110: 66c7 adbd b408 b13d 74f1 d5bd f115 2a3d
00000120: a1eb 10be a0f0 073e e1ad e8bc 628b 65be
00000130: c3ec a2bd 239f 3dbe 10b4 4b3d 9bc8 ffbd
00000140: 2f5d a7bb daab 81bb 0759 b73d 5325 94be
00000150: b7ff 293e 6b56 483d b822 5fbd 99fa b5be
00000160: 2b38 793d 6aab e2bd 80f6 81bd 9123 91be
00000170: 10ea 7ebe dfff c83d 8932 8fbd 0fbe 033e
00000180: 9246 1d3e 2d96 18be 4f47 72bd 7773 4ebe
00000190: d9b4 1bbb ee7c 863d 8509 cbbc bd37 77bc
000001a0: 3768 b0bd 76ff 07bd 6ad4 bebc 8043 7dbe
000001b0: 8bde 31be 6f35 89be b4d8 fdbd 5637 94be
000001c0: 510c 9fbd c616 46be 0fd6 1dbe 6ca7 58be
000001d0: 6d81 03be 4a70 45bc 2175 313e d783 3cbe
000001e0: 722b 01be e766 143c ff9e 9a3c 0caf 5cbe
000001f0: 68a0 4abe 64e8 a9bd 5049 323d 9de6 e53c
00000200: 5bec 71bd f218 8b3d 8197 16bc 00f4 3cbb
00000210: 1a90 e2b9 b73f ccbd d33e 82bc 8d82 f5bd
00000220: 7c00 173e 5ffd a3bd 5d59 d2bb c573 7cbe
00000230: 6247 38bd 0a9e 84be e2ba 053e 2c43 01bd
00000240: 1693 47be 2468 98be 8024 15be 538a 41be
00000250: 7688 01be 9836 0b3e 6a19 5abc 09b9 49be
00000260: 6555 1ebe 4816 e0bd 86b4 aabc 3f2a babe
00000270: 1a0f cebe 3546 efbd 1829 b63d 17f5 ed3d
00000280: c01d b23d 592f 1ebe 8c09 9f3c 9827 8e3e
00000290: 45b3 da3e c965 81bd a45f b83d 0a57 ea3e
000002a0: 8147 1cbe 98f1 8e3d 4e79 c13d 0046 5a3e
000002b0: cd4b 9d3d bba1 dabc 16c0 3ebc e876 693e
000002c0: 609e ac3e 1113 963e bc7e 87bd e8e9 7e3e
000002d0: f012 f03c 32bd 14be 7ea1 52bd 541e 1cbd
000002e0: da80 08be 2f8a 37bc 9db3 9a3d 051c ee3e
000002f0: 650d 0bbe 2a1e d83d f748 df3c 254a 163e
00000300: 7324 eabd 2902 3abc a500 38bd e1f3 57be
00000310: 8b62 29bf 86d6 26be b4c9 043e aab7 2cbf
00000320: aec5 463d 1b6f c1bd d38a b93d ad37 973d
00000330: fc4c cdbd 02b5 4f3d 3a51 2e3e f1f8 653e
00000340: 32e6 90bd 540f d2be 85d5 043e bb38 8bbd
00000350: 6022 e73d 0d57 f6bd 9519 bd3d 4c98 793e
00000360: de81 ef3d 30fb adbd 9cdb 013d ac57 b4be
00000370: 05e0 a93e 959f 3abc 7113 babc 4c0a 213c
00000380: 343b a0bd 601c ef3d 8a83 513c ea77 14be
00000390: 1119 9bbd eb0c 57bd e222 173e 57e5 60bd
000003a0: d412 5fbc 40d5 7abc 1436 c0bd 2928 25be
000003b0: 082f aebe 930b a1be 85ca 093e d641 54be
000003c0: 3a7d 97bd 5134 1ebd 456a 1a3e e270 13be
000003d0: e2cf ba3d d667 26bd 6543 a2bd 13a2 a6be
000003e0: 738a 37bc 4a0b 523c db8c 0bbe d397 a7be
000003f0: 29ac a0be 678a 3cbc d6bb a4bd 8a1e d83d

shared_layers.4.bias f4 [8]
-0.020452872 -0.15916957 -0.21125661 -0.13548034 -0.012641319 -0.08259813 0.119081885 -0.102939874
00000000: c88c a7bc 59fd 22be a753 58be 5cbb 0abe
00000010: 891d 4fbc 3529 a9bd 34e1 f33d 24d2 d2bd
